Result/PER/CartPole-v1/Model.pth (torch, 173032 bytes, 8 tensors)

linear1.weight f4 [256, 4]
00000000: 932e 073e 4a16 553e be7e dcbf 09bb 4fbf
00000010: ce26 8d3d 7570 eebc 89dc 2940 f584 33be
00000020: 1865 bc3e 82e8 c1be 1c63 d33f 3857 c3bd
00000030: 2a81 533e b455 7e3f c353 483d 3432 423f
00000040: 8ea7 423d f1fe f2bd ef7b 0bc0 d27b 4dbf
00000050: 29e9 fabe 8091 e63e 22f3 e23e 6c08 83bf
00000060: d42f 813e fe3f 89bf 391a efbf 6d94 86be
00000070: 1374 cb3e c717 e0be 598f 88bf ad5b f1be
00000080: 887d 26bf 80bf 093d 7cfd 7240 f669 063f
00000090: 644f 9f3e 0f15 983f 7477 9e3f 4f46 d53e
000000a0: 8601 06bf 82f5 19bf 976e 06bf 0e80 8a3f
000000b0: 6856 91bf 1243 643f 8393 f33f d46b fbbe
000000c0: 677c eabc e7ea 483f 8fa8 0040 ec4f 273f
000000d0: 7d43 d63e fd81 703e 85f3 9c3f e9fb 823c
000000e0: 8487 59bd 6370 be3e 95a5 68c0 a034 d1be
000000f0: 37d6 c7be 7ee4 00bf 281f 72bf 37ee 753f
00000100: 64e4 7bbc 35e8 563e 5a79 fdbe a327 d63f
00000110: db54 63bf da0d 84bf c21c 933e f6cd fcbe
00000120: ac3b b4be f335 e63e 9c67 0fc0 9b3f 83bf
00000130: 1071 643d 69b2 f3bc e163 0140 8481 d1be
00000140: 9a78 0cbc 7bee 04bd c872 56c0 e818 b7be
00000150: 50ee 54bf ef09 aa3e 4a09 1440 0310 1bbd
00000160: 513f 85bf 13b9 efbe 7fe8 7b3f 7728 4e3f
00000170: 0cc7 763d 7be0 a0bd a625 0240 c2c0 81bf
00000180: b11b 43be 4da5 403d 4e12 4f40 2767 3b3f
00000190: dcdf 473d 1045 c1be 05c1 4440 ec77 14be
000001a0: c339 74be a4f3 0e3f fcb7 533f f910 56bf
000001b0: fe63 3ebe 7a49 043e c197 713f 686a ebbc
000001c0: 0f60 0f3f 23b8 e03f a74d 2f3f 47c9 a53f
000001d0: 5caf b2bd 1940 073f 2358 c63e 2aa2 09be
000001e0: 3e7b bdbf 4ef3 523f be4e a23e cbc0 633f
000001f0: ddf6 263f be83 a2be 454c b93f ee58 cbbd
00000200: 40f5 5dbe 7f55 ba3f 82d3 cebf 0641 743f
00000210: 6e3e 91bd 3c71 49bf f3e3 99be 0804 1e3e
00000220: 0643 043f b522 acbd 0eda bbbf e98c a6be
00000230: a7b4 1a3f 1da3 df3d ab7b b33f bf06 323e
00000240: b700 793c e08f 943c fac5 e1bf cdeb 393f
00000250: b9e7 803e 8d95 c8be d36e c83f c9ea b2bd
00000260: 1dba 003f 72ab b4bf 9bc4 bc3f 5642 0abf
00000270: c44c 0ebf 45cf f7be 85c6 953d 76b3 2cbf
00000280: bca1 773e 27ca 6f3f c09a 9fbf f273 4d3f
00000290: b0c8 603f 41a6 fe3d 65da bf3f 6395 7a3f
000002a0: 2431 02bf d9ce d53e 7871 2abf 95c4 c3bf
000002b0: a0b0 2b3f 89f3 bb3e 2cf2 9e3f 0648 463f
000002c0: bf6d fbbf 5983 ecbe 55cd 02be fccf 9bbe
000002d0: f9b9 9cbf c9c2 eabe b5c3 253f cb7a c4bd
000002e0: 9509 2ebf a777 d43f f751 edbf b7f1 f03d
000002f0: 97f1 17bf 293f ddbc 2eb0 4f40 f0f1 8f3e
00000300: dfb0 2fbf 353d 363f 2968 cd3f cb74 173f
00000310: b768 9d3e 8659 a83f 361d 513f 2677 343f
00000320: 35a7 d83e dd54 843c 46e7 13c0 bf67 3bbe
00000330: a948 343d 5df5 a3bd a3d8 3240 ca35 4a3e
00000340: 4e5f 8dbf 6f57 683f 94b1 43bf 0334 213f
00000350: dc06 92bf 7099 09bf 321a 413e 6b69 13be
00000360: 0766 533f 5c1c 303e 2b80 3340 a367 953e
00000370: 1bf1 1dbf 333f 4f3d 8efa 0040 a506 323e
00000380: c99e f93e 40bf a73c 690d 95bf dfbc 51be
00000390: 148c b9be 4402 9fbe 7c2f 0c40 5bc8 1bbf
000003a0: 9828 6fbf f090 d93e a5f7 a63e a15e 143f
000003b0: 5c9c f6be 7aa9 b73e e19b 433f 0d9f 953e
000003c0: 4668 adbe 1576 1e3f 3421 afbf b1f0 4a3f
000003d0: 4ab8 1ebe 9923 28bf 7bc6 f73f 33bd acbf
000003e0: f7e8 043f 36b2 6dbd d83c e7bf fb20 b1be
000003f0: 254e 3abf c11a bf3e 65e0 943f 6c78 48be
0.1320136 0.20809284 -1.7226179 -0.8114477 0.06892167 -0.029106358 2.6540854 -0.17531188
0.36795878 -0.37872702 1.6514621 -0.0953812 0.20654741 0.9934952 0.048908006 0.75857854
0.047523074 -0.118650325 -2.1794393 -0.8026706 -0.49006012 0.45032883 0.4432612 -1.0236945
0.25231802 -1.0722654 -1.8679878 -0.26285115 0.39736995 -0.4376814 -1.0668746 -0.47140256
-0.65035295 0.033629894 3.7967215 0.52505434 0.31115258 1.1881427 1.2380204 0.41655204
-0.52346075 -0.6014024 -0.52512497 1.0820329 -1.1354494 0.8916484 1.9029392 -0.49105704
-0.028623773 0.7848343 2.010288 0.65356326 0.41848364 0.23487087 1.2261816 0.01598926
-0.053107753 0.3719512 -3.6351063 -0.40860462 -0.3903062 -0.5034865 -0.9457879 0.9606661
-0.015374277 0.20987017 -0.49506646 1.6730846 -0.88801354 -1.0316727 0.28732878 -0.49375886
-0.35201776 0.44963035 -2.2406988 -1.0253786 0.055771887 -0.029748159 2.0217211 -0.40919125
-0.0085736755 -0.032453995 -3.3507557 -0.3576119 -0.83176136 0.33210704 2.313067 -0.037857067
-1.0409948 -0.46820888 0.98401636 0.80530494 0.06024842 -0.07855316 2.0335479 -1.013695
-0.19053532 0.047032643 3.2354922 0.73204273 0.048797473 -0.37748003 3.074281 -0.14498872
-0.2385016 0.55840516 0.8270261 -0.8361965 -0.18592831 0.12918654 0.94372183 -0.028737262
0.5600595 1.7556194 0.68477863 1.295205 -0.087248534 0.5283218 0.38739118 -0.13440767
-1.4803236 0.82402503 0.317007 0.88966054 0.65220433 -0.31741136 1.4476401 -0.09929071
-0.21675587 1.4557341 -1.6158297 0.9541172 -0.07091986 -0.78688407 -0.30056724 0.15431225
0.5166477 -0.08405057 -1.467592 -0.3252938 0.60431904 0.10919783 1.4022115 0.17385386
0.015197924 0.018135011 -1.7638543 0.7262543 0.2517679 -0.39176598 1.5658821 -0.08736188
0.50283986 -1.4114821 1.4747499 -0.5400747 -0.55585885 -0.48400322 0.07313255 -0.67461336
0.2418279 0.93667835 -1.2469101 0.80255044 0.87806225 0.12434054 1.4988524 0.97884196
-0.5085623 0.41759375 -0.6657939 -1.5294367 0.67066383 0.3670924 1.2417655 0.7745365
-1.9642867 -0.4619396 -0.1277364 -0.30432117 -1.2244254 -0.45851734 0.6475175 -0.095937334
-0.6798337 1.6599015 -1.8540639 0.117648534 -0.5935301 -0.027007656 3.2451282 0.2811427
-0.6862926 0.71187145 1.6047412 0.59162587 0.30743954 1.315232 0.816852 0.70494306
0.4231507 0.016153747 -2.3109908 -0.18301295 0.044014607 -0.08005784 2.7944725 0.19747081
-1.104471 0.90758413 -0.7644284 0.6296999 -1.1408343 -0.5374975 0.18857649 -0.14395683
0.82577556 0.17198318 2.8046978 0.2918063 -0.6169602 0.05059738 2.0152926 0.17385347
0.48753956 0.020476937 -1.1644717 -0.20482205 -0.36239684 -0.31056416 2.1903982 -0.60852593
-0.93421316 0.4249339 0.32610813 0.5795689 -0.48166168 0.35871488 0.7640973 0.2922291
-0.33868617 0.6189893 -1.3682008 0.79273516 -0.15499988 -0.6567932 1.9357446 -1.3495239
0.51917976 -0.058031283 -1.8065443 -0.34595475 -0.7277549 0.373251 1.163098 -0.19577187

linear1.bias f4 [256]
00000000: 21c5 acbf 112b 483f a6fc 1cbf 1b95 04bf
00000010: 95d7 24bf b076 30bf 47ef febc 8e6f 8abe
00000020: 7869 1ebf 8882 66bf e820 39be 6f21 1dbe
00000030: 5d98 21be 0dc6 07bf 7280 0abf ce88 9dbe
00000040: 7ad5 0c3d 637b 073f 3ef0 85be 3bbe a73e
00000050: 418f 20bf d93c bcbd 933c ab3e 5212 873e
00000060: fb63 0cbf 3a6b 6cbe bd66 b2bf 773f 633f
00000070: ac95 85bf 0b57 523e 257f 23bf c378 6cbf
00000080: 703a f5be acf8 e43d 92cc 00bf 8440 62bf
00000090: b848 723c 9da7 fb3c 2c82 f2bd b85e 003f
000000a0: 9945 0dbf 88c3 a1be 98ec 43be 2ce6 55bf
000000b0: 48a2 e5be 3f34 0cbf 7d32 89be d01f 33bf
000000c0: 2296 2abf a3b1 53bf d527 21bf efb5 12bf
000000d0: 46e2 2abf db27 01bf 500e 47bf 3ffa ec3c
000000e0: bf2f 60bf 71f5 b03e 8580 0dbf f918 4d3f
000000f0: c114 b6be da8c 44be 3fa8 80bf 7bfa 7ebf
00000100: 3170 8ebf ac45 8ebf b9b2 8ebf 9521 75bf
00000110: 3500 003f 1d93 203e 7418 973d 8bb6 c9bd
00000120: 56d5 4cbf d91c 5cbe d7b7 a5be 5a90 84bf
00000130: a363 603e f3ca 8abd f55b 843e 239f f4be
00000140: dcc4 f63e f74d 063f d406 c4bd 52ee eb3e
00000150: 8f96 203f 7874 f8be ed74 f1be b9ad 2a3f
00000160: 6708 65bf cd81 18bf 2336 f03e f29e aabe
00000170: d0ef 38be 0b0b 70bf 4c8d 8ebe 5bcb 01be
00000180: 37d9 593e 99f6 0a3d 3a70 173e 1730 54bf
00000190: 90aa 18bf 37fd 393f 98cc 99bf e82e 59bf
000001a0: 2ef7 17bf c81b 4cbf 2883 af3d d5d3 1abf
000001b0: 2cc3 9e3e cc06 8f3d 1115 6ebd 820f a03d
000001c0: 6fc7 e73e 81e6 77bf 4b32 f6be ec76 3b3d
000001d0: d26f 503f 2781 58bf b863 19bf 2ce8 3abf
000001e0: dce4 183d b27a 32bf 9ce3 66bf 5994 40be
000001f0: 10df 37bf 17db 62bf 040c 27bf e508 30bf
00000200: 5229 343f 29a1 12bf 2f52 233f b942 89be
00000210: 1aba 12bf a2a2 5dbf 8a56 65be 6b64 2b3f
00000220: fdb9 c5be 2761 59bf 3674 a7bf 38b2 b3be
00000230: 734a 043f e6e0 1ebf 74bd 52bf 2a86 10bf
00000240: 9841 9bbf 2477 2fbe 9933 f0be 8c8c fabe
00000250: 4693 20bf efe4 fcbd 0765 83bf b9c6 78bf
00000260: 85ac 96bf 8710 0f3e b960 9f3d 618e 86bf
00000270: b289 38bf c2ad 52bf 03e4 39bf f623 5fbe
00000280: 38bf 40bf 6778 6dbf 4e32 90bf 0856 033f
00000290: 4e3e 3ebf f5d2 a33d 38b6 03be 699d 5ebe
000002a0: 93c4 053f f616 cabe 2eff 41bf 1ddd 79bf
000002b0: dc91 2a3f 39be d6be 3717 8cbf bfed a8be
000002c0: 0680 00bf 22e0 52bf ec3a 69bf 5abc 55bf
000002d0: c8e4 08bf 688b 3f3e dd4d 55be c02f c1bf
000002e0: 73fd 20bf ac40 c2bd 399b 81be dc77 103e
000002f0: 2185 7cbe a4d5 d6bc d158 d4bc a77d 39bf
00000300: f03e cdbe 9ef5 99bd 9bf5 14bf 7ecd 9fbf
00000310: b8d9 a8be e678 4dbf bb14 d2be 5717 32bf
00000320: 6d53 5bbf e760 8ebf fd33 2a3e 94c9 353f
00000330: 2711 9ebe f2b7 57bf a18c 41be b185 6dbf
00000340: b6ba 33bf 8f49 893e 83b9 82bf 2ff1 3f3e
00000350: 1d87 4abf 1369 d13e 0fa9 3abf 596d 84bf
00000360: d135 a3bf efc9 49bf 4ede 82bf 0a4d 35bf
00000370: ac0c 51bf f1e3 2a3d f86f 3b3f 989b 47bf
00000380: 3851 dd3d dbef 8abf c01d 6bbf d9a8 c7be
00000390: 0c90 f83e f225 16bf 24de c2be 1412 89bf
000003a0: 6ca8 ea3d 0431 08bf 6f49 3dbe 389c 253f
000003b0: 2c02 88be 58a9 14bf d9bc d23e 67dc c5be
000003c0: 26a3 9bbe ce2c 07bf a38b 52bf 03fc cbbb
000003d0: 8fc9 24bf 514a 53bf 6dab b2bf 4e31 62be
000003e0: ff12 50bf 7716 14be 07b0 85bf f247 b6be
000003f0: b1b2 53bf 70e7 11be 69d6 48bf 6ec8 74bf
-1.3497659 0.78190714 -0.6132301 -0.51790017 -0.6439145 -0.689311 -0.031119956 -0.27038234
-0.6187968 -0.90042925 -0.18078959 -0.15344785 -0.15780778 -0.53036577 -0.5410224 -0.30768436
0.034383275 0.5292265 -0.26159853 0.32762322 -0.6271859 -0.09191293 0.33444652 0.26381165
-0.5484006 -0.23087779 -1.3937603 0.88768715 -1.0436301 0.20541017 -0.6386588 -0.9237177
-0.47896147 0.11180243 -0.5031215 -0.88379693 0.014787845 0.030719573 -0.118412346 0.5014453
-0.5518432 -0.3159449 -0.19133222 -0.8355434 -0.44850373 -0.5476722 -0.26796332 -0.6997042
-0.66635334 -0.8269293 -0.62951404 -0.5730886 -0.66751516 -0.5045144 -0.77756214 0.02892792
-0.87572855 0.34562257 -0.5527423 0.8011623 -0.3556271 -0.19194356 -1.0051345 -0.9960095
-1.1127988 -1.1115012 -1.1148292 -0.9575437 0.50000316 0.1568112 0.07377711 -0.098492704
-0.80013025 -0.2149538 -0.3236682 -1.0356553 0.21913008 -0.06776991 0.25851408 -0.47777662
0.48197067 0.52462715 -0.09571615 0.4608026 0.62729734 -0.4852636 -0.4715952 0.6667133
-0.89465946 -0.5957306 0.46916303 -0.3332439 -0.18060231 -0.9376685 -0.27842176 -0.1267523
0.21274267 0.03392658 0.14788905 -0.8288588 -0.5963526 0.72652 -1.2015562 -0.848372
-0.5936154 -0.7972989 0.08569938 -0.6047948 0.3100828 0.06983718 -0.05812556 0.07815458
0.45269343 -0.96836096 -0.48085245 0.04576771 0.81420624 -0.8457207 -0.59917784 -0.73010516
0.037327632 -0.6971847 -0.90191054 -0.1880659 -0.7182474 -0.88615555 -0.6525271 -0.6876357
0.7037555 -0.5727716 0.6379728 -0.26808718 -0.5731522 -0.8657628 -0.22396293 0.669501
-0.3861846 -0.8491387 -1.308234 -0.35096908 0.516761 -0.6206192 -0.8232033 -0.5645472
-1.2129393 -0.17135292 -0.46914366 -0.48935354 -0.6272472 -0.12348353 -1.0265206 -0.97178227
-1.1771399 0.13971148 0.0778212 -1.05122 -0.72085106 -0.82296383 -0.72613543 -0.21791062
-0.75291777 -0.92761844 -1.1265352 0.5130315 -0.7431382 0.07999221 -0.1286248 -0.21739735
0.52253073 -0.39470643 -0.7578 -0.9760302 0.66628814 -0.41942003 -1.0944585 -0.32993886
-0.5019535 -0.8237325 -0.9110553 -0.83490527 -0.5347409 0.18705523 -0.20830484 -1.5092697
-0.6288673 -0.094849914 -0.25313738 0.14108223 -0.2466016 -0.026224919 -0.025921257 -0.72457355
-0.4008708 -0.07517551 -0.58187264 -1.2484586 -0.32978606 -0.802626 -0.4103144 -0.69566864
-0.8567417 -1.1123322 0.16621394 0.7101071 -0.3087246 -0.84265053 -0.18901302 -0.9278212
-0.70206773 0.26813933 -1.0212864 0.18744348 -0.79112417 0.40900478 -0.7291421 -1.034587
-1.2750798 -0.7882375 -1.0224092 -0.7082068 -0.8165996 0.041721288 0.73217726 -0.7797179
0.10806507 -1.0854448 -0.9184227 -0.38996008 0.485474 -0.5865165 -0.38060105 -1.0708642
0.11457905 -0.5319979 -0.18485044 0.64691496 -0.26564157 -0.580709 0.41159704 -0.38644716
-0.3039791 -0.5280274 -0.8224432 -0.0062251105 -0.64370054 -0.8253527 -1.3958565 -0.22089121
-0.81278986 -0.14461695 -1.0444344 -0.35601765 -0.82694536 -0.14248443 -0.78452164 -0.9561833

linear2.weight f4 [128, 256]
00000000: 3fd4 d73e 52e3 87bc 0988 7abf 0631 403e
00000010: 9976 11bf 83bd 9c3d ada6 c5bf 892a ccbe
00000020: d7f7 a53e 84bc 1abd c3e6 103e 0f02 973d
00000030: 214f 75bf 59d0 4cbe 610b 533d 2b9f 5b3d
00000040: c22a 17bf 33ee 01bf b2d1 3b3f 5e3e 173e
00000050: a1c4 afbe 5a8e c83e 37c4 823f 1ffb a13e
00000060: c7fe 703f 19a8 cabe 3b12 a8ba 3213 663e
00000070: c0a3 093c 911c 983e 4d21 e4be b1d5 8cbf
00000080: ac0a c8be 5ef2 32bf 6480 c23e 186d fdbf
00000090: ed33 c4bf 9755 07c0 09bb 01c0 9f35 18bf
000000a0: c383 3ebd 7c9f d83e a3cf 6b3e 40fe 983f
000000b0: 0d4b d7be 0527 a9bf 4b91 07be f2fa 41bf
000000c0: f79f ea3f b21c 803f b39b b93e cca9 743f
000000d0: 8bf0 453f f07c bcbd 4e41 1fbf d45c 683f
000000e0: 0298 f1bf 1ce1 edbd 91da 58bf b2ed 1dbf
000000f0: b080 9ebf 4de2 8cbf da75 f1bf c182 adbe
00000100: b14a 933e ce2a b23c 320f 24be 6ac9 a83e
00000110: bf8a 3d3d f174 583e 1752 78be 7165 ae3d
00000120: 14e2 d2bf 5922 d6be 0a6e 203d 7af8 90be
00000130: 08b1 e8be be85 c83e 8252 5abd 2f96 753e
00000140: a0e8 de3d 619a ce3e a9ed dabf b242 883e
00000150: f29a 03bd 1cc2 c63e f3fc cd3e e432 1a3f
00000160: a681 35bf 55e2 993e 724f 9cbe 55fc 063e
00000170: 9e86 10bf f099 ab3e a6c9 62be dcf4 833e
00000180: 7f5c a3bf cd4c 883f f1be 1d3e 2d7a b73f
00000190: 091b b33e 8f59 413e baa6 10be b4a3 8a3e
000001a0: 10d6 1a3d 4eaa b53e 9be4 7dbf 6216 103f
000001b0: 0609 82be d7c9 6cbf c047 e5bf e12d a23e
000001c0: e4c0 55bd 2228 fabe ae3d 093f 0282 debf
000001d0: 7338 27bf 29d5 103f 7dd8 973f dea4 2a40
000001e0: ac18 e03e 61e5 efbd 56dd 34bf c41b 233e
000001f0: 3874 883f 21a6 74bd f181 f4be 4d73 68be
00000200: a6ed 973e 24c2 54bf 056d fcbe 8bfa a93c
00000210: 3302 3c3e d4e0 b63d 45f9 d0be 9409 133e
00000220: 805e 19be 93f6 1bc0 0c1c f7bf 4830 d63d
00000230: d694 c43c ee3c cfbf 2c79 a93c bd56 a33f
00000240: d6e9 46bc 75d4 93be 547b 90be 2e7a dbbe
00000250: 6f01 77bf 215e b23e 61cf 403e 0152 153f
00000260: 6a41 80be 973b 9d3d 1f67 623a 761d 90bf
00000270: 9b72 e33d 5cdd 69be c2af 3f3d 3f12 61bf
00000280: 226b b4bf 34ac 543e 2944 c53e dd90 903d
00000290: fdd6 1dc0 8899 113f ddab b9be 975f 3e3f
000002a0: 577c c4be d2aa 18be ee7b 5b3f f5a8 d3bf
000002b0: edc9 99be 3cc9 1040 bb9a 87bf 6bb3 6ebf
000002c0: 9da8 143e 0b5c 68bf 1a12 41be 7c94 35bf
000002d0: 35dd 853d cae7 9dbf 4e05 2bbe 2bf4 0bc0
000002e0: 6f4f 4d3e 5178 a63e b9d3 b93f 49a7 22be
000002f0: 2efd 7e3e cd1c 183e 5bdf f3bd 44f2 3e3f
00000300: ec9d a6be 2b15 c1bc 639c 833e db7d 143e
00000310: 18a6 8ebf 314e 61bf 32d5 21bf 9b93 53be
00000320: c7c4 a4bf 64bd 36be 0b2a 6dbe 2b8d 81be
00000330: 6555 e2be 0e5f bb3e a909 d13e d789 18bf
00000340: aa5d f1be e43d 89bf 456b 183e 5ddd 14be
00000350: eb4c 273f 2706 ae3e adc1 06bf 8aca e1be
00000360: 3c53 df3e b248 56be a073 353e 9b82 10bd
00000370: ac3a cabe fbef b53e b495 8c3e b776 cbbe
00000380: cdfb bf3d 7a20 3f3f 3141 dfbf 2141 b73e
00000390: 4b72 263f 4c37 553d a0f2 33bf fb25 803f
000003a0: 48ea e43e a900 78be 8270 f0bd 3dce f33b
000003b0: b9b1 4f3f 2291 933e f732 c1bb 79f4 233a
000003c0: a576 54bd c2b6 84bf 7495 efbd 74d3 d53d
000003d0: caff bd3f 9f7d f0bf b322 a53d b937 8fbf
000003e0: 4b3e 0f3b cc99 d8bc 7a86 29c0 8df6 34bf
000003f0: 47cb 303e 6899 b93e ab07 31bf 0320 f43e
0.42154118 -0.016587887 -0.97863823 0.18768701 -0.5682159 0.07653334 -1.544149 -0.39876202
0.3241565 -0.03777744 0.14150529 0.073734395 -0.95823866 -0.20001353 0.051524524 0.05361859
-0.5904962 -0.5075409 0.73366845 0.14769885 -0.34329703 0.39171106 1.021613 0.31636903
0.9413876 -0.39581373 -0.0012822816 0.2246826 0.008400857 0.29709294 -0.44556656 -1.1002713
-0.39070642 -0.6990107 0.3798858 -1.9798918 -1.5328346 -2.114599 -2.0270407 -0.5945682
-0.046512377 0.42309177 0.23028426 1.1952591 -0.42049447 -1.3215033 -0.13239019 -0.7577354
1.8330067 1.0008757 0.36251602 0.9557159 0.77320164 -0.092035174 -0.6220902 0.90766644
-1.8874514 -0.11615202 -0.84708506 -0.6169082 -1.2383022 -1.1006562 -1.886409 -0.3388882
0.28767923 0.021748926 -0.16021422 0.32966167 0.046274897 0.2113836 -0.24250065 0.08515442
-1.6475244 -0.4182308 0.03916744 -0.28314573 -0.45447564 0.39164537 -0.05330134 0.23983072
0.108842134 0.40352157 -1.7103778 0.26613384 -0.03213019 0.3881997 0.40232047 0.602339
-0.7090095 0.3005549 -0.30529362 0.13182195 -0.5645541 0.33515882 -0.22147235 0.2577275
-1.2762603 1.0648438 0.1540487 1.433416 0.34981564 0.1888182 -0.14126101 0.2707802
0.037801802 0.35481495 -0.9917695 0.56284153 -0.2539751 -0.92495483 -1.7912521 0.31675628
-0.052185908 -0.48858744 0.5360974 -1.7383425 -0.6532051 0.56575257 1.1862942 2.6663127
0.43768823 -0.117136724 -0.7065023 0.1592856 1.0660467 -0.059728745 -0.47755387 -0.22700234
0.296735 -0.83108735 -0.49301925 0.020749351 0.18360214 0.08929601 -0.40815178 0.14359123
-0.14977455 -2.4369247 -1.9305434 0.10458428 0.023996752 -1.6190469 0.020687662 1.2760845
-0.012140712 -0.2887303 -0.28219092 -0.42866653 -0.9648656 0.3483744 0.18829109 0.58328253
-0.25049907 0.076773815 0.0008636582 -1.1258991 0.11105844 -0.22838348 0.046798475 -0.87918466
-1.4095194 0.20768815 0.38528565 0.070588805 -2.4662468 0.56874895 -0.36263934 0.7436461
-0.38376114 -0.14908913 0.85735977 -1.6535937 -0.3003687 2.2622824 -1.0594095 -0.9324252
0.14517446 -0.90765446 -0.18854561 -0.70929694 0.065363325 -1.2336361 -0.16701242 -2.1867778
0.20049833 0.3251367 1.4517738 -0.15884127 0.24901268 0.14854737 -0.11907836 0.7458842
-0.3254236 -0.023569664 0.2570525 0.14501135 -1.1144438 -0.88009936 -0.63215935 -0.20661776
-1.2872552 -0.17845684 -0.2316057 -0.25303015 -0.44205776 0.36595958 0.40827683 -0.59585327
-0.47141773 -1.0722013 0.1488467 -0.14537568 0.6535174 0.3398907 -0.52639276 -0.44099838
0.4361819 -0.20926169 0.17719889 -0.035280805 -0.39497888 0.35534653 0.27457964 -0.3973901
0.09374199 0.7465893 -1.744177 0.35791877 0.6501815 0.05205469 -0.7029209 1.0011591
0.44709992 -0.24219002 -0.11740209 0.007440357 0.8113056 0.28821665 -0.005895968 0.0006254386
-0.05187096 -1.0368273 -0.11698428 0.10440722 1.4843686 -1.8788337 0.08063259 -1.118888
0.0021857198 -0.026440524 -2.6488328 -0.70688707 0.17265044 0.36249852 -0.69152325 0.47680673

linear2.bias f4 [128]
00000000: 4ce9 623e c8e3 803e ec58 4cbe 29b5 a2bd
00000010: ee33 08bf 4beb 3abe 3853 1dbd 4209 b2be
00000020: 9f60 14bd 01f4 dbbd b6b4 22bd a431 c5be
00000030: f110 efbc fed9 293f de52 b13d e5a1 29be
00000040: 9b50 1e3e 643e b83d f82c c33d aed5 953c
00000050: 4040 1cbf 4657 3a3e 3909 713e a61e 093f
00000060: 23af 11bf 4888 13bd 84cb 9b3e 113e 453e
00000070: b5c7 df3e cdbd fe3b 944d b23e 836d e33d
00000080: fb62 86be 3b5e 61bf 8988 2f3e 2948 b03e
00000090: 7a06 193f 4faa 9dbe 3b18 76bf d2ee debe
000000a0: a673 15be 5931 d93d ca6e 76bd d03e 593e
000000b0: eed9 00bf 9768 913e d5fd 6ebd 7afe 563e
000000c0: 9480 d9be faa5 74bc 6b04 a4be 3947 efbd
000000d0: f246 843d 1c99 e1be 65ad 1f3f 40c8 973d
000000e0: 4323 b4bd 7d75 1ebe fae3 07bc 3252 cdbe
000000f0: 3e42 c4bd 2ea8 7d3d 2c40 273e 2ef5 503e
00000100: 474d 53bd 7be7 85bd 6183 e7bd 1f2c 9e3b
00000110: 3ee5 42bd 066f 66bd e773 c4be ece0 b7bd
00000120: 2fdc 88be 7d7b 93bc 67dc 0b3f 0e96 093f
00000130: 5d7e 2bbe 4fac 943d 0000 0000 17cf 34bd
00000140: 7bf0 72bd 200b 8abe a2d0 f6be 7e91 29bd
00000150: e892 85be aa45 86bd 5715 15bf 7829 34bd
00000160: 4f1a 233f 855d 33bf 0a7c 60be 7932 9b3e
00000170: 6d4b a7bd 5145 67be b722 913e 79ad 603d
00000180: 7a14 25bd b961 0b3d 614b debc 7e3b 62bf
00000190: 1f31 7fbd 0a38 d7be 8236 f7bd 9fd4 8a3e
000001a0: 5250 59be d7c9 983e a661 a4bc 5c71 fbbd
000001b0: 743b 1dbc cdc3 0abe 50a6 27bc a0b0 39bf
000001c0: d42b 9b3e bf12 21bf e839 07bf 310c f5bc
000001d0: 5636 9e3e 67f4 913d f2f8 31bd 4b4f 23bd
000001e0: a8df b7be 2c10 20bd 8797 37bd b4ba 273f
000001f0: c669 28bd ddf9 5cbd 7643 903e e130 0fbd
0.22159308 0.25173783 -0.19955796 -0.0794471 -0.5320424 -0.1825382 -0.03840944 -0.34772688
-0.036224958 -0.107398994 -0.03972312 -0.38514435 -0.029182883 0.66348255 0.08658384 -0.16565664
0.15460436 0.08996275 0.095300615 0.018290367 -0.6103554 0.18197355 0.23538674 0.5356239
-0.5690786 -0.03601864 0.30428708 0.19261958 0.43707052 0.007774091 0.34824812 0.11104872
-0.2624739 -0.8803441 0.17141928 0.34430054 0.5977551 -0.30793998 -0.9613072 -0.4354158
-0.14594898 0.106051154 -0.06016425 0.21215367 -0.50332534 0.28400108 -0.05834754 0.20995513
-0.4248091 -0.01493215 -0.3203462 -0.116835065 0.06458844 -0.44062126 0.62373954 0.074112415
-0.08795788 -0.15474506 -0.0082941 -0.40101773 -0.09582947 0.061927967 0.16333073 0.20406029
-0.05158737 -0.06538292 -0.113043554 0.004827037 -0.047581904 -0.056258224 -0.38369676 -0.08978447
-0.26730487 -0.01800322 0.5463318 0.5374459 -0.16747423 0.07259428 0.0 -0.04414281
-0.05931137 -0.26961613 -0.4820605 -0.041398518 -0.26088643 -0.06556256 -0.58235687 -0.04398486
0.6371202 -0.70064574 -0.21922317 0.30311945 -0.08168683 -0.22585036 0.28346798 0.054852936
-0.04030273 0.034028742 -0.027135553 -0.8837203 -0.062302705 -0.42034942 -0.120709434 0.27115342
-0.21222046 0.29841492 -0.020066094 -0.12277481 -0.009596694 -0.13551255 -0.010232523 -0.72535133
0.30306876 -0.6291923 -0.5282273 -0.02991304 0.3090083 0.07126694 -0.043450303 -0.03987054
-0.35912824 -0.039077923 -0.044822242 0.6551926 -0.0411165 -0.053949226 0.2817647 -0.034958724

linear3.weight f4 [64, 128]
00000000: 78ee d5bc b676 efbd 4a08 4ebc 32bc eabc
00000010: 8479 b3bd fcea 81bd ef69 0d3d 4c29 22be
00000020: bd86 6e3e ca4e 1a3e 298c 74bc af32 a43d
00000030: d421 42bd b8cc 3fbe 1e81 44bd 5d4a 563d
00000040: 4de2 cc3d 1ee1 ab3d 872b 12be 9614 033e
00000050: 165f 29be 4a55 2cbc 15d3 18bd 6c0c d8bd
00000060: c4f6 9ebd 0a83 893c d734 52be 5b34 83bc
00000070: 8260 debd 91c8 983c ecc4 843b 1f4d a2bd
00000080: 8c23 043e 57a5 8a3d ebae 98bc f5dd c7be
00000090: 7ab3 b33d ac3a 533e 7beb 17be 6aa6 4abe
000000a0: de79 91bd ea65 863e d980 49bd cb13 4b3d
000000b0: 2a89 193e e25f 55be 44c8 963c ab81 b6bb
000000c0: 8be1 e6bd f867 8d3e 1e2e 4fbd eaf4 c13d
000000d0: d081 73be e4a9 bf3c 55b2 b9be 77eb 43bd
000000e0: fb0e d7bc 7014 00bc f491 72be 619f 7cbd
000000f0: 6c66 67bc 753f 4fbc c9ff 86be e6da ac3d
00000100: deef f03d a27e 573e d37f 70be c63c 7b3c
00000110: 6c2e d23d 82f7 fb3d c5ad e33d cc27 06be
00000120: 1283 cb3c 43b5 1fbe 9065 0dbe b37c 99bd
00000130: 9713 623d 73ae c5bd 9b3d a43d bec1 ddbc
00000140: aa11 473e 83d8 a8bd a779 babd 33d1 c03d
00000150: 69e6 d63d 1edf bdbd 3d07 7fbe 4665 b73b
00000160: 3a3a a9bd 6054 37be 2dc4 dfbc 1a91 2ebe
00000170: a08f 65bd 1b68 b2bd e539 0bbe 1385 94be
00000180: 8427 a3bb 504c 3f3b 10e7 fa3d a032 b1bb
00000190: c0f8 063e e4b0 a23d a3e2 313d eaad 5c3b
000001a0: 0a0a dabd 83cd 59be 0e45 7c3b 63ea 283d
000001b0: 15f8 efbd 33f2 2dbe f67c 1abe d76a 57ba
000001c0: acf0 653d d05d 5cbd 1041 77bc 783f 1d3d
000001d0: 9429 8cbd 8920 0bbe 0a2a 0d3c a395 1d3d
000001e0: db62 df3d 8d2e ef3c 8db2 7f3e 48d2 0cbd
000001f0: e097 6c3d 3bea 8c3d 3ad3 49be 5a70 f53c
00000200: 08e7 043f b410 f93e 48b6 d0be e1ad 903d
00000210: edbb 44c0 318e 7cbe c3ee ce3d c25d 70bf
00000220: 586e 893c ae4c 70be 1f2c 8abd 45d2 95bf
00000230: cacc 44bd c3f3 b83e a1bc 2dbe 4428 68bf
00000240: 06a3 99bf 076c cb3d 3bb9 d5be 06a0 f63d
00000250: a785 06bf de40 c33e e983 863e 27cd 123e
00000260: faa1 cd3d 664c 453e f4f5 cb3d fb03 e1be
00000270: f5bd 883e f4e9 7c3e 9657 02be b1f1 8d3e
00000280: 9867 eebf 0674 a6bd da1d b43e 2318 913e
00000290: a6df 863e 03a6 e8bf baf6 2ec0 3b8d b9bf
000002a0: ec22 7cbf 657e 893c 96d3 c0bd 3508 d83e
000002b0: c690 b5be 7037 073e 9ead 1fbd a74b 40be
000002c0: f5b5 abbe 7d32 23be 7394 44bf 14f3 7b3b
000002d0: 8b8c 643e ca36 20bf fdcc 3e3e 7d71 ca3e
000002e0: e26f 63bf 10b4 18be 3217 643b 796b d93d
000002f0: 191c 903d dc65 273f 0782 e93e 5d83 173f
00000300: 4486 10bc 136b 113e 9867 8ebf a0e8 d33d
00000310: 1350 6c3b a12e 173d 5a49 ab3d c192 07bf
00000320: aafd 9dbe 09d2 bd3c 220a ae3c e928 9e3e
00000330: e186 af3d d69e e43e 3aff 0d3e f6f9 cabe
00000340: 8650 023e 01cf 8c3d c7c4 28be 487b acbe
00000350: c78f e3be f769 12bf ce31 d23e ea1d 24be
00000360: 367f 253e aea2 24bf 47d1 e7be 0079 283e
00000370: ff5b c1bd cef9 08c0 cc08 98bd 541b 713f
00000380: 988a 6fbe 0140 c5be 5236 f5bb fa12 00c0
00000390: d455 0cbf 2a27 6dc0 d585 06be 227e 16bf
000003a0: 1b01 f63d c3b7 f33d 2c99 9f3d 98df 95bf
000003b0: bad3 a73d 3ca2 133f a88b 113d 3b37 4fc0
000003c0: f87b c4bd b397 a43e 5b32 cf3c 96fb 93bd
000003d0: 5266 193e 53ae 2abe 6d1f f8bd abb6 da3d
000003e0: 8a04 98bf 383d 41be abe6 1abe d9fa 283d
000003f0: 98bb 2c3e 1159 9c3c 4da3 d63c d2eb 563d
-0.026114687 -0.11692564 -0.012575218 -0.028654192 -0.08763412 -0.06343648 0.034524854 -0.15836066
0.23293586 0.15069118 -0.014925995 0.0801748 -0.047395542 -0.18730438 -0.0479747 0.052317012
0.10004101 0.08392547 -0.14274417 0.12800822 -0.16540179 -0.010518381 -0.03731068 -0.10549244
-0.077619106 0.016786117 -0.2052797 -0.016016176 -0.10858251 0.018650325 0.004051795 -0.07924866
0.12904185 0.06769817 -0.018638095 -0.39036527 0.08774467 0.2062785 -0.14835922 -0.19790044
-0.071033224 0.2624963 -0.049195144 0.049579423 0.1499373 -0.20837358 0.018406041 -0.005569657
-0.11273488 0.27618384 -0.05058109 0.09470542 -0.23779988 0.02339644 -0.3626887 -0.04783198
-0.02625226 -0.007817373 -0.23688489 -0.061675433 -0.01412354 -0.012649407 -0.26367024 0.08440189
0.11764501 0.210444 -0.23486261 0.015334314 0.102627605 0.12303068 0.11117128 -0.13101119
0.024842773 -0.1559649 -0.13808274 -0.074944876 0.055194464 -0.09652414 0.08019563 -0.027069923
0.19440332 -0.08244421 -0.091052346 0.094149016 0.10493166 -0.09271072 -0.24905105 0.0055967895
-0.08263059 -0.1790328 -0.027315224 -0.1704754 -0.056045175 -0.08711263 -0.13596304 -0.29007778
-0.004979076 0.0029189773 0.12251103 -0.0054076463 0.13180828 0.079438955 0.04342903 0.0033672997
-0.10646446 -0.21269803 0.0038493308 0.041239154 -0.1171724 -0.16986923 -0.15086731 -0.00082175195
0.056137726 -0.053800404 -0.015091196 0.038390607 -0.06843868 -0.1358663 0.00861598 0.038472783
0.10907527 0.029197002 0.24970455 -0.034380227 0.057762027 0.068806134 -0.19709483 0.0299608
0.51915026 0.48645556 -0.4076407 0.07064415 -3.07397 -0.24663617 0.10104134 -0.93893063
0.016776249 -0.23466751 -0.06746697 -1.1704794 -0.048046865 0.36123475 -0.16966487 -0.9068644
-1.2002876 0.09932714 -0.41742882 0.12042241 -0.5254769 0.38135427 0.26272514 0.14336072
0.1004066 0.19267425 0.09959021 -0.4394835 0.26707426 0.24698621 -0.12728724 0.27723458
-1.8625364 -0.081275985 0.35179025 0.28338727 0.26342505 -1.8175663 -2.733809 -1.4496225
-0.98490787 0.016783902 -0.09415357 0.4219376 -0.35462016 0.13204741 -0.038983934 -0.18778859
-0.3353726 -0.15937229 -0.76789016 0.0038444446 0.22319238 -0.625836 0.18632884 0.3953971
-0.88842595 -0.14912438 0.0034803865 0.10616202 0.07036609 0.653898 0.45607015 0.5918482
-0.008821074 0.14201002 -1.1125364 0.10347104 0.003605847 0.036909703 0.083636 -0.52958304
-0.30857593 0.023171442 0.021245066 0.30890587 0.08570648 0.44652432 0.13866892 -0.3964383
0.1272603 0.0687542 -0.16481315 -0.33687806 -0.4444563 -0.5719294 0.41053623 -0.16027036
0.16161808 -0.6431073 -0.45276853 0.16452408 -0.09441375 -2.1402469 -0.07423553 0.94182324
-0.23392713 -0.38525394 -0.007483282 -2.0011582 -0.54818463 -3.7055154 -0.1313699 -0.58786213
0.120119296 0.11900284 0.07792887 -1.170886 0.081946805 0.57669425 0.035533577 -3.237746
-0.09593958 0.32146987 0.025292566 -0.072257206 0.14980438 -0.16668062 -0.12115369 0.106793724
-1.1876385 -0.1887101 -0.15127055 0.041254852 0.16868436 0.019085439 0.026200915 0.05247099

linear3.bias f4 [64]
00000000: 56c2 09be 0a64 453f 00ea 00bf 012e a53e
00000010: 6a74 2f3f e20e 1bbf e641 09be 5633 a5bd
00000020: 9248 ecbd 0321 2e3e 98d5 5c3f 894f 39be
00000030: 42e9 87bd 0000 a0be c4de 623e 52f3 be3e
00000040: 23ef b33e 7301 313f 3a2e dfbe c575 1a3f
00000050: 7130 e9be 8786 cebc be32 b6be ef78 e1bd
00000060: 3a47 8b3f 9ea8 acbe 49a7 3c3f 3d35 9c3d
00000070: 6d2f ca3d ac57 7c3f 3e33 90bd 022d 073f
00000080: 2016 253e 700b 5b3d b7ac 2bbe a698 913e
00000090: b6fd 123f adfd 4d3f db7f 483f c57d 2c3f
000000a0: 5253 653f 19c2 3b3e 159b 8a3e e39d 553f
000000b0: 9493 7f3f 47b6 4e3f a3d4 963e 9a42 d9bd
000000c0: 8b1d bbbe b834 393f 43d4 ed3e 5802 0ebe
000000d0: 8feb a93e 43c1 c7bd eac9 213f cfd2 05bd
000000e0: 7704 abbe 97ba 1d3f fa51 dc3e 9d15 99be
000000f0: d37d 363f b6e3 3bbf 8e44 77be b9e9 7fbe
-0.1345304 0.7710577 -0.50357056 0.3226166 0.6853701 -0.60569584 -0.13404045 -0.08066432
-0.11537279 0.1700478 0.8626342 -0.18096747 -0.06636287 -0.3125 0.22155291 0.37295014
0.35143384 0.69142836 -0.43589956 0.6033595 -0.4554477 -0.025210632 -0.35585588 -0.110093944
1.0881112 -0.33722395 0.73692757 0.07627342 0.09872327 0.98571277 -0.07041024 0.5280305
0.16121721 0.053477705 -0.16765104 0.28436774 0.5741838 0.80465204 0.7832009 0.6737941
0.8958026 0.18335761 0.27071443 0.8344404 0.9983456 0.80746883 0.29459104 -0.10608406
-0.36545977 0.7234607 0.46451005 -0.13868082 0.3318753 -0.097536586 0.6319872 -0.032671746
-0.33401844 0.6161284 0.43031293 -0.29899302 0.7128574 -0.73394334 -0.24147245 -0.24991502

linear4.weight f4 [2, 64]
00000000: 0ea8 33be ae69 593f e181 ab3f ea58 0f40
00000010: b4f7 003f fce4 a3bf 5f56 31bf d3a2 9c3f
00000020: 51fa ef3d 4f4e cbbf 27eb 8e3f e040 2bbf
00000030: af62 da3d 98e7 07c0 e90a 943e 1036 75bf
00000040: 011e 8bc0 591f 0e40 8bda e3bf c734 64be
00000050: 2417 2bbf 7564 41bf af2e aabf f433 65bd
00000060: 4bf1 8f3f 4600 ef3f 3c20 023f 6c26 bcbf
00000070: 6d7d 0dc0 bf70 3b3f 6914 e8be 4012 d43f
00000080: 7de5 e83f 0f3a 22c0 1734 00c0 0d72 b33f
00000090: 3d95 273f 9caf b33f 423d f23e a6a8 6d3f
000000a0: 5ee8 693f f006 98bf ac92 8f3f e03b 3a3f
000000b0: c1e7 0d3f aa6f c1bd 533b 043f b703 28c0
000000c0: ee9f f5bf aa6d 763f eacf 3cbf e00b 013f
000000d0: 4307 e4bf b13d 94bc 3326 5f3f 75bb da3f
000000e0: 399c 12c0 d917 593f 43e2 40c0 acb1 15bf
000000f0: 6378 a83e ffa5 7abf 698b 34be 0d56 aebf
00000100: b809 a93e d19d d83e c220 a8bf 8854 c83f
00000110: 2b62 db3e 45e6 07c0 1e65 993e e9d6 1bbf
00000120: cfb0 acbd 6005 673f 5e92 37be 4aac d4bf
00000130: be7a 5c3c e10c 0cc0 f4ec 07c0 2b5b 883f
00000140: 08e5 13c0 9369 3c3f ee40 65bf 8cd7 a43f
00000150: 4457 60c0 4f2d 9bbf 5a88 c43f b2ee 59bd
00000160: faac 8f3f cdc8 93bf d45a 0b3f 5f3e 173f
00000170: 35ea 5c3f cc5c df3e ae19 e83c de9e 39bf
00000180: b30e 3ac0 8779 08be c060 8bbf 978a da3f
00000190: 386e 2abf 1691 e9be 73ba cc3e 6734 923f
000001a0: 4f33 693e 6b21 d73f c88d b93f f06b 06be
000001b0: 76dc e33e c38c ae3f 2613 6fc0 501b babe
000001c0: a604 5e3f b66e 223f e4c8 753f 3d61 3dbf
000001d0: 2c46 2340 90f7 e8bd f3e6 503f 4e52 20c0
000001e0: eeb9 33c0 829a a2be 074a 0ac0 42de 513e
000001f0: 4e63 a13f b65c c9bf a516 2cbe ffc5 613f
-0.17544577 0.8492688 1.3399011 2.239802 0.50377965 -1.2804255 -0.69272417 1.223719
0.11717666 -1.5883273 1.1165513 -0.66895866 0.10663354 -2.1235104 0.28914574 -0.9578562
-4.3474126 2.2206633 -1.7801069 -0.22285758 -0.66832185 -0.7554391 -1.3295497 -0.05595775
1.1245512 1.8671958 0.50830436 -1.4699225 -2.2107804 0.7321891 -0.45328072 1.656807
1.8195034 -2.5347936 -2.0031793 1.401918 0.65462095 1.4037967 0.4731236 0.9283546
0.9137019 -1.1877117 1.1216636 0.7274761 0.55431753 -0.09445126 0.5165302 -2.6252267
-1.9189432 0.96261084 -0.7375475 0.50408745 -1.7814716 -0.018095823 0.8716766 1.7088457
-2.290785 0.84802014 -3.01381 -0.5847423 0.32904348 -0.9790954 -0.17631306 -1.3620011
0.33015227 0.42307904 -1.3134997 1.5650797 0.42848334 -2.1234295 0.2995996 -0.608748
-0.08432161 0.90242577 -0.17926928 -1.6615078 0.013456998 -2.188286 -2.1238375 1.0652822
-2.310854 0.73598593 -0.895522 1.287828 -3.5053263 -1.2123202 1.5354111 -0.053206153
1.1224663 -1.1545655 0.5443547 0.59079546 0.8629487 0.43625486 0.028332558 -0.7250804
-2.9071472 -0.13327609 -1.0888901 1.7073544 -0.6657443 -0.45618504 0.39986 1.1422242
0.22773479 1.6807073 1.4496393 -0.13127112 0.44504136 1.3636707 -3.7355437 -0.36348963
0.8672584 0.6345018 0.9600966 -0.739765 2.551158 -0.11375344 0.816024 -2.5050235
-2.8082232 -0.31758505 -2.1607683 0.20494941 1.260843 -1.5731418 -0.16805513 0.88192743

linear4.bias f4 [2]
00000000: 4b1d 723f bf72 023f
0.9457595 0.5095634
