Result/DuelingDQN/CartPole-v1/Model.pth (torch, 173788 bytes, 9 tensors)

linear1.weight f4 [256, 4]
000000 fd 48 63 be 69 12 6c 3e 24 d3 9a 3f 16 8f 68 bf
       -0.22195812 0.23053898 1.2095685 -0.9084333
000010 9f 4f ac bf fb 10 20 be 5a 9f 3a be b8 bf ca bd
       -1.3461798 -0.15631478 -0.1822485 -0.09899849
000020 63 6d 21 3e a2 3d 93 bd 94 0f 0e c0 05 75 19 be
       0.15764384 -0.0718949 -2.2197008 -0.14986046
000030 fb 6f bc be 16 36 35 3f 0c da b2 be 4b 4e 46 3f
       -0.36804184 0.70785654 -0.34931982 0.77463216
000040 50 92 f5 3d 7c a3 53 bf 3b 91 10 bf b6 3c 1c bf
       0.119907975 -0.8267133 -0.56471604 -0.6103014
000050 b4 ec 57 3d 2c 14 34 3e 35 f2 12 c0 35 d9 48 3f
       0.052715972 0.1758582 -2.2960331 0.7845643
000060 76 14 ea be 87 75 cb 3e d3 75 56 bf 01 e3 38 3e
       -0.45718735 0.39738104 -0.83773535 0.18055345
000070 a6 1a 8c 3e 9b 76 8b 3f f2 01 35 3f f8 82 53 3f
       0.2736408 1.089557 0.70706093 0.8262172
000080 f5 6b cb 3c 7c 19 02 3f dd 84 00 40 a8 0e db 3e
       0.024831751 0.50820136 2.0081093 0.4278462
000090 37 c6 47 be 72 d8 12 3f ca 25 9c be 1f c2 8b 3e
       -0.19509207 0.5736152 -0.3049758 0.2729654
0000a0 d4 39 15 3f c3 00 da bd aa db 4b bf 3e d3 d2 bd
       0.58291364 -0.106446765 -0.79632056 -0.102941975
0000b0 0c e4 bf 3e 64 56 81 3d 8d b9 bc 3f 84 c9 1a 3e
       0.37478673 0.06315306 1.4744126 0.15115935
0000c0 96 55 f4 3f d4 ae 34 be 04 44 83 be 93 d5 9a be
       1.9088619 -0.17644817 -0.2563783 -0.3024107
0000d0 b1 0a da 3e 0a db 00 be 1c a4 0a bf 4d 68 c1 be
       0.42586282 -0.12583557 -0.5415666 -0.37774888
0000e0 a9 f4 32 3e 18 7e be 3e 59 56 17 40 64 d7 ef 3e
       0.17476143 0.37205577 2.3646452 0.46844018
0000f0 73 27 f0 be a9 0e 84 be 37 fb ab 3f a3 d3 2e bf
       -0.46905097 -0.25792435 1.343604 -0.6829168
000100 61 60 67 3f 20 a2 29 bf 77 57 d0 3f 84 39 ce be
       0.9038144 -0.6626301 1.6276692 -0.40278256
000110 8a c4 6f bf c9 a2 f5 bd 15 4f 0e bf 5d 93 02 be
       -0.9365927 -0.119939394 -0.5558942 -0.12751527
000120 c1 90 40 bf 77 44 4d be c0 0e 8d bf a8 29 eb bd
       -0.75220877 -0.20045649 -1.1020126 -0.11482555
000130 7a 4e 91 3c 66 af d6 ba 59 9f f7 be 13 8b 5d 3e
       0.017737616 -0.0016379177 -0.4836376 0.21635084
000140 8b 90 a3 3d 49 fb c6 3c 8f ee 13 40 e7 6c 87 3d
       0.07986554 0.024289744 2.3114355 0.06612568
000150 07 6a 0b bf 96 d5 17 3d 10 87 c3 be 15 50 fb ba
       -0.5445866 0.037068926 -0.38188982 -0.0019173647
000160 7a 6f 04 c0 48 ea bc 3e 37 e2 70 3f 52 fb 8f 3e
       -2.069304 0.36897492 0.94095176 0.2812143
000170 91 5b a2 bd fd 48 b9 3e 6f 0c 2d 3f c1 0a ce 3e
       -0.07927621 0.36188498 0.675971 0.4024258
000180 29 7a 63 3f 0c 01 6d be a2 c8 d3 3f b7 c7 0f 3f
       0.88858277 -0.2314493 1.6545603 0.56164116
000190 1a 94 25 3e de d3 4b 3f 4a f8 22 40 f2 88 42 3f
       0.16169778 0.7962016 2.5464044 0.7599021
0001a0 b9 5c 1b 3f b3 4a 0a be 8b 74 23 c0 33 80 b1 3e
       0.6068836 -0.13505058 -2.5539882 0.3466812
0001b0 ac b0 39 be 7a 50 ce 3d 33 c0 f0 3f bb 2b e3 be
       -0.18133801 0.100739434 1.8808655 -0.443693
0001c0 a3 b8 2d bf cf 26 1e be 4a 8b ae 3e f7 33 06 bf
       -0.6785986 -0.15444492 0.34090644 -0.5242304
0001d0 32 49 90 be e3 18 b4 be 23 53 24 3f 0b a7 54 bf
       -0.28180844 -0.35175237 0.64189357 -0.8306739
0001e0 7e 6f b4 3f 65 53 a8 bf 8b 5c 4d bf de 26 85 bf
       1.4096525 -1.315045 -0.80219334 -1.0402486
0001f0 5e 6a af bf 15 03 14 3f a7 6b 05 3f 2f 83 07 3f
       -1.3704336 0.578172 0.5211739 0.52934545
000200 d7 89 67 3e 61 aa cd 3d 35 36 36 3f be 9e 81 3e
       0.22611175 0.10042263 0.71176463 0.25316423
000210 40 68 f3 3e 75 52 9b be c4 eb 09 40 f9 5c 93 be
       0.47540474 -0.30336347 2.155015 -0.2878187
000220 39 84 c2 3b e4 9a 09 bf b0 8b b9 be 9b 9c e6 be
       0.0059361723 -0.5375197 -0.36239386 -0.45041355
000230 2f 94 17 bd e8 4b d0 3e 05 87 a3 3f 9d 95 fc 3e
       -0.037006553 0.40682912 1.277558 0.49332896
000240 b4 52 13 3f 14 ee 42 be 7b 4d 22 c0 a9 c6 e3 be
       0.5754807 -0.19036132 -2.535979 -0.44487503
000250 6d 98 af 3d ee 74 12 bf 42 84 b1 3f 4f 01 b7 bd
       0.08573995 -0.5720967 1.3868487 -0.089357965
000260 0a 6c 10 bf ec 62 39 3f d1 5b 7a 3f eb 11 8a 3d
       -0.56414855 0.7241657 0.9779635 0.06741699
000270 9a e9 ab 3e 0c 9f 27 3e 2a 95 ca bf 5c f6 ef bd
       0.3357666 0.16369265 -1.5826771 -0.11716911
000280 19 94 14 bd 98 3b ee be 7c 00 b7 bf 6a 00 1f bf
       -0.03627405 -0.4652984 -1.4297023 -0.62110007
000290 e8 8f 04 be c3 b5 52 3e b1 d4 03 c0 b3 57 e8 be
       -0.12945521 0.20577149 -2.0598567 -0.4537941
0002a0 da 4b 97 3e 95 9c 81 3e d1 f5 ad 3e 1c e7 2c 3e
       0.29550058 0.25314775 0.33976606 0.16885036
0002b0 a3 0e d2 3e f7 fe d9 bd 45 56 bf be eb 47 c6 be
       0.41026792 -0.10644334 -0.37370506 -0.38726744
0002c0 b4 42 7e 3e c3 f5 f5 bc ab 7d c3 bf b7 e1 28 3e
       0.24830133 -0.030024415 -1.5272726 0.16492353
0002d0 99 eb fb 3c 45 2a 09 3f 68 3f 15 c0 13 9b c4 bd
       0.03075199 0.53580123 -2.331995 -0.095998906
0002e0 ac ac cd bd d1 f3 12 bf 10 24 42 bf 38 3c 03 bf
       -0.100427 -0.57403284 -0.75836277 -0.5126376
0002f0 49 e7 cf 3e 13 07 a9 3e ff df 0b be d7 c5 1a 3e
       0.40606144 0.3301321 -0.13659666 0.15114532
000300 ff 43 e6 3e 92 ab ef bd 02 29 b2 bf 0a 67 f1 be
       0.44973752 -0.11702646 -1.3918765 -0.47148925
000310 61 24 3c bf f4 6f b0 be 2b 98 79 bf 96 4b 2e be
       -0.7349301 -0.34460413 -0.97497815 -0.17021021
000320 5e 7b 29 3f d2 70 3d 3f 93 93 cd bf d7 1b 2f 3f
       0.6620387 0.74000275 -1.6060661 0.68401855
000330 b2 e6 dd 3e cd 06 62 3d f9 43 c9 3f e9 75 8a 3e
       0.4334007 0.055182267 1.5723869 0.27043083
000340 c2 06 bb bf 76 fb c6 bf 14 a4 06 c0 a5 95 88 bf
       -1.4611437 -1.554549 -2.1037645 -1.0670668
000350 46 fe c9 bd 3d 04 49 3d 5e 17 4c bf b3 c0 05 bd
       -0.09862952 0.049076308 -0.79723155 -0.032654475
000360 4d 3a 93 3f ae e8 1b be 98 04 06 40 4b 38 22 3d
       1.1502167 -0.15225479 2.0940304 0.039604466
000370 de 7d 0c 3f 6f 65 5f bf 79 68 0c c0 d5 be 3c bf
       0.5487956 -0.8726415 -2.1938765 -0.73728687
000380 c7 a7 e9 3c 97 61 a2 be 22 85 95 bf b5 33 13 bf
       0.028522385 -0.3171508 -1.1681254 -0.57500774
000390 53 0b 69 3e c8 08 93 3d b1 f0 8f bf 07 29 cb 3c
       0.22758226 0.07179409 -1.1245328 0.024799837
0003a0 f8 b8 6b bf 06 47 03 bf 07 c2 76 bf 99 a5 20 be
       -0.92079115 -0.5128025 -0.9638981 -0.1568817
0003b0 50 99 bd 3e 30 65 10 3f 6b 1b 9c 3f 9d ad 99 3f
       0.3703103 0.564044 1.2195867 1.2006108
0003c0 ff e0 09 bf b0 92 51 bd 3c 5f 12 3e 29 88 a4 3d
       -0.5385894 -0.051165283 0.14294142 0.08033783
0003d0 4f 29 0c bf a5 4c 90 3e 05 09 d1 3b 0b 65 bf be
       -0.5475053 0.28183475 0.006379249 -0.37381777
0003e0 c5 9b 80 3e ec a0 20 3f 5d e6 7a 3e 9d 10 eb 3e
       0.25118843 0.6274555 0.24501939 0.45911112
0003f0 3f 2e 07 3f b6 45 15 3f 67 88 47 bf 40 15 fb bd
       0.5280494 0.58309495 -0.7794251 -0.122599125

linear1.bias f4 [256]
000000 d2 66 1c 3e a0 3c ad be ca b0 3b be 92 36 70 bf
       0.15273598 -0.33835316 -0.18329158 -0.9383327
000010 a3 8f 1b 3f c6 eb 14 3e 9a bb 88 be bc 8a 52 bf
       0.6076605 0.14543065 -0.2670563 -0.8224294
000020 35 4f 47 3c 32 b0 4f bd 2c 9f 91 bf c8 25 48 bf
       0.0121648805 -0.050705142 -1.13767 -0.7818265
000030 4c 28 09 3e 32 84 72 bf 83 6c b7 be 06 48 5f bf
       0.13394278 -0.94732964 -0.35824975 -0.87219274
000040 5e e9 cf 3e 07 32 1e 3d 32 34 a1 3e f3 ab db 3e
       0.40607733 0.03862193 0.31485134 0.42904624
000050 6f 09 3d 3f b6 9c 66 bf 7f f4 27 bd 9f 39 22 bf
       0.7384252 -0.9008287 -0.041004654 -0.6336917
000060 7b 1d 00 bf 58 b9 ef be c5 0c c9 3e 41 eb f6 3e
       -0.50044984 -0.46821094 0.39267555 0.4822636
000070 9a ba 73 bf 33 b1 19 be 12 42 6e 3e 92 1a 85 3d
       -0.95206606 -0.15009002 0.23267391 0.064992085
000080 23 41 b3 3c 63 2e 7c 3e 1b 5d e5 3e bb 55 47 bf
       0.021881646 0.2462707 0.44797596 -0.7786519
000090 06 58 5c bf 11 21 09 bf b2 4e 9f be 46 87 35 bf
       -0.86071813 -0.5356608 -0.31114727 -0.70909536
0000a0 04 f3 27 bf 0a de 29 bf 3d 56 37 bf 5b 82 59 bf
       -0.6560519 -0.6635443 -0.71615964 -0.8496453
0000b0 66 cb 68 3e 94 d7 11 bf b4 8a f5 3e 49 8e 78 bf
       0.2273384 -0.5696957 0.47957385 -0.9709211
0000c0 a7 53 8b bf 9a c6 7f be c8 46 86 bf 29 6e 49 3e
       -1.0884904 -0.24978104 -1.0490351 0.19670929
0000d0 5a 64 5e be 76 3e 26 3f 04 2a 28 be fd 45 07 bf
       -0.21717969 0.6493906 -0.16422278 -0.5284117
0000e0 00 9d 19 bf 85 4d 7b 3d e0 8b e1 be 84 8b 3c bf
       -0.6000519 0.061353225 -0.4405203 -0.73650384
0000f0 70 a7 ef 3e e6 c4 93 bf 86 0e 34 bf 9b 08 33 3e
       0.46807432 -1.1544464 -0.7033466 0.17483751
000100 65 c1 ca be d2 e9 20 bf 13 50 e3 be f8 9f 21 bf
       -0.39600673 -0.6285678 -0.4439703 -0.6313472
000110 49 8b 94 3e 24 7a 21 bf 6a b2 2e bf 6b e6 56 bf
       0.29012516 -0.63076997 -0.6824099 -0.8394534
000120 ad 1c 10 bf 35 81 f8 3d 48 90 8a be 36 e0 85 bf
       -0.56293756 0.12134019 -0.27063203 -1.0459049
000130 4c 33 ee be 1e 5e 3d bf 93 a7 41 3e 90 c2 0c bf
       -0.4652351 -0.73971736 0.1891158 -0.5498438
000140 56 02 bd 3c 53 b5 3a bf 65 ab 46 bf e1 64 da be
       0.023072403 -0.7293293 -0.7760528 -0.4265509
000150 7d bd fe bd 6e 3a 3d bd dd c7 5f bf 02 17 ae 3e
       -0.12438486 -0.0461983 -0.8741434 0.3400193
000160 56 27 ce be d0 34 35 3e 17 08 b7 3d c7 7f 22 bf
       -0.40264386 0.17695928 0.0893709 -0.6347622
000170 40 ef d8 be 96 e9 44 bf 98 c3 5a bf ad b3 62 bf
       -0.42370033 -0.76918924 -0.854547 -0.88555413
000180 c2 9a 7d bf a4 c8 54 be 3f 15 20 be cd b5 e8 3e
       -0.99064267 -0.20779663 -0.15633105 0.45451203
000190 94 38 81 bc 80 d9 d9 bd 83 b3 94 be 02 25 14 bf
       -0.015774049 -0.10637188 -0.29043207 -0.5786897
0001a0 6c 39 66 bf f6 5a 27 3f c1 96 31 bf 5f 90 82 3e
       -0.8993137 0.6537317 -0.6937066 0.2550077
0001b0 27 f1 17 3e 9b 51 e4 be a9 02 b4 3e a7 50 9c be
       0.14838086 -0.4459351 0.3515828 -0.30530283
0001c0 8d d4 ab 3e 3f 38 d1 bc 14 9b fc 3e e7 b0 54 bf
       0.335606 -0.025539516 0.49337065 -0.8308243
0001d0 7c ec a6 3e b6 bc d6 be 13 b5 a7 be b6 c4 1c bf
       0.32602298 -0.4194085 -0.32755336 -0.6123766
0001e0 a2 17 a9 bd 5a 58 dd be 3a 89 32 bf 2c 1d 36 3e
       -0.08256461 -0.4323147 -0.6974064 0.17784566
0001f0 c3 ee 2b bf cc 55 47 bf bc 91 e4 be e0 61 e6 be
       -0.67161196 -0.7786529 -0.44642437 -0.44996548
000200 35 8f 98 bf c8 df e6 3e 68 c8 a4 be ea f8 36 be
       -1.1918703 0.45092607 -0.32184148 -0.1786839
000210 cf 10 4f bf 8f 97 98 3c 78 a5 51 bd 73 c7 92 be
       -0.8088502 0.018626956 -0.051183194 -0.28667793
000220 b7 44 30 bf 21 12 2c 3e 05 ff 4b bf 5b f9 f9 3e
       -0.6885485 0.1680379 -0.79686004 0.48823056
000230 ff 0b ac be af b0 c3 be a2 04 e2 3e 89 b1 0a 3e
       -0.33602902 -0.38220736 0.4414416 0.13544287
000240 13 5a 98 bf db d6 5c bf 8d bd 9f be f9 4d 39 bf
       -1.1902488 -0.86265343 -0.31199303 -0.723846
000250 e2 a7 51 be 18 7f 18 bf 7e 82 8f be d6 75 51 bf
       -0.20474198 -0.5956893 -0.28029245 -0.8182043
000260 f4 dc a4 bf f3 8d 1b bf d4 1d 45 bf c9 f8 1d 3f
       -1.287993 -0.6076347 -0.7699864 0.6170774
000270 90 9c d2 3d 93 f2 03 be 17 b8 56 3e d1 ad 3e bf
       0.10283768 -0.12885503 0.20968662 -0.7448397
000280 df 3a 75 be 67 d4 33 bf 05 fb 27 bf e8 b7 32 bf
       -0.23948239 -0.70245975 -0.656174 -0.6981187
000290 ba 2b 84 bd ff 30 84 3d ed 12 50 bf d1 e6 61 bf
       -0.06453653 0.06454658 -0.8127888 -0.8824282
0002a0 cd 7b a9 be 75 b3 06 bf 06 c3 2b bf 8e 4d 4d bf
       -0.33102265 -0.5261758 -0.6709446 -0.80196464
0002b0 7d f6 64 bf f9 01 07 bf ef 00 80 3e 7b eb b4 be
       -0.8943861 -0.52737385 0.25000712 -0.35335907
0002c0 67 40 9c bf 22 77 68 bf eb 53 e0 bd 76 9e 04 3e
       -1.2207154 -0.9080678 -0.10953506 0.12951073
0002d0 64 97 6f bf 6a 96 08 bf ff 69 f9 be c5 e3 37 bf
       -0.9359038 -0.53354514 -0.4871368 -0.71831924
0002e0 44 87 89 bf 6c 94 c3 be d1 3b 9e be 8c 83 2a bf
       -1.0744405 -0.38199174 -0.3090501 -0.66606975
0002f0 aa 41 23 bf 2b 04 9f 3e 6f 7f 2e be 00 96 27 bf
       -0.6377207 0.31057867 -0.170408 -0.65463257
000300 36 8f 83 bf fd 65 27 3f 31 9a 62 bf 26 bd 3d bf
       -1.027808 0.65389997 -0.8851653 -0.7411674
000310 61 c9 3e bf 25 0c 91 be c2 a9 fb be 85 b2 0b bf
       -0.7452603 -0.28329578 -0.49152952 -0.54569274
000320 16 d9 74 bf b2 0c 18 bf b8 dc 68 be 91 38 2c bf
       -0.95643747 -0.5939437 -0.22740448 -0.67273813
000330 f8 f1 aa be 47 50 4a be 17 9e 87 be 8c 80 af be
       -0.33387733 -0.19757186 -0.264878 -0.3427776
000340 83 43 10 3f c7 48 85 bf 64 fd 12 bf 85 5d 65 bf
       0.56353015 -1.0412835 -0.57417893 -0.89595824
000350 3f 03 57 bf a8 33 a0 be 85 a9 4f bf 23 d4 fb bd
       -0.8398933 -0.3128941 -0.8111804 -0.12296321
000360 07 df 63 be 0e 2f c9 3e de b1 fa be 48 d8 14 bf
       -0.22253047 0.39293712 -0.48963827 -0.5814252
000370 8e 8a b3 be 8e 87 06 3f da 15 19 bf e0 ce 28 bf
       -0.35066646 0.5255059 -0.5979897 -0.65940666
000380 1e 13 0e bf 59 6c d6 3e 63 f0 4b bf fa 0b b2 3e
       -0.5549792 0.41879538 -0.79663676 0.34774762
000390 d4 11 0a bf 12 7d d2 be 39 33 b4 3e f7 9c 9c bf
       -0.53933454 -0.41111046 0.3519533 -1.2235402
0003a0 4c 59 b8 3e fb 6a 68 3e 86 35 26 bf c1 ab 35 bf
       0.36005628 0.2269706 -0.6492542 -0.709652
0003b0 f8 58 87 3b 72 ac fc 3e 8a ba 12 3f 54 62 b9 be
       0.004130479 0.49350315 0.57315886 -0.3620783
0003c0 53 b8 a6 bd d5 a7 b2 3b 42 db 15 bf 47 a4 08 bf
       -0.08140626 0.005452136 -0.58537686 -0.5337567
0003d0 bd 50 96 bf a0 f5 41 3e 22 67 34 bf ea 21 49 bf
       -1.1743389 0.18941355 -0.7046987 -0.78567374
0003e0 1a e4 6f bf 24 ab 34 bf bf fc 9d 3b ed 06 f6 3e
       -0.9370743 -0.7057364 0.0048213894 0.4805216
0003f0 07 16 1c be 73 73 4a bf e8 e7 02 bf 9d 8a 1a 3d
       -0.15242778 -0.7908241 -0.5113511 0.03772985

linear2.weight f4 [128, 256]
000000 2b dd 9c bf 00 0c 18 bf f5 d3 8d 3f 8e 20 0f be
       -1.2254995 -0.5939331 1.1080309 -0.13977262
000010 6d 09 85 3e 87 18 d8 3e b9 74 1e bd 00 fb e6 3d
       0.25983754 0.42206213 -0.038685534 0.11278343
000020 02 33 d6 be c6 47 28 bf 2f 4f 6d 3f d3 a7 64 bf
       -0.4183579 -0.6573452 0.9269895 -0.8931858
000030 89 2c d0 3c d4 09 14 3f 85 75 b0 be 56 f3 db ba
       0.025411861 0.57827497 -0.3446466 -0.0016780894
000040 0a 5f 6f be 3c 77 bb bf cf b5 05 bf 42 1e ce be
       -0.23376098 -1.4645762 -0.5223054 -0.4025746
000050 6b 68 05 c0 92 a7 0e be e4 43 0e bf 4c e5 61 bf
       -2.0844982 -0.1393111 -0.5557234 -0.88240504
000060 55 a1 4f bf 14 4c 0d bf 0c 8e b6 3c 57 e7 b0 bf
       -0.8110555 -0.5519421 0.02228453 -1.3820599
000070 6a b4 53 bb f6 e0 c0 be db 80 c4 bd 3f 77 48 bf
       -0.003230358 -0.37671632 -0.0959489 -0.78306955
000080 7c 32 e3 be 66 16 76 bf 51 ef ac 3d 1d 02 ab be
       -0.44374454 -0.9612793 0.084440835 -0.3340005
000090 d5 9f fe 3e 28 c5 73 bf 1b 6f c7 be 06 fd 7e 3f
       0.49731317 -0.9522271 -0.38951954 0.99604833
0000a0 b2 24 3c 3f 0e 04 0e 3e 06 c3 91 bd c0 35 89 3e
       0.7349349 0.13868734 -0.07117276 0.2679882
0000b0 76 ca da bd e5 31 8b be 06 04 e2 3d 19 8e 4f 3e
       -0.106831476 -0.27186504 0.11035924 0.2026905
0000c0 1a 01 9a 3f 9a cf ab 3d 6e d6 3d 3f f8 27 3e be
       1.2031586 0.08389206 0.7415532 -0.18569934
0000d0 42 19 8d bb 5a 7f f0 3d f5 90 37 bd 46 0e 4c 3f
       -0.0043059895 0.117430404 -0.044815976 0.7970928
0000e0 6b 88 26 3f 63 0f 30 3d de f2 21 bf 09 c8 9b 3e
       0.6505191 0.042983424 -0.6326121 0.30426052
0000f0 9c 39 0e bf 33 8c 77 3d 34 1b 49 3f bf 37 36 3e
       -0.55556655 0.06043644 0.78557134 0.17794703
000100 1b c4 3b bc 77 57 18 bf 30 3d ec bd b9 d0 83 be
       -0.011460329 -0.5950846 -0.11535108 -0.2574518
000110 1d 85 80 3d 1f 95 23 3f 9d 69 38 bf f7 72 22 3d
       0.06275389 0.63899416 -0.72036153 0.03966042
000120 bd 29 d9 be 35 cd 1d 3d 01 b9 00 be 36 ca 0d bf
       -0.42414656 0.03852578 -0.12570573 -0.55386674
000130 41 d0 ed bc 16 2a cf 3e c3 8d 34 be 55 f4 29 40
       -0.029029967 0.40461797 -0.17632203 2.6555378
000140 cd 36 ae be 1b 8a 89 bf 5b 51 14 bf 49 17 bc be
       -0.34026185 -1.0745271 -0.5793664 -0.36736515
000150 83 ab ad bd dd d5 90 bf 10 1d 2e 3f 68 18 5b bd
       -0.08479979 -1.1315266 0.68013096 -0.053490072
000160 0a d5 73 bf c7 ca cd 3e cb de 76 bf 59 a3 e6 be
       -0.95246947 0.4019377 -0.96433705 -0.450465
000170 db c4 8d be b8 62 b0 3c 02 94 3b be a1 84 2f 3f
       -0.2768925 0.021531448 -0.18318179 0.6856175
000180 af 89 b0 3e 51 0d 12 bf 34 30 08 be 7b 5c a7 bf
       0.34480044 -0.5705157 -0.13299638 -1.3075098
000190 3a ad 80 3e 2f e9 51 bf 9a da 82 3f 2b 59 31 be
       0.2513216 -0.81996435 1.0222962 -0.17319171
0001a0 7b 07 12 3e f9 d7 cb be 84 5a 87 bf c5 8b 56 ba
       0.14260666 -0.39813212 -1.0574498 -0.00081842794
0001b0 a7 ab 47 bd 91 88 df 3f d9 78 7c 3e 11 b2 f7 be
       -0.048747685 1.7463552 0.24655475 -0.4837804
0001c0 04 a1 89 bf 10 70 66 3f 2b 2a fa bf b7 7b 9e 3e
       -1.0752263 0.90014744 -1.9544119 0.30953762
0001d0 03 79 b7 bd 42 60 d2 bc 52 b2 14 bd 17 fa 0e 3f
       -0.08958628 -0.025680665 -0.036302872 0.55850357
0001e0 0f 79 24 bd 51 84 26 bf 58 08 1b 3e d1 54 f0 3e
       -0.040154513 -0.6504565 0.15139902 0.4693971
0001f0 e8 c9 3f 3f 50 49 a8 3e 0c 11 1f 3c 0b 7e 84 bf
       0.7491746 0.32868433 0.009708654 -1.0350965
000200 3f ee b0 3e 9f 01 c3 3d 34 92 cb 3f f3 b7 81 bf
       0.34556767 0.095217936 1.5903993 -1.0134262
000210 01 6f 16 bd e8 9e 1d be c6 44 bb be a1 70 01 bf
       -0.036726955 -0.15392649 -0.36575907 -0.50562483
000220 ee 2c c1 bf d8 62 0d bd 13 49 36 bf bc 31 a2 3e
       -1.5091836 -0.034518093 -0.7120525 0.3167857
000230 7f 3d 3d bd 8d 19 bf be e8 93 27 bf 73 9f 83 be
       -0.046201225 -0.3732418 -0.6546006 -0.25707588
000240 5d 4f 48 bf 32 36 64 bd d5 c6 91 3e ed 94 f4 3b
       -0.782461 -0.055715747 0.2847201 0.0074640424
000250 53 e5 91 3e 26 d3 82 3f 27 10 aa bf af a3 b4 bd
       0.28495273 1.0220687 -1.3286179 -0.08820283
000260 d3 f6 f0 bd c6 94 fa 3d d2 70 23 bf 24 1b be 3d
       -0.11765828 0.122354075 -0.63844025 0.092825204
000270 9b 8c 60 bf 8a 54 b1 be a9 77 22 bf ef 9b e9 bd
       -0.87714547 -0.3463481 -0.63463837 -0.11406695
000280 3d ae 86 3f 19 0e cd 3e 37 b6 56 be 93 21 2c 3f
       1.0521923 0.40049818 -0.20967947 0.6723873
000290 60 5c cb be a3 88 96 3e 83 8c 6b bd ac 4b 83 3e
       -0.39718914 0.2940112 -0.05750705 0.2564367
0002a0 0d 2b 3f bd d0 35 df be d9 28 88 be 71 bd 69 3d
       -0.046671916 -0.43595743 -0.26593664 0.05706543
0002b0 ab c4 44 3f e8 b5 06 bf ea d0 bf be cd 0a e9 3e
       0.7686259 -0.52621317 -0.37464076 0.45516053
0002c0 1c bc 57 bd f3 b8 a1 3e cd d2 92 be de 1d 62 bf
       -0.05266963 0.31586418 -0.28676453 -0.88326824
0002d0 0b cb 77 3f 6a 44 98 3c f8 70 fd be 90 3c 09 be
       0.96794194 0.01858731 -0.4950025 -0.13402009
0002e0 1f 2c 7a 3e b2 01 76 bc c1 38 f4 bd e3 71 48 3e
       0.24430893 -0.015015053 -0.119248874 0.19574694
0002f0 8a 32 c6 bf 0a 83 df be 16 58 01 3d fe 33 16 3f
       -1.5484173 -0.43654662 0.031578146 0.58673084
000300 3d 7e d3 be cb ee 42 bf c1 97 04 3f 71 54 a1 3e
       -0.4130725 -0.7614562 0.5179406 0.31509736
000310 f7 af 57 be 21 bc 40 be 11 6d ff bf fc c8 3d 3f
       -0.21063219 -0.18821765 -1.995516 0.741348
000320 55 31 85 3f 03 79 1c 3e 52 82 c3 be d1 0b 7c be
       1.040568 0.15280537 -0.38185364 -0.24613883
000330 3a 6f 18 bf 06 e2 e1 be 5e 56 02 3e d2 b2 0d 3e
       -0.5954472 -0.44117755 0.12728259 0.13837746
000340 25 5a 0b bf 1c 85 d6 3d dd 31 c8 be d4 aa 63 3f
       -0.54434425 0.10474607 -0.39100543 0.8893254
000350 e6 67 08 3f f7 8d 23 3d e0 c4 dd bc c6 27 ab bf
       0.53283536 0.03993031 -0.027071416 -1.3371513
000360 d0 de b9 bd 93 22 ab be ed e3 bb 3e c0 6d b6 be
       -0.09075701 -0.33424816 0.3669733 -0.35630608
000370 2d c8 79 be 89 7c 85 be d9 6d 09 bf dc 69 fb 3e
       -0.24392767 -0.26071575 -0.5368324 0.49104202
000380 ae b9 21 40 56 7b ef 3c 5d 1a 7d 3e 7d 99 12 3d
       2.526958 0.029233616 0.24717088 0.03579091
000390 c7 1d a0 bf 5b 61 fe 3e 90 9b 5f bc df 86 42 3f
       -1.2509087 0.4968365 -0.013647929 0.75987047
0003a0 c9 c8 00 bf 0e c9 25 bf ba 38 fa 3c ef d2 39 bf
       -0.50306374 -0.6475991 0.030544627 -0.72587484
0003b0 36 ab 1b bd 46 01 17 3d 5e 89 31 3f 83 5e e6 3b
       -0.038005076 0.03686645 0.6935023 0.0070303096
0003c0 9a e0 5a bf 6e d5 0f bf 8a 03 1e bf e2 48 e5 bd
       -0.85498965 -0.5618504 -0.6172415 -0.11195542
0003d0 58 9d 52 3e 1a a5 f2 be 27 22 81 3e cf af f4 3e
       0.20567834 -0.47391587 0.2522137 0.4779038
0003e0 c6 7e b0 3d ea d3 e9 be 2e fd 0c 3f 71 e1 c1 3b
       0.0861793 -0.4566949 0.5507382 0.0059167673
0003f0 90 26 ef 3d 84 e8 3e bf 54 51 2a 3e e4 d7 5f be
       0.11677277 -0.7457354 0.16632587 -0.218597

linear2.bias f4 [128]
000000 be bf c1 bd 81 71 cd 3d d9 7d 8e be c8 fb 14 be
       -0.094604 0.10031415 -0.2783039 -0.14549172
000010 bd 93 5d 3b e5 ba 9a bd 8f 5b d7 be fb 58 b2 bd
       0.0033809983 -0.075551786 -0.4206204 -0.08708378
000020 b7 1c 02 bd 28 5c 99 3d a4 e2 65 be 84 69 0a 3f
       -0.031765666 0.074882805 -0.22449738 0.54067254
000030 33 92 05 3d 0a fe 19 bd ca fd 65 bb 35 45 3b bf
       0.03261013 -0.037595786 -0.0035093897 -0.73152477
000040 78 c7 94 3d e6 df ad 3d 2a 2a 64 3e ea 05 ce be
       0.07264608 0.08489971 0.2228171 -0.40238887
000050 0c f4 cc 3c c3 aa b4 3d a6 ec 86 3e 19 83 41 3f
       0.025018714 0.08821633 0.26352423 0.75590664
000060 07 3d 3c bd d6 ef c5 3e ef cb 16 be d6 e8 1e bd
       -0.045956638 0.38659543 -0.14726232 -0.03879627
000070 0e c4 d5 bd a4 70 f5 bc 4d b3 c3 3e 5d 68 01 bd
       -0.10437785 -0.029960938 0.38222733 -0.03159367
000080 68 11 a8 bd c8 e7 16 3f 09 eb 90 bd 24 ab c0 3d
       -0.08206445 0.5894742 -0.070760794 0.094076425
000090 ce 82 01 3e 42 4b 1b 3f ba e9 6a 3d 9a 97 40 be
       0.12647554 0.6066171 0.057351805 -0.18807831
0000a0 06 99 d8 3c 9a 94 3f be 38 7a 87 bd de cc 64 bd
       0.026440155 -0.18709031 -0.06615108 -0.05585944
0000b0 6b d1 29 3c 98 2f 84 be 5d da 81 bc 41 23 77 bf
       0.010364871 -0.2581756 -0.015851194 -0.9653817
0000c0 14 00 ed ba be d2 07 3d 2c 7e a2 3e 44 8d 5e be
       -0.0018081688 0.033159964 0.31736887 -0.21733576
0000d0 c6 e6 1a 3f c6 1e a2 be 59 80 d9 3e 9c b2 05 bc
       0.6050838 -0.31664103 0.42480734 -0.00816026
0000e0 d0 3b 91 3e e0 57 0b be 4a a5 bd 3d 92 8e 33 bd
       0.28365946 -0.1360774 0.09260042 -0.043837138
0000f0 9f 16 58 bd b4 7b 83 3e 36 7f 1e bf 93 2e 30 bd
       -0.05275595 0.25680315 -0.6191286 -0.043013167
000100 f6 ea 53 bd 4f c1 16 be 13 5c 64 bb 04 83 70 bf
       -0.051737748 -0.14722179 -0.003484492 -0.93949914
000110 29 68 34 be e3 f6 e5 bc 21 9f cb bc 8a 92 44 bd
       -0.17617859 -0.028071826 -0.024856152 -0.047991313
000120 37 d4 84 be 80 7c 21 bd d6 44 59 3e 94 12 f9 3d
       -0.25943157 -0.039425373 0.21217665 0.121617466
000130 02 41 69 3e 81 9e 2c 3f 17 27 29 bf ef 5f f5 bc
       0.22778705 0.6742936 -0.6607527 -0.029952971
000140 72 98 b0 3e 07 62 8b 3d f8 b1 47 3d 4c b9 07 3e
       0.34491307 0.068058066 0.04875371 0.13254279
000150 cd cc c7 3d ad c1 dd 3e e2 98 44 3f a6 38 dd 3d
       0.097558595 0.43311825 0.7679578 0.108018205
000160 d6 37 bb be 5f 6c 26 bd d4 70 4f 3f 26 27 83 bb
       -0.36566037 -0.040630694 0.8103154 -0.0040024696
000170 f2 82 26 be 6a a7 1a 3f 70 0f 53 3f 12 2d 1b bd
       -0.16260889 0.60411704 0.8244543 -0.03788478
000180 70 f3 9e be de ce 21 3c f7 0a 02 3f 0f 51 18 3d
       -0.31045103 0.009875981 0.5079798 0.03718668
000190 92 a9 fa 3d ce 2a 7a bd 89 a0 b6 3c 75 68 32 bf
       0.12239374 -0.061075978 0.022293346 -0.6969064
0001a0 0c bd 59 3f 08 23 24 bf bb 8c 92 3e bd 86 4b be
       0.8505409 -0.64115953 0.28622994 -0.19875617
0001b0 39 93 ef bc e7 39 3e be a5 11 2e 3f bc 36 be bd
       -0.029245006 -0.18576775 0.67995673 -0.092877835
0001c0 64 30 6b be 7e 8f 0d bf 18 2d 32 bd d9 e0 22 3f
       -0.22967678 -0.55297077 -0.043500036 0.6362434
0001d0 87 e8 79 3e 1f f2 29 3f 3f 54 e4 be 0b 36 46 bf
       0.24405108 0.6638507 -0.44595525 -0.77426213
0001e0 97 48 a2 3e 23 56 ca 3e d0 df 08 bd 85 2b d0 be
       0.31696007 0.39518842 -0.03341657 -0.40658203
0001f0 cd a8 1c 3e 90 3c f1 bc ed fd 01 bd 8d 42 d8 bb
       0.15298767 -0.029447824 -0.031736303 -0.0065997303

linear3.weight f4 [64, 128]
000000 c6 a3 0f bf 6a f2 4d 3d d4 05 d1 bf 61 d9 db bf
       -0.56109273 0.050280012 -1.6329904 -1.7175714
000010 37 5f b8 be dc c4 02 be cc 4f 7c bd b2 6b b0 bd
       -0.36010143 -0.12770408 -0.061599538 -0.08614291
000020 45 82 15 be 01 84 01 3d 6d 73 c9 3e fa 4a 90 3d
       -0.14600475 0.03162003 0.39345875 0.07045551
000030 c3 21 0c 3c c4 29 fd 3c 7d ab 00 3e a9 82 c0 be
       0.008552971 0.030903704 0.12565418 -0.37599686
000040 7b 07 22 bd 9b 5e ae bd 7d b2 9f 3e 8b c9 59 bf
       -0.039557915 -0.08514138 0.31190863 -0.85073155
000050 de 65 67 be f6 70 28 be 3a 70 27 3e 47 bf 5d 3e
       -0.22597453 -0.16449341 0.16351405 0.21654998
000060 e0 9c 33 be 08 2f da bd ba 8e 54 3e 51 31 c2 3d
       -0.17540312 -0.10653502 0.20757571 0.094820626
000070 94 2f 0b bd ea af 19 3c 2e ec 7c be 14 47 ca 3b
       -0.03398092 0.00938032 -0.2469947 0.006173024
000080 79 c2 ec 3e a7 6d a2 be ad 87 6e bc a4 1c f2 3e
       0.4624212 -0.31724283 -0.014558715 0.47287476
000090 e6 d4 b3 bc ec b0 3e 3e 98 71 8f bd 75 aa 9e 3e
       -0.021952104 0.18622178 -0.07004088 0.30989423
0000a0 30 bb 3e be c0 f7 50 3d bb 13 2b 3c a6 9d 37 be
       -0.18626094 0.051017523 0.010441716 -0.17931232
0000b0 88 5d cb 3c e2 6d 1e c0 f9 45 e7 3c c4 c4 bb bf
       0.024824873 -2.4754567 0.028231608 -1.4669423
0000c0 35 0c 08 bf 7c a2 2f bd bd 3a bc 3d 32 69 ae bd
       -0.53143626 -0.042879567 0.09190891 -0.08516158
0000d0 1f 3f 30 be 71 71 a0 3d 76 e4 f7 3e 9b 30 6c bd
       -0.17211579 0.07834137 0.4841649 -0.05766354
0000e0 57 de 94 3e d6 6e 7c 3e aa 84 86 3e ef b2 a7 bd
       0.29075882 0.24651656 0.2627309 -0.08188426
0000f0 c1 41 84 be 71 39 03 3d a4 19 7b 3e 02 57 d5 3b
       -0.25831416 0.032037202 0.245215 0.0065106163
000100 dc a7 89 3e db 05 31 bd f7 0c 1f bf ee d3 a3 bd
       0.2688588 -0.043218475 -0.6212916 -0.07999407
000110 c7 43 eb be 1b ab 7b be 63 b5 1c bd 3a d2 18 be
       -0.45950148 -0.2457699 -0.03825892 -0.14923945
000120 57 69 91 3e fe 8f 04 3e 1a 35 91 3a 68 2e 55 be
       0.2840068 0.12945554 0.0011078448 -0.20818484
000130 03 4c 67 3e 98 7f c4 3e a4 21 80 bf 6c fb d1 3d
       0.2258759 0.38378596 -1.0010266 0.10253033
000140 cd 4e 04 be 63 13 2d 3f 48 ee 36 3e 4a 3a a1 be
       -0.12920685 0.67607707 0.17864335 -0.31489784
000150 72 aa 94 be 0c 88 36 bd 55 8d 0b 3e 47 f4 e4 3d
       -0.2903629 -0.04456334 0.13628133 0.11179405
000160 83 d6 38 3e 72 58 30 bc 92 c0 0c bd 8d 47 0e 3d
       0.1805058 -0.0107632745 -0.034363337 0.034736205
000170 45 e3 d8 be 89 b9 1b bc 36 c4 c3 3e 66 39 56 bd
       -0.42360893 -0.009504684 0.38235635 -0.052300833
000180 e8 35 da bb 9e c4 47 bd 3a 01 4a 3d ca a5 98 bf
       -0.006659258 -0.048771493 0.049317576 -1.1925595
000190 1d c5 0d bd 09 c8 6a 3b 8d f5 04 be d6 98 ae be
       -0.03461181 0.0035824797 -0.12984295 -0.3410098
0001a0 db dc 88 3d 2d 08 ed bf b5 bf 76 bd dc 7c f8 be
       0.0668275 -1.851812 -0.06024142 -0.4853276
0001b0 ae 48 36 3e e5 9e 00 bf 64 59 63 bd 10 e8 54 bd
       0.17801163 -0.50242454 -0.05550517 -0.051979125
0001c0 29 7a bd be 74 d7 dc be cf 30 46 bd 02 9e 2a 3e
       -0.37007263 -0.43133128 -0.04838639 0.16661838
0001d0 87 b3 0e 3e 6e e4 5d 3e 9e b1 65 bf 3b 07 da be
       0.13935672 0.2166917 -0.8972415 -0.4258364
0001e0 d7 23 66 3f da 5f 35 bd 54 d4 53 be 64 eb 74 bf
       0.8989844 -0.044280864 -0.20686466 -0.9567168
0001f0 01 ad b3 3d 64 3f dc bc 40 df 9b 3e e4 40 c4 3d
       0.08773232 -0.026885696 0.30443764 0.095826894
000200 11 ef 09 3e 09 ef 9a 3e d2 0a 06 3e 5e cd 00 bf
       0.13470103 0.30260494 0.13090065 -0.50313365
000210 6f 4b 97 be a2 9b 0b 3d 41 3c c5 3d 9a 7b 88 be
       -0.2954974 0.03408397 0.09630633 -0.266568
000220 cc 04 8a 3c 36 75 d7 be 3a b8 29 3e ad 2c b3 bd
       0.01684799 -0.42081612 0.16574183 -0.087487556
000230 ec 91 a1 3d 09 5b 03 3e 3d fa c5 be 42 d9 78 3c
       0.078891605 0.12827696 -0.3866748 0.015188517
000240 05 8a fb bc 92 60 9d 3c b8 37 93 be 89 79 27 3e
       -0.030705461 0.019211087 -0.28753448 0.16354956
000250 3c 3b 99 bd 39 26 81 be 0e 7e 1b be 51 84 c4 be
       -0.07482001 -0.25224474 -0.15184805 -0.383822
000260 d3 3d b7 3c a8 e0 ce be 52 39 6f be 0a b9 62 3e
       0.022368347 -0.40405774 -0.2336171 0.221409
000270 e6 ca 47 be 87 78 9d bd ed aa 58 bd 67 f2 a0 3d
       -0.19510993 -0.076890044 -0.052897383 0.078587346
000280 9f c2 5d 3e 24 05 c4 bd ad 24 b2 be be 1b 60 3d
       0.21656273 -0.09571293 -0.34793606 0.054713957
000290 fe 2e 07 be 5b 78 d8 bc b5 8e 03 be cf 8b fa be
       -0.1320152 -0.026424577 -0.12847407 -0.4893479
0002a0 fe f0 d8 bd 14 38 cb 3d d7 8c 03 bc f9 23 86 3d
       -0.105928406 0.099228054 -0.008029184 0.0654983
0002b0 51 86 55 be 5e f8 90 be 81 08 55 be 76 0c 51 be
       -0.20852019 -0.2831449 -0.20804025 -0.2041491
0002c0 ef 54 89 bd a4 4a d1 be 9a 4c 3b be 12 65 29 3e
       -0.06705653 -0.4087726 -0.1829094 0.16542462
0002d0 56 be e7 bd ce 4a 18 bf 0f f3 57 3e 62 c6 89 3e
       -0.113156006 -0.5948914 0.21088813 0.26909167
0002e0 7f 33 07 bf 96 cd 69 be 38 ea 7c be fc 91 c9 3d
       -0.5281295 -0.22832331 -0.24698722 0.098422974
0002f0 3e 90 8c bd 17 80 a2 3d e9 cd 18 3b ba 2e 30 bd
       -0.068634495 0.079345874 0.0023316091 -0.043013312
000300 1b 4d 98 3d 8c 0d e4 3d 45 40 43 be 38 1d 8e bb
       0.07436582 0.11135396 -0.19067486 -0.0043369792
000310 ff ba 9d 3e 7b b8 be bd 73 87 d6 3c ff d6 d4 3d
       0.3080673 -0.093125306 0.026187634 0.1039257
000320 38 83 56 3e 4c 5b 16 bd be 96 81 3e 4d 6a 50 3e
       0.20948493 -0.03670816 0.2531032 0.2035305
000330 00 e8 22 be 2c 59 3f 3e cb db fa be 79 db 6f bd
       -0.15908813 0.1868636 -0.48995814 -0.058558915
000340 76 d4 1c 3e 4e e9 00 be 55 28 ef bd 0b 99 c9 3d
       0.15315422 -0.12588999 -0.116776146 0.09843644
000350 1a f3 3d be b6 64 bd bd 4f 4a c1 3c 0f 3b ef bc
       -0.18549767 -0.09247725 0.023595003 -0.029202966
000360 a1 fa 2f 3e be 44 d3 3c e5 a8 cf be 33 bb 5f be
       0.17185451 0.025789615 -0.40558544 -0.21848755
000370 23 ac 14 be f4 a1 ce bd 5e ee 8e 3d d1 78 4d bd
       -0.1451879 -0.10089484 0.06979059 -0.050164048
000380 57 a4 1a 3e 93 63 37 3d fa ea 9a 3d d9 cf d0 be
       0.15101753 0.044772696 0.075643495 -0.40783575
000390 09 33 44 be ea 13 8e 3d c5 d3 ee 3a db e4 c6 bd
       -0.19160093 0.06937392 0.0018221071 -0.097116195
0003a0 3c 7b 4c bf a8 49 85 3b a2 32 ef bc 01 37 de 3e
       -0.7987554 0.0040676184 -0.029198948 0.4340134
0003b0 c9 0e 59 bd 3a ee b9 3e f1 8f 95 be bf d9 71 bc
       -0.052992616 0.36314565 -0.2921138 -0.014761387
0003c0 2f 60 25 3e b9 3c 92 bd db e6 a9 bd 68 92 0b 3e
       0.16149972 -0.07140488 -0.08295985 0.13630068
0003d0 2f b1 b9 3c f1 e5 0a 3e 5c 2e 88 be 85 0e 08 3c
       0.022667496 0.13564278 -0.2659787 0.008304243
0003e0 8d 62 f6 3d 82 30 46 bd 28 90 af 3d 7e 49 23 3e
       0.12030516 -0.048386104 0.085724175 0.15946004
0003f0 5e 84 15 3e fe 37 84 bd f0 10 21 bc 1d 0a f6 be
       0.14601275 -0.06455992 -0.009830698 -0.4805459

linear3.bias f4 [64]
000000 41 bd a6 3e 68 1c 89 3a 2d d5 4d 3f 4c 32 68 3f
       0.32566264 0.0010460736 0.80403405 0.90701747
000010 58 bf d1 bd da cf ac 3f 6e 7c a1 3f ba 0b 89 ba
       -0.10241574 1.3500931 1.2616098 -0.0010455765
000020 46 8a fd 3e 84 37 f8 3d a5 44 18 be 76 70 37 bd
       0.49519557 0.12119964 -0.14869936 -0.044784985
000030 72 8f 1a be 9f be 11 3e ab 38 19 be 45 0b 95 3f
       -0.15093783 0.14232872 -0.14963023 1.1644064
000040 5f 43 a5 3d 19 de 44 3f aa 3b 85 3f 88 42 03 bd
       0.08069491 0.76901394 1.0408833 -0.03204587
000050 0c b8 fb 3d 37 bd 76 bd 1f 35 77 be e9 e7 92 3f
       0.122909635 -0.060239043 -0.24141358 1.1477023
000060 cf ab 7f 3e 5c c0 a1 3f e0 57 89 3f bf ba 1e 3f
       0.24967884 1.2636828 1.0729942 0.620037
000070 ff 67 51 3f 97 f7 be bd 84 9a 0b be 12 ef 07 bf
       0.8179931 -0.09324568 -0.13633162 -0.5309917
000080 be 91 46 3d cf 08 a6 3f 80 b0 00 3f 53 fc 43 be
       0.048478834 1.2971438 0.5026932 -0.19139223
000090 64 37 64 be 62 9f 1f be eb 34 a4 be a6 c8 0a be
       -0.22286755 -0.15588143 -0.32071623 -0.13553104
0000a0 8c a9 ab bd 5c 09 99 be b5 31 ba 3e aa f6 45 3f
       -0.08381948 -0.29889953 0.36366048 0.77329504
0000b0 83 46 dc bd 6b 13 2a 3f 2a 5b 92 3f 21 4c 90 3d
       -0.107556365 0.6643588 1.1434071 0.070457704
0000c0 d9 a8 39 3f d9 3a 91 3f b1 1c 6b 3d 2a fa 8f 3f
       0.72523266 1.1346084 0.05740041 1.1248219
0000d0 2b df 94 bd eb fc 1d 3e be e0 57 bf 74 e2 96 3f
       -0.072691284 0.15428512 -0.84327304 1.1787858
0000e0 23 90 52 be 57 11 56 3d 62 2e 20 be dd 98 a5 3f
       -0.20562796 0.05226263 -0.15642694 1.2937275
0000f0 3e 7a 3f be 7b c5 59 3d ee e1 b7 3e b2 69 0c 3f
       -0.18698975 0.053166848 0.35914558 0.5484878

value.weight f4 [1, 64]
000000 d4 94 54 3e 19 33 b1 be eb 61 7d 3f 8d 11 f9 3e
       0.20759898 -0.34609297 0.98977536 0.48646203
000010 ef 49 33 bf 94 c0 b5 3e bc 40 99 3e e2 2d c1 be
       -0.7003469 0.35498488 0.299322 -0.37730318
000020 51 ca 39 bd fd 70 41 be 08 37 9a be bf d0 1b bf
       -0.04535896 -0.18890758 -0.3012011 -0.60865396
000030 e9 5e 42 bd 8d 44 38 3e 3d c6 eb 3d c5 91 06 3f
       -0.047453795 0.179949 0.1151242 0.52566177
000040 91 8b 78 3f 89 4e 53 3e d3 bf a5 3e e6 ef 15 bf
       0.9708796 0.20635428 0.32372913 -0.5856918
000050 e7 9d b6 3d e7 18 06 3e 73 16 1c 3d bf ff ab 3e
       0.08916836 0.13095437 0.038107347 0.33593556
000060 c9 8e 8d bf bb 7f 16 3f 75 89 20 3e 68 22 87 3f
       -1.10592 0.5878865 0.15677436 1.0557375
000070 f4 66 0b 3e b2 56 68 3d f0 11 0a bc 09 28 da bc
       0.13613492 0.056723304 -0.008427128 -0.026630418
000080 49 73 02 c0 55 91 e2 3e 6b e5 d9 3d 60 a5 16 bf
       -2.0382864 0.44251505 0.10639461 -0.5884609
000090 e6 3a 41 bd 1d d7 06 3e 35 89 aa be f7 b2 fb 3d
       -0.04717531 0.13167997 -0.33307806 0.12289994
0000a0 b5 42 2e 3c aa 3c bc bd 2c 53 ac 3f 2c c8 7f 3e
       0.010636021 -0.09191258 1.3462882 0.24978703
0000b0 8c 8d 06 bf df 2f 88 3f 75 7f 9a 3e 24 aa 18 3d
       -0.52559733 1.0639609 0.30175367 0.037271634
0000c0 07 db 90 3e 10 dd 50 3f 58 6c 20 c0 0b 33 0e 3e
       0.28292105 0.81587315 -2.5066128 0.13886659
0000d0 6d b1 a4 bf d3 3e 1a bf 4e a7 4b bf b6 42 12 3f
       -1.2866646 -0.6025211 -0.7955216 0.5713304
0000e0 12 c1 0f bf 4a e7 ba bf 38 c1 f7 bd 2b 4a 06 3f
       -0.56153977 -1.4601834 -0.120974004 0.5245692
0000f0 e2 6d 86 be 4c 93 d4 3e d5 41 1e bf ea b8 a1 3d
       -0.2625571 0.4151863 -0.618192 0.07896598

advantage.weight f4 [2, 64]
000000 41 55 18 bf c2 45 dd 3d 1e 44 b6 bd 38 33 10 be
       -0.5950509 0.10804321 -0.08899711 -0.14082038
000010 e3 59 48 3f a8 63 96 3e 2d b8 7e 3e a9 74 a8 be
       0.78262156 0.29372907 0.24874945 -0.32901505
000020 9d 98 13 3f bb 50 04 3f a9 16 78 be be 60 18 3f
       0.57654744 0.51685685 -0.24227394 0.59522617
000030 fd 32 64 bd 98 9e 35 bf 19 3d 80 be 20 45 c1 3d
       -0.05571269 -0.7094512 -0.25046614 0.09437013
000040 66 a4 81 bd 74 d6 a9 be cf 5d 23 3e 58 2b a6 3e
       -0.06330185 -0.33171427 0.15953754 0.32454944
000050 1b 54 b1 be 03 68 03 bf d4 3a 5d 3e 21 05 e6 3d
       -0.3463448 -0.51330584 0.21604472 0.11231447
000060 8c 38 65 bf 29 b6 a2 be fa f7 4a bc 54 04 d4 3e
       -0.8953941 -0.31779602 -0.012388224 0.41409552
000070 8f 09 59 be 97 79 8c bd 10 f1 f8 3d 11 e4 e5 be
       -0.21195053 -0.06859129 0.12155354 -0.44900563
000080 a2 45 9f bf be c9 02 bc 6c f0 cf 3e 36 b5 20 3f
       -1.2443125 -0.007982669 0.40613115 0.62776506
000090 09 cf 6e 3e a4 87 61 be 9a 1e 9b 3e a4 c3 e0 3e
       0.23321165 -0.22024399 0.30296785 0.43899262
0000a0 64 73 26 3d ac 25 37 3f 01 37 74 3c 64 8d 9a 3e
       0.04063739 0.7154186 0.014905692 0.30185997
0000b0 a7 d1 99 bf 3b bb a6 bc ae f2 45 bd 26 d4 bd 3e
       -1.2017106 -0.02035295 -0.04832714 0.3707592
0000c0 bb 98 8a 3e b7 78 5e be 5e 10 c8 3c 64 9b 42 3d
       0.2706965 -0.21725737 0.024421867 0.047511473
0000d0 33 30 be 3e 03 70 7c bf a5 5f 7f 3c 05 bf 4d be
       0.37146148 -0.98608416 0.015586768 -0.200924
0000e0 cb d8 43 3f 92 1f 88 bf b1 6b 9a 3e db 91 49 3e
       0.76502675 -1.0634634 0.30160287 0.19684546
0000f0 72 87 94 bc 21 7e 34 3f 44 9d 56 3f a4 03 b3 3e
       -0.018130992 0.7050496 0.8383372 0.34963715
000100 16 7c a6 3e 10 be e1 be 1b 76 5d bd 78 db 83 3e
       0.32516545 -0.4409032 -0.054067712 0.2575338
000110 02 85 8f bf f8 cb 86 3e 4f e7 18 3e 7e 4a 45 3d
       -1.1212466 0.2632749 0.14931987 0.048166744
000120 43 3c bf be 80 68 39 bf 6a 1d 08 bc bd 2e 00 bf
       -0.37350664 -0.7242508 -0.008307794 -0.50071317
000130 0d fb 79 bc 95 e3 cb 3e 32 0a d6 3d 83 09 5c bd
       -0.015257609 0.3982207 0.10451163 -0.05372001
000140 f0 54 c8 bd 24 13 bb 3e c1 02 f9 3e 4c 44 cf 3d
       -0.097818255 0.3653804 0.48634914 0.101204485
000150 a3 33 c1 3d a1 87 d9 3e 7a dd af be 3b 9c 3a 3e
       0.09433677 0.4248629 -0.3434866 0.1822366
000160 0b b4 91 3f 3a 9f 0a 3e be 5b 47 bd 27 03 f0 be
       1.138307 0.13537303 -0.048671477 -0.46877405
000170 62 ac 5e be 1e 30 f5 bd d0 e4 d8 3d 85 48 a0 3e
       -0.21745446 -0.11972068 0.105905175 0.31305328
000180 95 eb 50 3f 3c ff e2 3d 92 cc c8 be 4b 55 02 bf
       0.8160947 0.11083838 -0.39218575 -0.50911397
000190 4e 10 e7 be f6 e0 67 be 4a c8 a5 be 32 db f0 be
       -0.45129627 -0.2264441 -0.3237937 -0.47042233
0001a0 c3 ea 2e bd d4 1e 22 bf 00 0e 5c 3e 92 a4 1e bf
       -0.042704355 -0.6332829 0.21489716 -0.61969864
0001b0 f2 7b aa 3f 62 86 c5 be 80 16 1b be c2 f8 e1 3e
       1.3319075 -0.38579088 -0.15145302 0.441351
0001c0 dd 53 ac be 38 9f 85 ba ac 26 b8 bd e2 f5 d9 3d
       -0.33657733 -0.0010194546 -0.08991751 0.106426015
0001d0 29 24 75 be 02 db 6b 3f e2 f2 9e 3d e6 b1 07 be
       -0.23939575 0.92131054 0.0776117 -0.13251457
0001e0 20 77 91 bf d6 ed 74 3f 4d b5 a5 3d c7 5e 74 3e
       -1.1364479 0.9567541 0.08091221 0.2386428
0001f0 1b d3 1b 3e 7e fc 04 bf 36 b1 8d bf fe 9f 18 bd
       0.15217249 -0.5194777 -1.1069705 -0.037261955

advantage.bias f4 [2]
000000 ef f8 6a 3d ef f8 6a bd
       0.057366308 -0.057366308
