Result/N_StepDQN/CartPole-v1/Model.pth (torch, 173032 bytes, 8 tensors)

linear1.weight f4 [256, 4]
000000 e6 08 dc 3e 89 b3 e1 3e 79 f6 1b c0 77 e3 3b bf
       0.4297554 0.44082287 -2.4369185 -0.7339396
000010 92 c2 a9 3d d0 58 0f 3c 9c f9 43 40 48 6b 11 3e
       0.082890645 0.008749202 3.06211 0.14201081
000020 b0 64 31 3f 35 0a 89 3e 47 ee a1 3e 8a ea 73 bf
       0.6929426 0.267656 0.31627104 -0.95279753
000030 73 12 5c be 6a c7 02 3f f2 42 5c 3d f1 de 1a 3f
       -0.21491413 0.5108553 0.05377478 0.6049643
000040 97 ac 34 3e 24 2a e3 be a0 26 b7 bf 59 ed 8d be
       0.17643963 -0.44368088 -1.4308662 -0.27720144
000050 07 38 e1 be 41 2b b7 3e d2 80 10 40 13 ce 8b bf
       -0.43988058 0.35775188 2.2578626 -1.0922264
000060 4b cf 10 3e bc cc 6d bf ac 4c 07 c0 7b be 88 be
       0.14141576 -0.92890525 -2.1140547 -0.26707825
000070 89 1c 52 3f df 0d 49 bf 1a 62 e7 bf f2 6e 9a bf
       0.8207479 -0.7853679 -1.8076813 -1.2065108
000080 cc 8d 4e bf f8 73 b6 be f3 da 73 40 b2 f5 7f 3f
       -0.80685115 -0.35635352 3.8102386 0.99984276
000090 11 b3 9d 3d 55 b6 53 3f c3 58 74 3f 3c d2 eb be
       0.0770017 0.8270009 0.9544794 -0.46058834
0000a0 76 d1 83 bf c3 5e 88 3e 66 f8 9e 3f 26 42 4c 3f
       -1.0298297 0.26634797 1.2419555 0.79788435
0000b0 59 a1 d8 be f6 76 50 3f 11 ad d5 be 33 00 84 bf
       -0.42310598 0.8143152 -0.41733602 -1.0312561
0000c0 ad 8a 13 be 5a 54 1a 3f 5e 5f 34 40 f0 15 5e 3e
       -0.1440837 0.6028496 2.8183208 0.21688056
0000d0 4a 8b 52 3e 80 f3 26 3f 11 fc 2c bf bb dc f0 be
       0.20560947 0.652153 -0.6757212 -0.47043404
0000e0 6f de e1 bd ba 26 5a 3e 03 41 7e c0 19 25 a7 be
       -0.11028754 0.21303836 -3.972718 -0.3264549
0000f0 5b a8 b3 be 34 8d 92 be ff 31 58 be 6b c4 1f 3f
       -0.35089383 -0.28623354 -0.21112822 0.62409085
000100 15 a2 a0 3e 31 28 57 bd 24 08 28 bf 43 91 f3 3e
       0.3137366 -0.052528564 -0.6563742 0.47571763
000110 5e a0 9b bf c3 1a 52 bf bb 93 81 3f 13 0d 9f be
       -1.2158315 -0.82072085 1.0123209 -0.31064662
000120 b1 ef 2c bf 27 20 a6 3e 41 3c f3 bf 27 cc 51 bf
       -0.6755324 0.32446405 -1.9002763 -0.81952137
000130 83 4b 14 3d 71 9f 0a be 22 84 80 40 e6 3d 73 be
       0.036204826 -0.13537385 4.0161295 -0.23754081
000140 58 31 24 3d f9 80 3d bd ba e5 88 c0 92 eb e8 be
       0.04008612 -0.046265576 -4.278043 -0.45492226
000150 b7 31 f6 be 94 25 f6 3e ed 33 ae bd 79 f1 8c bf
       -0.48084804 0.48075545 -0.08505998 -1.1011192
000160 8d f8 b8 be c2 30 b3 3e 83 5d 30 40 e9 d6 3e 3e
       -0.3612713 0.34998137 2.7557075 0.18636669
000170 e4 07 2f be 84 98 56 3e 46 e6 32 40 cc 0f 3a bf
       -0.17092854 0.20956618 2.7953048 -0.72680354
000180 90 1c 9d bf 78 d1 9b 3e 84 f7 2d 40 58 01 4e 3f
       -1.2274342 0.3043325 2.7182322 0.804708
000190 fe 17 a1 3b 99 ce 36 3d a6 ca a1 3f 01 6a fb bc
       0.00491619 0.04463062 1.2639968 -0.030690195
0001a0 7e 04 01 bf dd 0d 5f 3e ca 8a 90 bf 5d 62 35 bf
       -0.5039748 0.21782632 -1.1292355 -0.70853215
0001b0 b2 ae 3f be ab c4 11 3e 36 e7 7a 3f 00 b7 d4 3d
       -0.18718985 0.14235179 0.9800905 0.10386467
0001c0 3b 3c 4e 3f 72 42 fb 3f 8e 30 d6 bf 21 c0 54 3e
       0.80560654 1.9629653 -1.6733568 0.20776416
0001d0 26 d0 31 bd 94 fa 0d 3d 37 4a 45 3f a6 83 76 bd
       -0.043411396 0.034662798 0.7706637 -0.060184143
0001e0 60 c2 ac bf 78 d3 03 3f 02 7d 0c 40 89 de 04 3f
       -1.3496819 0.5149455 2.1951299 0.5190206
0001f0 27 e5 e8 3e 48 0c 72 bd 40 f6 6b 3f 08 17 56 3d
       0.4548733 -0.059093744 0.9217262 0.052268058
000200 65 d9 3c bf d2 ad 45 3f e8 ac e3 bf 17 9e 77 3f
       -0.7376922 0.77218354 -1.7787142 0.967256
000210 f0 81 6b bd 90 a4 86 bf 84 f6 cc 3f 6d ed 94 3e
       -0.057496965 -1.051897 1.6012731 0.29087391
000220 1b 5e 5d 3f 8e cf 04 bf 82 9a ca bf 4c d7 06 bf
       0.8647172 -0.51879203 -1.5828402 -0.52672267
000230 f4 34 85 3e 21 9f 55 bc 0e 49 96 bf 28 3f 05 be
       0.26016963 -0.013038428 -1.1741045 -0.13012373
000240 c8 17 06 3d a3 4b c1 bd dc ae 8f bd 2d 1f e3 3e
       0.032737523 -0.09438255 -0.07015774 0.44359723
000250 7f 58 b1 3e 3d eb a7 be 2d 0e 85 3f 1e 98 8a be
       0.3463783 -0.3279666 1.0394951 -0.2706918
000260 7d 8b 13 3f 4e a9 ca bf e9 0f 86 3f 1a 6e fa 3e
       0.5763472 -1.5832918 1.0473605 0.48912126
000270 39 1c f5 be 07 c6 2d bf bf fa 43 be 1a 3f df be
       -0.47873095 -0.6788029 -0.19138621 -0.4360283
000280 91 99 e6 3d 7b e2 30 3f 35 dd cc 3f 7d 1f 85 3f
       0.11259759 0.6909558 1.6005007 1.0400234
000290 50 68 75 3f 3b cc b0 3e c9 71 23 40 5f a9 aa 3e
       0.95862293 0.34530815 2.55382 0.33332345
0002a0 a1 ff 3a bf a6 f1 04 3f 3a 84 18 c0 8a 81 9c bf
       -0.7304631 0.51931226 -2.3830705 -1.2227032
0002b0 b3 e7 c3 bd 6f e4 1a 3e d7 0a 39 40 af 8c 94 3f
       -0.095656775 0.15126203 2.8912866 1.1605433
0002c0 b2 e9 88 bf 7a 24 3b bf bd 74 81 3e 08 de c6 be
       -1.0696318 -0.73102534 0.25284377 -0.3884127
0002d0 cc ed 27 bf f7 e7 39 be 67 08 d3 3f 04 e3 29 3f
       -0.65597224 -0.18154894 1.6486939 0.66362023
0002e0 7b c5 6b bf 51 f3 81 3f 99 3b 9d c0 ed 93 42 3c
       -0.92098206 1.0152379 -4.913525 0.011876089
0002f0 1d 68 07 bf 07 30 05 be da e3 71 40 4e d4 0b 3e
       -0.5289324 -0.13006602 3.779532 0.13655207
000300 a3 09 1d bf 43 d7 90 3e c7 eb 27 3e a4 3e da 3e
       -0.6134283 0.28289232 0.16398536 0.42625916
000310 a7 56 f9 3d 00 52 07 3f 6b a7 a7 bf 41 78 8c 3f
       0.12174731 0.528595 -1.3097967 1.0974199
000320 52 8f 27 3f 7e b6 75 3d 02 7a 20 c0 82 73 43 be
       0.65453064 0.05998849 -2.5074468 -0.19087031
000330 ce 32 0a 3b 26 8d 5d 3d 14 9c 4e 40 87 f0 02 3f
       0.002108741 0.054089688 3.2282763 0.51148266
000340 61 f0 6f bf 62 b7 6c 3f 18 92 c4 3e a0 62 80 be
       -0.93726164 0.9246732 0.3839271 -0.25075245
000350 40 f2 4c bf 76 e4 0b 3f 67 dc 39 3f a3 ee a0 3e
       -0.80057144 0.5464548 0.7260193 0.31432065
000360 0f ac 9d 3f ae b7 96 be 40 ba 39 40 9e d6 35 3e
       1.2318133 -0.2943701 2.9019928 0.17757651
000370 aa 5f 1b bf 99 12 9d 3e 35 fc 49 bf b0 b5 49 bf
       -0.60692847 0.3067825 -0.7890046 -0.7879286
000380 6b f1 06 3e e5 9e d7 bd 7c 71 ad bf 6e bb 86 be
       0.13178031 -0.105283536 -1.3550258 -0.26314873
000390 e5 5a 43 bf ca 87 a2 be a3 3b d7 3f aa db 0c bf
       -0.7631057 -0.31744224 1.6815075 -0.5502268
0003a0 ec 41 a2 bf 52 65 17 3b 23 14 35 3e 78 37 55 3e
       -1.2676368 0.0023101163 0.17683463 0.20821941
0003b0 2b 82 c5 be 31 a0 c8 3e b5 1e b7 3f a8 34 7c 3e
       -0.38575873 0.39184716 1.4306246 0.24629462
0003c0 8e a3 45 bd 31 b2 85 bd 33 b4 15 c0 44 07 ce 3d
       -0.04825168 -0.06528128 -2.3391235 0.100599796
0003d0 2f 7c 15 3f d5 dd 63 be 30 f9 e9 3f 1c bf 2c bf
       0.58392614 -0.22252591 1.8279171 -0.6747911
0003e0 ab b7 30 3f 0f f7 7f bd 63 ee 63 c0 c0 0b 1f bf
       0.69030255 -0.062491473 -3.561425 -0.62127304
0003f0 88 5f 16 bf 23 d4 1a 3e ef b4 f7 3f 53 33 ed be
       -0.5873952 0.15119986 1.9352092 -0.4632822

linear1.bias f4 [256]
000000 51 20 66 bf 08 fc 3c 3f 7e fb 9d bf d7 20 a2 be
       -0.8989306 0.7382207 -1.2342374 -0.3166568
000010 67 45 17 3f 5a 0b 25 bf d7 38 a3 3e ab 9d d5 be
       0.59090275 -0.64470446 0.31879303 -0.41721854
000020 76 3f 2d bf d5 6e ea bd f2 da 28 bf c3 2d aa bf
       -0.6767496 -0.11446921 -0.65959084 -1.3295215
000030 71 2e b0 3c 20 4a 70 bf 90 7d eb be a8 e6 ad bf
       0.02150652 -0.93863106 -0.45994234 -1.3586016
000040 7a ca 93 be 4c 8b fe 3e 86 e6 c3 be bf c9 c4 3e
       -0.28865415 0.4971565 -0.38261813 0.3843517
000050 d6 29 0b bf 6b 2c b9 3d 13 34 01 3f 04 bf b0 bd
       -0.5436071 0.09041675 0.50470084 -0.08630183
000060 b9 7c fc be 20 29 73 3e f0 61 54 bf 26 18 2f 3f
       -0.49313906 0.23746157 -0.8296194 0.6839622
000070 c2 82 24 bf 34 e9 ab 3d 37 56 0e bf 8d 74 b5 be
       -0.6426202 0.08394089 -0.55600303 -0.35440484
000080 49 a4 0c 3f 19 06 1d bf 80 fe d7 3e 00 d7 67 3e
       0.5493818 -0.6133743 0.42186356 0.2264061
000090 fb 50 73 3e 69 ef 2d 3f cc 4b 89 3e e9 9f 1f bf
       0.2376136 0.67943436 0.2681564 -0.6235338
0000a0 ab 27 40 be 95 35 20 bf db 3a 1d bf 56 28 19 bf
       -0.18765132 -0.6258176 -0.6141793 -0.5982717
0000b0 4f 5f 0a bf 36 af 3a bf d7 dc 1b bf c5 68 09 bf
       -0.5405168 -0.729236 -0.6088385 -0.5367549
0000c0 8e 72 ae 3e 24 db 37 bf 04 e6 30 3f 54 dc fd be
       0.34071773 -0.7181876 0.69100976 -0.4958216
0000d0 82 fb f3 be 12 bd 40 bf b5 cd 1f bf f2 4c 49 bf
       -0.47652823 -0.752885 -0.6242326 -0.78633034
0000e0 36 90 36 3f 44 2e 28 be 01 90 f0 3e 9d d4 2f 3f
       0.713138 -0.16423899 0.46984866 0.686838
0000f0 0c b6 a5 3e 6c 79 15 bf ae ce 18 bf 1c 88 08 bd
       0.32365453 -0.583884 -0.5969037 -0.03333293
000100 01 f4 20 bf 6e bf 7b bf 40 f6 83 bd 42 6f 8b bd
       -0.6287232 -0.98338974 -0.06443453 -0.0680833
000110 23 6c d7 be d3 69 b5 3e 63 f9 c3 be f6 5b 3b 3d
       -0.4207469 0.354323 -0.38276204 0.045741998
000120 ed 2b 9c 3e ef 0b ca be 81 ff e4 be 20 23 d0 3d
       0.30502263 -0.3946223 -0.44726184 0.101629496
000130 b8 f4 42 3d 74 b7 f9 be 5d 21 0f 3f b1 0f 9e be
       0.047596663 -0.48772776 0.55910283 -0.30871347
000140 c2 9b 09 3f d6 ab 22 3f c1 40 0c 3f 75 6a 90 3e
       0.5375329 0.6354345 0.54786307 0.2820622
000150 20 4d cf 3e 80 2f 42 be dc 15 47 bf cb 14 75 3f
       0.4048853 -0.18963432 -0.7776773 0.9573485
000160 bb ff 5e be 5a 47 13 bf 71 c3 e3 3d 90 21 37 be
       -0.21777241 -0.5753075 0.11121262 -0.17883897
000170 32 32 3b bf 4b 6c 27 be 1c cb 57 3c 75 63 b5 be
       -0.73123467 -0.16349904 0.013170984 -0.35427442
000180 47 8a 1c bb cb f8 85 be de fb 30 bf 33 4a dc be
       -0.002388613 -0.26166376 -0.6913432 -0.4302536
000190 a4 b8 58 be 73 3b 29 3f 0a 41 87 bf 26 87 30 3e
       -0.21164185 0.6610634 -1.0566723 0.17239055
0001a0 56 0b 7b be 79 b2 49 be 94 ab a1 be 94 fe d1 3e
       -0.24516043 -0.19696988 -0.31576216 0.4101454
0001b0 98 ee cb 3c 6a 7e e2 be 5f f8 aa be b8 3b 7f be
       0.024894044 -0.4423707 -0.33392617 -0.24925125
0001c0 f4 36 0b 3f ec 0b ee be af 62 ad be 5c ab 57 bf
       0.54380727 -0.4649347 -0.33864352 -0.8424585
0001d0 a9 ff 26 3d 61 aa 94 3b 2c 15 3f bf 6b 1d 5e 3d
       0.04077116 0.0045369123 -0.7464168 0.054227274
0001e0 8a 9f 98 3e 8a a3 1d bf e8 67 87 be 50 b6 03 3e
       0.2980922 -0.61577666 -0.26446462 0.12862515
0001f0 8e 8c 88 3e 47 85 81 bf fb 8c 8f be b8 61 41 bf
       0.26669735 -1.0118798 -0.28037247 -0.7553973
000200 09 8a 4e bf 5f bf 01 bf f4 17 13 3f 91 3d 82 3e
       -0.80679375 -0.50682634 0.57458425 0.25437596
000210 57 76 00 be 6e 14 45 3e 63 28 99 bf a3 12 27 3f
       -0.12545143 0.19246075 -1.196545 0.6526281
000220 09 7d b2 bd c8 f3 4d bf 95 b1 6d bf 4b 94 3c bf
       -0.08715255 -0.80450106 -0.92849094 -0.7366378
000230 67 d1 99 be 3c 2c 36 3f 94 30 e3 be eb 20 b0 be
       -0.30042574 0.71161246 -0.44373 -0.34400114
000240 3d 7a d2 be be 29 cd 3e 5c c3 25 bd 42 39 0b bf
       -0.41108885 0.4007091 -0.040469512 -0.54384243
000250 23 b7 f6 be 9b fd 2d bd ab 5c 16 3b a6 eb ae be
       -0.48186597 -0.042478185 0.0022943418 -0.3416416
000260 88 79 2e bf ad 5f d0 be ea 38 60 bc 8e 78 23 bf
       -0.6815419 -0.40697995 -0.013685444 -0.63855827
000270 f9 45 2b be ea bc 41 bf 53 8b 33 bf 92 f6 4d 3f
       -0.16725911 -0.75678885 -0.70134467 0.8045436
000280 e9 b4 c6 3e bf 2c 27 be eb f4 18 bf 55 dd 8d bf
       0.38809898 -0.16325663 -0.59748715 -1.108317
000290 e5 ba 80 be a0 30 14 3e a8 9c 09 bf 88 ce 24 3f
       -0.2514259 0.14471674 -0.53754663 0.6437764
0002a0 f1 28 53 3e f8 d7 4c be f4 9c 0b bf ac 50 11 bf
       0.20621087 -0.2000426 -0.54536366 -0.5676372
0002b0 01 a5 44 3f f6 90 34 3e fa ef e2 bd 79 20 09 bf
       0.76814276 0.17633423 -0.11080928 -0.53565174
0002c0 6b d1 d5 be 8b b8 6d be 7a d3 31 bf d2 de 67 be
       -0.41761336 -0.23214929 -0.6946331 -0.22643593
0002d0 86 5d 69 be 55 d8 d8 3e 94 21 cb 3d 13 fc 36 bf
       -0.22789583 0.42352548 0.09918514 -0.71478385
0002e0 49 75 20 bf 51 75 0c 3e 49 bd d3 3e da 21 b6 bc
       -0.6267896 0.13716628 0.4135535 -0.022232939
0002f0 77 42 68 3b 7e 70 db be 3b 16 4b bf 22 19 26 3e
       0.0035440007 -0.42859262 -0.79330796 0.16220525
000300 14 eb f1 be 38 d8 fb 3d d3 c8 ae 3e d1 2f 3a bf
       -0.47249663 0.122971 0.34137592 -0.7272921
000310 7c fd d6 bd c6 30 cf be 79 12 c3 be bc 6a 91 3e
       -0.10497567 -0.404669 -0.3810003 0.28401744
000320 1c 16 5e bd d0 95 d1 be 2b dd db 3e da 5c 54 3f
       -0.054220304 -0.4093461 0.42942175 0.8295418
000330 43 75 36 bf 30 7f 0e bf ea 39 b9 3e d4 c3 7d 3e
       -0.7127268 -0.5566282 0.36176997 0.24781734
000340 96 6d a4 bd b2 bd 3d bf 72 83 29 bf 27 0b 10 bf
       -0.08028714 -0.7411758 -0.66216195 -0.5626702
000350 34 63 88 bf 89 b7 29 3e e9 3d 4a bf e8 76 38 bf
       -1.0655274 0.1657392 -0.7900072 -0.72056437
000360 c4 fc 31 bf e1 5a 24 bf 6d 60 8d be bd 2b 08 3f
       -0.69526315 -0.6420117 -0.2761263 0.5319174
000370 00 15 2e bf a6 e6 3a bf e8 db 55 3f 3a 20 15 bf
       -0.68000793 -0.7300819 0.83538675 -0.582523
000380 b6 69 c5 3e fa 90 e5 3e 68 43 d7 be 28 3d 0c bd
       0.38557214 0.4483717 -0.42043614 -0.03423801
000390 e0 9a d3 3e e6 4d ec ba f3 fa 15 be 49 2a 6d bf
       0.41329098 -0.0018028587 -0.14646511 -0.9264265
0003a0 1f 14 b6 be f0 d7 16 3f c9 f7 cb 3e 41 be 9f 3e
       -0.35562226 0.58923244 0.39837483 0.3119984
0003b0 3e 7d 5d bd a2 3d a0 be 7e d5 64 bf 20 8c 07 bf
       -0.05407452 -0.31297022 -0.89388263 -0.5294819
0003c0 6b aa 9c 3c b1 19 24 bf 45 18 f1 bc 32 ad 6c be
       0.01912423 -0.641017 -0.029430518 -0.23112944
0003d0 9f 6e 0a bf 61 e6 09 bf 42 b5 1d bf 85 be 89 bf
       -0.54075044 -0.53867155 -0.616047 -1.0761267
0003e0 c3 ae 59 bf 4c b0 89 3e 2c 15 52 bf 24 20 bc be
       -0.8503229 0.26892316 -0.82063556 -0.3674327
0003f0 fb 07 4a bf 9c 6e a2 3d b6 1d 76 bf d2 a0 32 bf
       -0.7891843 0.07931253 -0.96139085 -0.6977664

linear2.weight f4 [128, 256]
000000 eb 7f 9a bf bf 8c c7 3e 08 08 87 3c 3c d5 bb 3e
       -1.2070287 0.38974568 0.016483322 0.36686122
000010 76 01 5f 3e 16 99 53 3f 41 5a 0a be 31 ec 92 bf
       0.21777901 0.82655466 -0.13510992 -1.147833
000020 e2 a4 b8 bd 2d e8 98 be e3 66 4b bf a6 ab fe 3d
       -0.09015824 -0.29864636 -0.7945387 0.12435083
000030 39 e7 44 be 7c 92 16 bd ac e2 1f bf a4 86 d2 be
       -0.1922883 -0.036760792 -0.6245525 -0.41118348
000040 31 a7 21 be 70 53 85 3e 3e d4 85 bf 82 a0 71 3d
       -0.15786435 0.2604022 -1.0455396 0.058990963
000050 eb 17 ef be 92 b6 72 bf ec ed b4 3e ea 7c 1e 3f
       -0.46697935 -0.9480983 0.3533777 0.61909354
000060 9d b9 92 be 34 8f 51 be b3 2b b7 3e 28 ab b2 3d
       -0.28657237 -0.20464784 0.35775527 0.08724052
000070 6c b8 48 bc 61 cb c4 bd a6 ba 38 bf 86 38 ed bc
       -0.012251001 -0.09609104 -0.721598 -0.028957617
000080 30 ef 83 bf e5 e8 0b 3e 6f 2c 79 3d 8f 2d e8 bd
       -1.0307369 0.13663061 0.06083339 -0.113368146
000090 36 f5 c6 bd 38 91 e0 3d 08 f2 70 3e ac a4 99 bf
       -0.09714739 0.10965198 0.23529828 -1.2003379
0000a0 c0 36 73 bf 29 bd c1 bd 66 1f d7 be 7d de ef be
       -0.95005417 -0.094599076 -0.42016143 -0.46849433
0000b0 f7 95 c3 bc 76 27 ba be 1b d1 5d 3e aa 44 7e bd
       -0.02387522 -0.3635823 0.21661799 -0.062077202
0000c0 41 87 ad bd 62 c1 87 bf f3 a4 a3 3c e5 33 7d bf
       -0.08473063 -1.0605891 0.019976115 -0.9890731
0000d0 e7 03 1f 3f ad e3 a5 bc 17 14 45 3e fa b0 a1 3e
       0.6211533 -0.020250166 0.19245945 0.31580335
0000e0 26 43 09 3e 0c 18 90 bf 02 87 44 3e 88 54 44 3e
       0.13404521 -1.1257339 0.19192126 0.19172871
0000f0 cf bc 4d be 86 26 24 3e 99 49 28 3c 78 f7 16 3f
       -0.20091556 0.1603032 0.010271453 0.5897136
000100 0d 12 f3 be 63 08 82 be 70 5d fd 3f 81 15 12 bf
       -0.4747471 -0.25397024 1.979414 -0.5706406
000110 80 ed b5 3a 08 44 23 3e 9a 5f ac be a7 3f bb bf
       0.0013879985 0.1594392 -0.33666688 -1.46288
000120 a5 f0 6f be 10 bc 17 3d 6f 49 6c be 88 68 25 3e
       -0.23431642 0.037044585 -0.23074888 0.16153157
000130 23 2d e8 be 76 30 9a 3e 15 56 e7 3d a6 22 b3 3e
       -0.45346937 0.30115098 0.11295716 0.34987372
000140 53 60 51 3b 4d 2e 8b be 73 b8 12 be 85 b4 24 be
       0.0031948283 -0.27183762 -0.14328174 -0.16084488
000150 39 86 8f 3e 55 9d c9 3f d8 98 76 bf 28 1b 8d be
       0.2803209 1.5751139 -0.9632697 -0.2755978
000160 66 52 84 be 33 7f d6 be 88 42 80 be 61 01 19 3f
       -0.25844115 -0.4189392 -0.2505076 0.5976773
000170 32 ad 05 3d e4 d0 8a bf 99 e4 51 bc 23 2d f8 be
       0.032635875 -1.0844998 -0.01281085 -0.48471937
000180 29 58 3d 3d 04 c0 da be a9 0c 9e be 38 6f 44 bf
       0.046226654 -0.4272462 -0.30869034 -0.76732206
000190 e7 5b cb be 9c 55 12 3e 93 98 6b 38 57 bc ba bd
       -0.39718553 0.1429047 5.6170462e-05 -0.09117954
0001a0 94 d1 8d be 4b 3c 4d bf 89 b8 f3 3e dc d0 be 3d
       -0.27698958 -0.80170125 0.47601727 0.093171805
0001b0 4f d5 02 3d 49 88 f0 be d3 aa a8 bf 55 54 a5 be
       0.03194171 -0.46978977 -1.3177131 -0.32290903
0001c0 8a 01 db 3e fc ab cf be 02 5b 9d 3e 13 46 17 bf
       0.42774612 -0.405609 0.30733496 -0.590913
0001d0 f5 f6 bc 3d 06 e8 ef bd 3d 6f 4c bf f5 68 f3 bb
       0.09226791 -0.11714177 -0.79857236 -0.0074282833
0001e0 df 1c 87 bd 4e 77 84 3e 3e f3 ad 3e 20 1a c2 be
       -0.065973036 0.25872272 0.33974642 -0.37910557
0001f0 82 b2 0a 3e 45 3e e9 be 48 f7 ea 3e a1 47 c5 3e
       0.13544658 -0.4555532 0.45891786 0.3853121
000200 50 21 8d bf f3 37 8b be 71 08 bc bd c4 dc 36 3e
       -1.1025791 -0.27191123 -0.091812976 0.17857653
000210 0b 97 90 3e 7b 72 a1 3b e0 a0 9d 3f e5 6d b1 3c
       0.28240237 0.004926977 1.231472 0.021658847
000220 bc d5 fd 3d 6f dd d4 3e db 3c 25 3d a0 4b 8d bf
       0.12394282 0.4157519 0.04034124 -1.1038704
000230 71 ab 60 be e7 4e b3 3c 02 5e ea be dc d9 d1 bd
       -0.219404 0.02188821 -0.45774847 -0.102466315
000240 f0 5b f4 be f4 d9 dc 3e 96 9a 13 be b8 2d 7a 3d
       -0.47726393 0.43135035 -0.14414439 0.061078757
000250 92 59 42 be 8d f9 f6 3d 6c dc 12 3e 70 17 19 bf
       -0.18979481 0.12059317 0.14341897 -0.5980139
000260 97 58 44 bd f6 a1 ef 3d e5 81 7e 3e 69 47 ba be
       -0.04793605 0.117008135 0.24854238 -0.36382607
000270 e4 97 20 bf 32 ae de 3e d8 11 1d be f8 9a 18 bf
       -0.62731767 0.43492275 -0.15338838 -0.59611464
000280 36 df 41 bf 8c bb 14 3f 49 44 e4 be ac ff 98 bf
       -0.7573122 0.58098674 -0.44583347 -1.1953025
000290 11 8f 65 bf d4 7b 8c bf 09 9e 2a bd 9f 1d d4 3d
       -0.89671427 -1.0975289 -0.04165462 0.10357212
0002a0 f3 7c d3 3e 6e c5 59 bf fd 13 b5 3e f6 8d a6 bd
       0.41306266 -0.8506688 0.35366812 -0.08132546
0002b0 fa f7 7d 3e ef c0 35 3e 27 04 3b bd 9b 23 0c be
       0.24801627 0.1774938 -0.045658257 -0.13685457
0002c0 ff 9c 3d 3e 9e f4 39 be f4 b3 ff 3c 97 9d 1c bf
       0.1851692 -0.1815972 0.031213738 -0.61177963
0002d0 d0 97 91 3e e8 94 56 3e bb 6a e6 3e c9 bc ee 3e
       0.28436136 0.2095524 0.45003304 0.46628407
0002e0 91 ca 86 be 7c 2f bb 3e a5 32 a6 be 7b f5 89 3e
       -0.2632642 0.36559665 -0.32460514 0.269451
0002f0 4a 4d c3 3e 0d eb 07 3f 22 4d 26 3c ca a5 cc be
       0.38144904 0.53093034 0.010150226 -0.39970237
000300 7e 64 86 be cb e1 73 be 00 e1 15 bd 1e 7d 24 3d
       -0.26248544 -0.23816602 -0.03659153 0.040158384
000310 0d e4 b5 3d 86 5d 7b be 53 4d 4c 3e c7 4e 8a be
       0.08881388 -0.24547395 0.19951372 -0.27013227
000320 44 2d bb bf 65 40 6a 3e eb 4c 59 bf a5 ac 01 3e
       -1.4623189 0.22876127 -0.8488299 0.12663515
000330 21 d7 47 3d c9 35 43 3e 18 87 06 3e 09 3e 1a bc
       0.048789147 0.19063486 0.13137472 -0.009414204
000340 ee 5e cf 3d 64 05 1d 3d 2b 03 64 3e c1 c2 ee bd
       0.10125528 0.03833522 0.22266833 -0.1165824
000350 10 32 4b be 78 27 fb be 1b a5 4a bf 0c 9a 98 bf
       -0.19843316 -0.4905355 -0.7915818 -1.1922011
000360 31 2c a5 be 10 7b cc be 75 60 13 3e 9f ab 75 bd
       -0.32260278 -0.3993764 0.14392264 -0.059978124
000370 c4 85 eb 3d a8 04 92 bf 2c 72 fc bd 9b c6 00 bf
       0.11500123 -1.1407671 -0.12326464 -0.5030305
000380 b0 d3 dd 3d f1 da 23 be 09 34 a4 3e 1b 07 67 be
       0.10831392 -0.16001488 0.3207095 -0.22561304
000390 99 5d 7f be 7a 84 ed 3d 18 25 2a be 09 90 a0 be
       -0.24938048 0.115975335 -0.16615713 -0.3135989
0003a0 72 58 02 3f c4 00 6b be aa 5f ac be c6 4e d2 3c
       0.50916207 -0.22949511 -0.33666736 0.025672328
0003b0 59 1c 0a 3e 79 bd 07 3f b2 b2 01 3e 41 76 4e bf
       0.13487376 0.5302349 0.12665823 -0.8064919
0003c0 42 4c 15 bf 12 98 62 bf 8c 95 0b 3f 7b 24 a5 3f
       -0.58319485 -0.8851329 0.54525065 1.2901758
0003d0 4b db b2 be f8 ad 17 bd 95 c2 02 3e 2c da 86 bd
       -0.34932932 -0.037031144 0.1276954 -0.06584582
0003e0 9d 19 3b be c4 33 05 bd db ef 22 bf 40 5b 29 3d
       -0.1827149 -0.03252007 -0.6364724 0.04134679
0003f0 26 42 50 3e 50 78 a7 3e 80 4b b1 bf c6 ba 36 bf
       0.20337734 0.3270898 -1.3851166 -0.71378744

linear2.bias f4 [128]
000000 86 5f 67 3e 73 be e0 be bd 02 9a bd 65 46 d8 be
       0.22595033 -0.438953 -0.075200535 -0.42241207
000010 dd ca bd 3e b1 d9 a1 3e 46 25 8f bd e0 61 75 be
       0.37068835 0.31611398 -0.06989531 -0.23963118
000020 4d ad 80 bd 9b 2f a0 3e ce fd 84 bd 1d 2f 01 3f
       -0.062830545 0.3128632 -0.06493722 0.50462514
000030 bc 4d c4 3e 54 eb 53 3f 04 51 e9 3e 7a c6 e6 be
       0.38340557 0.8278096 0.45569623 -0.450733
000040 75 2e 0a 3f 1a aa 22 3f ee 5a d3 3d eb da aa bd
       0.5397714 0.63540804 0.10320078 -0.083425365
000050 a1 e6 46 3f 42 b3 13 be 15 0a 2b 3e d2 39 d3 3e
       0.7769566 -0.1442385 0.16703065 0.4125505
000060 e0 66 15 3f 78 4c d6 3e 11 11 51 3f df 0f 17 bf
       0.583601 0.41855216 0.81666666 -0.5900859
000070 f1 dc 8b 3e 64 9c b0 3e 33 83 01 3f e1 a7 10 3d
       0.27317002 0.34494317 0.5059082 0.03531635
000080 1a 54 ee bd bb eb bb be 6c d3 70 3f f1 b1 9e 3e
       -0.11637135 -0.36703286 0.94072604 0.30995134
000090 67 49 28 3f ea 55 9d be 66 45 a7 bd 8c 79 28 3d
       0.65737003 -0.3072961 -0.081675336 0.04113154
0000a0 e7 25 bc 3e f0 db 33 3f ff bb 57 bc 8a a6 6c 3f
       0.36747667 0.70257473 -0.01316738 0.9244162
0000b0 8b 6d 38 3f af 7e 1a 3f 25 37 6d bd 54 05 1a 3f
       0.7204215 0.60349554 -0.057913918 0.6016438
0000c0 ad f9 1b 3f f1 80 30 bd e7 18 9a bd 63 0d c0 bd
       0.6092785 -0.043091718 -0.07524281 -0.09377553
0000d0 5c 1a 34 3e eb 84 38 be ef 6c 3f 3f 4c 4e 0f bd
       0.1758818 -0.18019454 0.74775594 -0.03498678
0000e0 9a 7f 12 3e 73 0d 3f bc 05 97 ab 3e 82 67 43 be
       0.14306489 -0.011660921 0.33513656 -0.19082454
0000f0 4f 0c 33 bf d2 77 29 be 25 80 14 bf 34 f3 7a 3f
       -0.69940656 -0.16549614 -0.58008033 0.9802735
000100 e5 d6 ee bc 78 ec 41 bd 16 a5 27 3d 76 b0 93 3e
       -0.029155204 -0.047344655 0.040928923 0.28845567
000110 44 ee ed bc bc 0a 1e bd 56 ff f6 be 68 86 44 3f
       -0.029044278 -0.038584456 -0.4824168 0.7676759
000120 34 08 f1 3e 78 ca e0 3e f7 df ee 3e 80 a6 82 3c
       0.4707657 0.4390447 0.46655247 0.015948534
000130 c5 0a bb 3e 22 f2 53 3f 70 65 85 bc 18 b8 4c bd
       0.36531654 0.8279134 -0.01628372 -0.049980253
000140 db d5 fa be be e1 ea bd b0 77 78 bd 2b d8 d7 3c
       -0.48991284 -0.11468838 -0.060661018 0.026348194
000150 94 f0 49 bd e3 dd 2e be 25 87 1e bd f7 cd c3 3e
       -0.0493017 -0.1707683 -0.038703103 0.38243076
000160 e9 c4 ce 3e 76 bd d8 be 3c 31 b8 3e 99 e5 9b be
       0.40384606 -0.42332047 0.35975063 -0.30448607
000170 50 93 44 3f 70 d2 70 3f 18 10 a7 be 85 58 5a 3e
       0.7678728 0.940711 -0.32629466 0.2132283
000180 13 34 b7 be e2 6a a6 bd c3 8c 20 bd fc 4f 81 3c
       -0.35781917 -0.08125855 -0.03919674 0.01578521
000190 d8 3c d0 3e a4 cc b6 3e 74 ae 44 3e af 5d 34 be
       0.4067142 0.35703003 0.19207174 -0.17613862
0001a0 6b 22 97 3e c9 7a 39 3f b2 bd 47 3e 0d 98 8e bc
       0.29518446 0.7245298 0.19505957 -0.017406488
0001b0 01 8b a0 be bb 5c 9f 3e a8 7e eb bd c9 52 08 3e
       -0.31356052 0.31125435 -0.11498767 0.1331283
0001c0 e3 61 2b 3f 28 90 c3 bd fb 63 d8 be 8d 4f 1a bd
       0.6694624 -0.0954898 -0.4226378 -0.03767352
0001d0 e9 2c 27 3f 47 11 ec 3d 16 f9 4d bd 2c 1a 46 bd
       0.653029 0.11526733 -0.050286375 -0.048364803
0001e0 c4 11 be be db 36 f3 3e 53 ab c5 bc 97 ad 37 3f
       -0.3712293 0.4750279 -0.024129545 0.7174925
0001f0 78 dc 33 bc a9 7f ba bc 4c ac 08 3f 38 90 21 bd
       -0.010977857 -0.022765951 0.53387904 -0.03944418

linear3.weight f4 [64, 128]
000000 c5 aa 94 3e 3f 84 65 bf af 06 df bd 13 85 bd 3f
       0.29036537 -0.89654917 -0.10889947 1.4806236
000010 a8 04 7f be 4e 93 c4 be 92 74 03 3d 81 39 3d 3f
       -0.2490412 -0.38393635 0.032093592 0.7391587
000020 90 a1 57 3e 30 16 1c 40 cd d8 15 bd 8e ce a5 3e
       0.21057725 2.4388542 -0.03658371 0.3238415
000030 bf f2 47 c0 ea d3 90 c0 3d 10 32 bf 6d 24 b5 3f
       -3.124191 -4.5258684 -0.6955603 1.4151741
000040 a7 09 fe 3e 3b c8 b6 bd 58 ae 30 bf 91 8a 4f 3e
       0.4961674 -0.0892491 -0.6901603 0.20267703
000050 99 b1 9b c0 25 f0 18 bf 7c 62 48 bd 9c 98 a0 be
       -4.8654294 -0.5974143 -0.048922047 -0.31366432
000060 1e e6 11 3f d5 5b bc 3e 35 3e bf c0 c3 52 a7 3b
       0.56991756 0.36788812 -5.9763436 0.0051063015
000070 79 a5 3b bd 01 2e 52 bd ec c1 c0 bf b1 d2 e1 be
       -0.045812104 -0.051313404 -1.505918 -0.44106057
000080 f3 b7 74 3e 21 61 01 be 97 1d e8 3e 95 11 e0 bf
       0.23898296 -0.12634708 0.45335075 -1.7505366
000090 5b 0f 18 3f 2a 08 5e be d4 b5 b3 bc c1 5d de be
       0.5939843 -0.21682802 -0.021937288 -0.43430904
0000a0 9c 20 8f bf 70 ce 10 3f d9 80 49 bd 1b 35 f6 3e
       -1.1181827 0.56565 -0.049195144 0.4808739
0000b0 61 cc e8 3e 34 4c 2f bf f1 0d 95 3d 25 04 0e 3e
       0.4546843 -0.6847565 0.0727805 0.13868769
0000c0 c0 c8 ee 3e cd 43 8d 3e 8a f2 43 3d d4 df 73 3e
       0.46637535 0.2759079 0.047838725 0.23815852
0000d0 7f ef 26 3d 5c bd 22 3f 85 41 87 c0 2a cb 41 bd
       0.040755745 0.6357019 -4.226748 -0.047312893
0000e0 6b d2 0c bf 2c a4 5f be 72 bb 26 bf 59 e0 0c 3f
       -0.5500857 -0.2183997 -0.6512977 0.5502983
0000f0 8f bb 86 3e 24 0c 22 be 38 66 38 be 7c aa e6 3e
       0.2631497 -0.15824944 -0.18007743 0.45051944
000100 de ef f0 3d dd b3 3d 3e f1 8e 43 be 16 17 25 3e
       0.11764501 0.18525644 -0.19097497 0.16122088
000110 7b cf 59 3d 3b 48 0d 3e 41 6e 57 3f 33 9b ec bf
       0.053176384 0.13797085 0.8415261 -1.8484863
000120 5b 0b dd 3e 59 4e 40 bf 52 8e ab bc 31 ae a0 3d
       0.43172726 -0.7511955 -0.020941887 0.078457244
000130 20 fc a5 3d 8c 89 82 c0 9b 3d a4 3d fe e5 03 bd
       0.0810473 -4.0792904 0.08019563 -0.03220176
000140 7a 2e 7c 3e 40 e1 74 bd 61 1c 06 bd 23 28 1f 3e
       0.24627104 -0.059785128 -0.032741908 0.15542655
000150 ab e8 a8 3d 09 17 22 be a2 2c 2d be b3 17 06 bf
       0.08247503 -0.158291 -0.16911557 -0.5237991
000160 db 3b c5 bf f9 d4 df bd 19 fb 06 c0 a4 61 be be
       -1.5408891 -0.10929293 -2.1090758 -0.3718387
000170 a8 04 0a 3e 1d fb ae 3e 40 4c ae be 99 e4 ec bf
       0.13478339 0.3417596 -0.3404255 -1.8507262
000180 c4 c5 e8 3c 13 b0 8b 3e 10 e7 fa 3d 88 bf 64 3e
       0.028414614 0.2728277 0.12251103 0.22338688
000190 eb bc a0 3e f7 2a 1d 3e 5b ab 85 bf d2 ed 99 bf
       0.31394133 0.15348421 -1.0442919 -1.2025702
0001a0 c7 da 0a bf 63 4c 60 bf e0 22 d6 bf 9d 21 40 3d
       -0.5424008 -0.87616557 -1.6729393 0.046907056
0001b0 ee 5b 7a bf c7 6f 28 c0 47 b7 c6 3d 97 cb 8f 3e
       -0.97796524 -2.6318223 0.09702926 0.28085014
0001c0 b1 13 ac 3e 1f 83 f1 bc ea 97 a9 3f ad dc 08 3d
       0.33608773 -0.029481469 1.3249485 0.033413578
0001d0 98 e2 d9 3e 49 de 1c bf 8b 77 b6 3c 81 fb 2f 3d
       0.4255569 -0.6127668 0.0222738 0.042964462
0001e0 76 36 e0 3e ac 2c c2 bf af 2c 64 3e 67 42 9e c0
       0.4379155 -1.5169883 0.2228267 -4.9456058
0001f0 f1 2e 81 3d d5 20 a6 3d 55 92 9e bf 5a 70 f5 3c
       0.063077815 0.08111731 -1.2388407 0.0299608
000200 f0 71 57 be 4c 83 1a be e4 9f 0f bd 1e 93 cf bd
       -0.21039557 -0.15089148 -0.035064593 -0.10135482
000210 a7 b4 c0 bd 6d 4f 25 3e 99 37 a4 3d 66 ef b2 bf
       -0.09409457 0.1614358 0.08018417 -1.3979309
000220 6f 84 b7 bc b0 e3 99 3e 82 2f bb bd f8 c6 33 3c
       -0.022402016 0.30056524 -0.09139921 0.010972731
000230 c8 08 02 3d 0f 95 b9 3e 86 b9 1e 3e 03 e9 9b bf
       0.031746656 0.36246535 0.15500459 -1.2180485
000240 0d d5 3a 3e 2b fc 81 bd 9d 0f ec bc 65 9d 18 3e
       0.18245335 -0.06346925 -0.028816039 0.14903791
000250 a9 4f ad 3e 26 4b 35 3e 7c 5b 85 be 2e 0d 9d bd
       0.33849838 0.17704448 -0.2604636 -0.076685295
000260 86 97 a8 3e b1 8e 4a 3e 38 0a 39 3e e2 08 24 be
       0.32928103 0.19780995 0.18070304 -0.16019014
000270 25 08 1b bd 73 13 b0 3d 87 b6 c5 bd e7 6a 09 3f
       -0.037849564 0.0859746 -0.09653955 0.53678745
000280 21 16 0d 3e 18 5b 17 be 9e b5 65 3e 17 21 6d bc
       0.13777973 -0.14780843 0.22432563 -0.014473221
000290 16 bd 65 3e 61 9a 16 3f b7 43 b3 ba 81 01 86 be
       0.22435412 0.58829314 -0.0013676797 -0.26173022
0002a0 62 0c 3c 3e 7a b1 80 bd 8f 96 0d be c2 0f a9 3e
       0.18364099 -0.06283851 -0.13826965 0.33019835
0002b0 08 b8 7a 3c b9 be 69 3e 36 19 a2 bc 4d 21 fc ba
       0.0153026655 0.22826661 -0.019787412 -0.0019235999
0002c0 77 38 6d 3e 65 0d 62 be 82 9e 9a be e0 04 c9 3d
       0.23166071 -0.22075422 -0.30199057 0.09815383
0002d0 e9 4b 97 3d d0 ff d0 3e cb ee 3a 3e d7 9f 34 be
       0.073875256 0.4082017 0.18255155 -0.17639099
0002e0 30 61 96 bd 70 d3 ee 3e 59 be 1b 3e 89 88 4b 3f
       -0.07342756 0.4664569 0.1520933 0.7950521
0002f0 45 a3 36 bd ff 38 5f 3e c5 58 04 bd 89 71 11 3f
       -0.0445893 0.21799086 -0.03231122 0.56813866
000300 e2 ad 94 bc 49 dd 6a 3e 44 99 a2 3d 37 ea 0b 3e
       -0.01814932 0.22935976 0.07939389 0.13663565
000310 e9 8b f4 bd 15 3a 03 3c 12 bc e1 3b c1 28 07 3c
       -0.11940748 0.008009453 0.006888875 0.008249463
000320 05 dd 70 3c 6d cb 27 3e c4 b2 92 be ac 9b b7 be
       0.014701133 0.16386195 -0.28652012 -0.35860956
000330 6f 75 01 be f8 9c a1 3e a3 b9 27 3e 47 0a 77 be
       -0.12642454 0.3156507 0.16379409 -0.24125014
000340 bb 55 ef be 94 bf 48 bc 55 ed 34 3e 3f dc fc bd
       -0.46745095 -0.012252707 0.1766866 -0.12346696
000350 55 c5 7a bd 5b ed e4 3d 34 a3 e3 bd 26 81 09 bd
       -0.061223347 0.111780845 -0.11115113 -0.03357043
000360 77 b0 e7 bd 9f b9 03 3d 34 bc 91 bc 38 83 39 3f
       -0.11312955 0.032159444 -0.017789938 0.7246585
000370 28 98 3e 3e 76 81 79 3e 7e c3 00 bf 9b 7c 9b be
       0.1861273 0.24365792 -0.502983 -0.30368504
000380 f2 a0 ce be 4a 2f ee 3d f0 7d d4 3c 41 87 2d bf
       -0.40357167 0.116301134 0.025938958 -0.67784506
000390 54 e6 47 3e 4f 7d 04 3d 43 f1 f6 3e fc 0d b2 bd
       0.19521457 0.032346066 0.48230943 -0.086940736
0003a0 8b 27 58 be 22 01 51 bd 2f 7a 36 3d ef 27 9c 3c
       -0.21108834 -0.05102647 0.044550117 0.01906201
0003b0 6c 65 82 3f 37 3a 59 be 1c 3a a0 be 97 c2 8a be
       1.0187201 -0.21213613 -0.31294334 -0.27101585
0003c0 2d a1 1b 3e 09 05 3c 3f 21 fd d5 be a8 40 82 bd
       0.15198202 0.73445183 -0.41794685 -0.063599885
0003d0 1a 42 12 3d a9 ab f2 bb df 51 23 be 49 72 4f 3a
       0.03570757 -0.0074057174 -0.159492 0.0007913453
0003e0 d7 f0 43 be 14 16 d3 be 2a cd 7a bd bf a6 b7 3d
       -0.19134842 -0.41227782 -0.061230816 0.08967351
0003f0 d7 eb 31 3e 1a 5d 45 3d 18 4c 57 ba a5 3c fc 3c
       0.17375122 0.04818449 -0.0008212938 0.030790636

linear3.bias f4 [64]
000000 57 34 b1 3e e5 f2 5d 3f 37 4f 6e 3e 32 22 be 3e
       0.34610245 0.8669875 0.23272406 0.37135464
000010 ab d9 81 3f 01 e4 ab 3e b4 36 ab bd bd 1c 02 bd
       1.0144552 0.3357239 -0.08360043 -0.03176569
000020 33 dd 01 bd 7f 5f 4e 3f a3 26 49 3f 08 4f 41 bd
       -0.031705093 0.80614465 0.7857458 -0.04719451
000030 8d 36 1b 3e 9c 68 c5 be 9e e2 be 3e 1b 4a 30 3f
       0.15157528 -0.38556373 0.3728227 0.68863076
000040 a9 e6 c1 bd cc de 75 3f 81 33 1b 3e 07 de 7e 3f
       -0.09467823 0.96043086 0.15156366 0.99557537
000050 06 41 87 bd b3 79 b0 3e 28 c8 c3 3d f0 d4 ea bd
       -0.06604199 0.3446785 0.09559661 -0.11466396
000060 8f 43 76 3f e9 13 03 3e 5c 9c 7f 3f fa 12 47 3f
       0.96196836 0.12800564 0.9984796 0.7776333
000070 64 9a 0b be fb e1 84 3f 31 c0 c7 bd 86 51 fa 3e
       -0.13633114 1.0381464 -0.097534545 0.48890322
000080 61 76 c8 bd e4 4f 54 be 03 9e d0 3c 08 14 2b bd
       -0.09788204 -0.20733601 0.02546597 -0.04176715
000090 81 de a3 bc f0 e0 42 3f 24 2f 7d 3f 5d 2b 44 3f
       -0.020003559 0.7612448 0.98900056 0.7662867
0000a0 33 ab 61 3f 5e 16 c6 bd 3b 72 40 3f 46 8d 5c 3f
       0.88151854 -0.09672235 0.751743 0.86153066
0000b0 d5 a8 41 3f 8e 10 06 bd ad 7e 71 3f e7 b1 94 bd
       0.7564824 -0.03273063 0.94333917 -0.07260495
0000c0 86 6d 57 bd 5d 24 80 3f b3 3d 47 3f fa 91 96 bd
       -0.052594684 1.0011097 0.7782852 -0.073520616
0000d0 1e c3 2e 3f 43 f9 9a 3e 43 02 4f 3f 1a 45 34 3f
       0.68266475 0.30268297 0.80862826 0.7041794
0000e0 4f 83 ea 3d 29 c2 34 3f 31 36 e8 bc 93 5d 3a bd
       0.114508264 0.70608765 -0.028346153 -0.045499396
0000f0 98 89 45 3d 3e b0 58 bd 27 5f db bd ce 74 6c bd
       0.048226923 -0.052902453 -0.10711508 -0.05772858

linear4.weight f4 [2, 64]
000000 a9 bd b2 bf 4c c2 3c 3e de 40 29 3f a9 08 cd 3f
       -1.396413 0.18433493 0.66114604 1.6018268
000010 c3 25 9d 3e 4b 5c 0d 40 3e 3d 0b c0 fc ee ef 3e
       0.30692872 2.208758 -2.175613 0.46862018
000020 6d 1e 42 3e 93 29 01 be 08 9c fb 3d aa b7 1c 3e
       0.18956919 -0.12613516 0.1228562 0.15304437
000030 45 07 96 bf aa 87 c9 bf 59 6e ea 3e 6c 25 c8 3d
       -1.1720968 -1.5744526 0.45787314 0.09772763
000040 72 fa 9f be a8 6c 6b 3e 90 db 38 c0 c9 8b 70 3e
       -0.31245762 0.22990668 -2.888401 0.23490824
000050 f9 af ad 3d e6 c5 f9 3f 00 0d d8 3d ea fd 9e 3d
       0.0848083 1.9513519 0.105493546 0.07763274
000060 9b 67 62 3e 1b 98 04 3f 84 23 9a 3e c8 e0 c3 3d
       0.22109835 0.51794595 0.3010522 0.09564358
000070 fd e2 f3 bd 5c 5c 8d 3e 52 c5 a6 be 90 a5 55 3f
       -0.11908529 0.27609527 -0.32572418 0.83455753
000080 94 18 69 3f 58 1a 9e bd 38 23 bc be b8 6d ed 3b
       0.9105313 -0.077198684 -0.3674562 0.0072457455
000090 b9 58 91 3e b7 91 b0 3e 99 a7 c0 3e d4 9b b5 3e
       0.28388003 0.34486172 0.37627867 0.3547045
0000a0 ad d0 bf 3e b1 db 11 be 90 59 06 3e c2 9b 4e 3e
       0.37463894 -0.14243962 0.13120103 0.20176604
0000b0 bf 4c 8a bd 93 9f c6 bd d6 80 9d 3e ce 9c 82 be
       -0.067529194 -0.09698405 0.30762357 -0.25510257
0000c0 3e 6e 5d be f2 77 9e 3e 24 10 67 3d 93 44 4d be
       -0.21624085 0.30950886 0.056411877 -0.2004569
0000d0 de 62 dd 3c 55 48 bb 3f 14 93 2d 3e f3 98 c5 3e
       0.027024683 1.4631449 0.16950637 0.38593253
0000e0 30 ca 09 3e e3 d3 6e 3e 7b 97 85 3e 48 fb b6 bd
       0.13456035 0.23323016 0.26092133 -0.08934647
0000f0 4a d0 85 be 2a ca ff bd 0f de 1b be 81 fd 84 be
       -0.26135474 -0.124897316 -0.15221427 -0.25974658
000100 f7 f4 7c 40 75 d7 dc 3d a7 3f 44 3e 9a fa 74 3d
       3.9524515 0.10783283 0.19164906 0.059809305
000110 fe f4 ef 3e e6 67 3f bf 50 67 78 3e 7f f2 a7 3d
       0.46866602 -0.7476791 0.2425816 0.08200549
000120 8a c8 ab bd e3 e3 d9 3e 69 3c 5d 3d 2c d8 50 be
       -0.08387859 0.42556676 0.05401269 -0.20394963
000130 50 95 93 3f a8 99 fd be d5 9e 7e bd 36 00 48 3e
       1.1529942 -0.49531293 -0.062163193 0.1953133
000140 62 90 0a bd 1f d3 2e 3e b7 f5 7e 3f 92 ce 8e 3e
       -0.0338291 0.17072724 0.9959368 0.27891976
000150 92 1e 63 be 5b 85 eb be a7 fd 24 c0 d2 2a 16 be
       -0.2217963 -0.4600018 -2.5779817 -0.14664772
000160 53 38 2a 3e 49 cd 6e be a1 0b ab 3e d6 f3 ae 3e
       0.16623048 -0.23320498 0.3340731 0.34170407
000170 28 48 17 3d 30 d3 cf 3e 0b 28 19 3f 55 07 03 3e
       0.036934048 0.4059081 0.59826726 0.12795766
000180 fa 59 51 bf ce d9 54 3c 8e 96 51 3f 32 48 f0 bc
       -0.8177792 0.012991382 0.81870353 -0.0293313
000190 cf 04 35 be de 34 49 3d 1e 49 6e 3e 19 ba 06 3e
       -0.17677616 0.049122684 0.2327008 0.13156928
0001a0 9f c6 f1 3e 9e 88 cb 3c 71 35 db 3b 30 2b eb 3d
       0.47221848 0.024845418 0.0066897203 0.11482847
0001b0 8a 54 90 3e be e5 23 3c e3 6b 38 3e 08 58 05 3e
       0.28189498 0.010003505 0.18009906 0.13021863
0001c0 5f 68 b1 3c 9f 05 63 3e c2 f6 ec 3e fe 75 74 bd
       0.021656213 0.22170113 0.4628201 -0.05968284
0001d0 63 df db 3c 4b 88 04 c0 bb 97 9f 3d 9d 99 a1 3d
       0.026839918 -2.0708187 0.07792612 0.078906275
0001e0 d3 5f be 3e 68 f1 28 3c 25 1e 07 be f5 a1 4b bd
       0.37182483 0.010311462 -0.13195093 -0.049715
0001f0 46 0e d6 3e 6e 4b 4a be 73 86 a7 bd e6 e6 11 3b
       0.41807765 -0.19755337 -0.08179941 0.002226287

linear4.bias f4 [2]
000000 69 fd 6d 3f d4 5f 70 3f
       0.929648 0.9389622
