Result/DoubleDQN/CartPole-v1/Model.pth (torch, 173032 bytes, 8 tensors)

linear1.weight f4 [256, 4]
0	0x3e0f5da8	0.14000571
1	0x3daaa4e5	0.083322324
2	0xc00aa28d	-2.1661713
3	0xbf0b248b	-0.54352635
4	0x3d001d46	0.031277917
5	0xbd7da3cf	-0.0619238
6	0x40218462	2.523705
7	0xbbeb15c1	-0.007174224
8	0x3f0e1c10	0.5551157
9	0xbc6f3c53	-0.014601785
10	0xbec156b3	-0.3776146
11	0xbec8c9b3	-0.39216384
12	0x3ea8873c	0.32915676
13	0x3df3115d	0.11868546
14	0x3f4d4714	0.8018658
15	0x3e91b7ac	0.28460443
16	0x3e682fb9	0.22674455
17	0xbe1fe562	-0.15614846
18	0xbff18816	-1.8869655
19	0xbec1e04f	-0.37866446
20	0x3ef2e82c	0.47442758
21	0xbe257b6e	-0.16160366
22	0x3f0fa48e	0.56110466
23	0xbf459f0c	-0.7719581
24	0xbe933ff4	-0.2875973
25	0xbf3ca362	-0.736868
26	0xbfd03d2f	-1.6268672
27	0x3d71b43e	0.059009783
28	0x3ee1e1c5	0.4411756
29	0xbf5782c0	-0.84183884
30	0xbf75866c	-0.95908237
31	0xbf2e4fd3	-0.6809055
32	0xbec81a86	-0.39082736
33	0xbdfee74f	-0.12446462
34	0x401a9fa3	2.4159935
35	0x3f16e420	0.5894184
36	0x3df6ea53	0.120564125
37	0x3f3eefa8	0.74584436
38	0x3fab47d7	1.3381299
39	0x3f3cdc0a	0.7377325
40	0xbf083c1a	-0.5321671
41	0xbd2dbccb	-0.042416375
42	0x3f3eccc8	0.7453122
43	0x3e1d4b24	0.15360695
44	0xbf479c92	-0.7797328
45	0x3f71753f	0.9431953
46	0xbbf90a2c	-0.0076000895
47	0xbf851d4f	-1.0399569
48	0xbd898377	-0.06714528
49	0x3f26a988	0.65102434
50	0x3ff6e2ac	1.9287925
51	0x3f190f93	0.5978939
52	0x3d09f0bc	0.033676848
53	0x3edbb53e	0.42911714
54	0x3f444006	0.7666019
55	0xbe13616a	-0.1439263
56	0xbbdd093b	-0.006745485
57	0x3cbaac45	0.022787223
58	0xc06484b9	-3.5706007
59	0xbe23ca14	-0.15995055
60	0xbe6866ee	-0.22695515
61	0xbe09748b	-0.13423364
62	0x3ef8e024	0.48608506
63	0x3f79d98e	0.9759759
64	0xba5f6124	-0.000852125
65	0xbc444b43	-0.011980834
66	0xbde15b87	-0.110037856
67	0xbb67baef	-0.0035359224
68	0xbf779e91	-0.9672633
69	0xbf1baabb	-0.6080739
70	0x3eeee43a	0.46658498
71	0xbebaf085	-0.36511627
72	0xbf80c18b	-1.0059065
73	0xbdb6e92e	-0.08931194
74	0xbf8c88e1	-1.0979272
75	0xbec3ccc1	-0.38242152
76	0x3da520c9	0.08062894
77	0xbee06b64	-0.43831933
78	0x3f5e098d	0.86733323
79	0xbf266bb8	-0.65008116
80	0xbc4439b3	-0.011976647
81	0xbd9469d1	-0.072467454
82	0xc03cc9ec	-2.9498243
83	0xbe437a4a	-0.19089618
84	0xbf52b284	-0.82303643
85	0xbe7cc6b0	-0.24685168
86	0xbea0dbd5	-0.3141772
87	0xbe691f74	-0.22765905
88	0xbeff3ca3	-0.4985095
89	0x3e768478	0.2407397
90	0x40046cbd	2.0691369
91	0x3e61ab88	0.2203809
92	0xbe8f6d48	-0.28013062
93	0xbdab1b09	-0.08354766
94	0x3fd648f3	1.6741012
95	0xbe858b30	-0.26082754
96	0xbd906bbd	-0.070517994
97	0x3e0d2768	0.13784564
98	0x4014362c	2.3158064
99	0x3ef08fcd	0.4698471
100	0x3e06e07a	0.13171569
101	0x3c1b709f	0.0094873
102	0x4004d92b	2.075755
103	0x3e51d8f0	0.20492911
104	0xbf18c483	-0.59674853
105	0xbe98690c	-0.29767644
106	0xbf79b741	-0.9754525
107	0xbe17da57	-0.14829384
108	0xbe248b71	-0.16068818
109	0x3d553058	0.052048057
110	0x3f78a47a	0.9712597
111	0x3de069f7	0.10957711
112	0x3ed62748	0.41826844
113	0x3ff0435b	1.8770555
114	0x3db2a0b1	0.08722056
115	0x3f99ca7b	1.2014917
116	0xbe17d41c	-0.14827007
117	0x3eb3685a	0.3504055
118	0x3eb9edfa	0.36314374
119	0x3d90e742	0.07075359
120	0xbf99ad92	-1.2006094
121	0x3eb53ebc	0.35399425
122	0x3fbbbbee	1.4666727
123	0x3edbf595	0.42960802
124	0x3e5ceef4	0.21575528
125	0xbcc9e5cc	-0.024645709
126	0x3f80f397	1.0074338
127	0xbdb20006	-0.08691411
128	0xbe9e00d9	-0.30860022
129	0x3f8bd8d6	1.0925548
130	0xbf63bfb3	-0.88964385
131	0x3f2b87d4	0.6700413
132	0xbe4d78a9	-0.2006556
133	0xbf4985bb	-0.7871968
134	0x3f617344	0.88066506
135	0xbe5c2813	-0.21499662
136	0x3f626ff2	0.88452065
137	0xbef31616	-0.47477788
138	0xbf5c0bd9	-0.8595558
139	0xbed925b6	-0.42411584
140	0x3ec0ee31	0.37681726
141	0xbd06f759	-0.032950733
142	0xbf90522d	-1.1275078
143	0xbe428dbd	-0.18999381
144	0x3ec6a6bb	0.3879908
145	0x3e8ad134	0.27112734
146	0x3f471dfe	0.7778014
147	0x3e7b66b5	0.24550898
148	0x3f1631e6	0.5866989
149	0xbe9fd75e	-0.31219
150	0x3e07cd8d	0.13262005
151	0xbe2226ec	-0.1583516
152	0x3e68410a	0.2268106
153	0xbf7b4d1b	-0.9816453
154	0x3fe541c0	1.791069
155	0xbc69c3ed	-0.014267904
156	0xbec45729	-0.38347748
157	0xbe28a964	-0.16470867
158	0x3ecf178f	0.4044766
159	0xbf007191	-0.5017329
160	0xbeac92e7	-0.33705828
161	0x3f963305	1.173432
162	0x3ee7e8ee	0.452949
163	0x3f61ca72	0.8819953
164	0x3f26ea52	0.65201294
165	0x3eb5af3e	0.35485262
166	0x3fe2e6b1	1.7726651
167	0x3ef4b806	0.4779665
168	0xbf7cbcfc	-0.9872587
169	0xbe805ea0	-0.25072193
170	0xbf523205	-0.82107574
171	0xbe299a21	-0.16562702
172	0x3e69d617	0.22835575
173	0x3f3469b4	0.7047379
174	0x3fec133d	1.8443371
175	0x3f5350f4	0.825454
176	0xbf3c7359	-0.73613507
177	0xbf2cd7ab	-0.67516583
178	0xbfa6d432	-1.3033507
179	0xbeea0e9e	-0.45714277
180	0xbf4866e2	-0.78281987
181	0x3e5907c8	0.21194375
182	0x3fd6fd61	1.6796075
183	0x3e270f83	0.16314511
184	0xbfa6c98c	-1.3030257
185	0x3f8ca78f	1.0988635
186	0xc0315767	-2.7709596
187	0x3e8c4ec4	0.27403843
188	0xbe2af528	-0.16695082
189	0xbee7f4f7	-0.4530408
190	0x40189564	2.384118
191	0x3e38f2e4	0.18061405
192	0xbf4ee0e9	-0.80811936
193	0x3f31d743	0.6946909
194	0x3fa08fff	1.2543944
195	0x3f26fac1	0.6522637
196	0x3d499c1d	0.049221147
197	0x3f148319	0.5801254
198	0xc001de72	-2.029202
199	0x3f807037	1.0034245
200	0x3f04f0cf	0.51929945
201	0xbd32192f	-0.04348105
202	0xbff3ae38	-1.9037542
203	0x3dd3f6c7	0.103498034
204	0xbf1008aa	-0.5626322
205	0xbdcc5c62	-0.09978558
206	0x3fd7ca3f	1.6858596
207	0x3d88909e	0.066682085
208	0xbf840c56	-1.0316265
209	0x3f18bd78	0.59664106
210	0x3e793bd5	0.2433923
211	0x3e555a51	0.20835234
212	0xbee12afa	-0.439781
213	0x3e4c67dd	0.19961496
214	0x3fae38d1	1.3611089
215	0x3eade0ab	0.3396047
216	0x3f1ab1c6	0.6042751
217	0xbe222d26	-0.15837535
218	0x401a915c	2.415122
219	0x3eb556bb	0.35417733
220	0xbf294a86	-0.6612934
221	0xbe8b3c34	-0.2719437
222	0x3f4506ea	0.76963675
223	0xbeb40606	-0.35160846
224	0x3e926119	0.28589705
225	0x3e4afca1	0.19822933
226	0xbf63cc3d	-0.8898352
227	0x3e3139a2	0.17307141
228	0xbf09e205	-0.53860503
229	0xbe3ded4d	-0.18547554
230	0x3f8101b0	1.007864
231	0xbee88202	-0.45411688
232	0xbf5de0b3	-0.8667099
233	0x3d26a53a	0.040684916
234	0xbed4651d	-0.41483393
235	0xbd5198ff	-0.0511713
236	0xbed72654	-0.4202143
237	0x3eae1110	0.33997393
238	0x3f29b409	0.66290337
239	0x3ea45de0	0.3210287
240	0xbeb3206f	-0.34985682
241	0x3eb95ff0	0.36206007
242	0xbf69fd71	-0.91402346
243	0x3e34c9df	0.17655133
244	0x3e1ad4cb	0.15120237
245	0xbf13983f	-0.57654184
246	0x3ff42724	1.9074445
247	0xbe6c3b7c	-0.23069566
248	0x3f41c1e1	0.7568646
249	0xbd9e9baa	-0.07744534
250	0xc002f07b	-2.0459278
251	0xbe515a6c	-0.2044465
252	0xbed5b4e8	-0.41739583
253	0x3e160ccf	0.14653324
254	0x3fa48824	1.2854047
255	0xbebd2b64	-0.36947167

linear1.bias f4 [256]
0	0xbf4632c7	-0.7742123
1	0x3f190226	0.59768903
2	0xbf892b76	-1.0716388
3	0xbf098af5	-0.53727657
4	0x3f29604f	0.6616258
5	0xbf642c63	-0.8913023
6	0xbdb819c2	-0.08989288
7	0xbf573b4f	-0.8407487
8	0xbf036e5f	-0.5134029
9	0xbf52cbd8	-0.8234229
10	0xbf9f422b	-1.2442068
11	0xbeecdcf5	-0.46262327
12	0xbede4dc5	-0.43418708
13	0xbf5545f3	-0.8330986
14	0xbf02c62b	-0.5108363
15	0xbf7ec04b	-0.99512166
16	0xbd93128f	-0.07181274
17	0x3d81f039	0.06344647
18	0xbeaf83aa	-0.3428014
19	0xbe424836	-0.18972859
20	0xbf01961b	-0.5061967
21	0xbf714fdf	-0.942625
22	0x3d945257	0.072422676
23	0xbeabd2e7	-0.33559343
24	0xbee2bc69	-0.4428437
25	0xbec94315	-0.39308992
26	0xbf4fd5cb	-0.811856
27	0x3f32b829	0.69812256
28	0xbf394f68	-0.7238679
29	0x3ed87a3f	0.42280766
30	0xbf28d392	-0.6594783
31	0xbf3162d1	-0.69291407
32	0x3e56bd8e	0.20970747
33	0xbf23365b	-0.63754815
34	0x3f049dc7	0.5180325
35	0xbf1f65fa	-0.6226498
36	0xbf7fff6d	-0.99999124
37	0xbf12a093	-0.57276267
38	0xbf5d3305	-0.86405975
39	0x3d1a5e07	0.037687328
40	0xbf223742	-0.63365567
41	0xbf025aa9	-0.50919586
42	0xbf91e603	-1.1398319
43	0xbf2b1856	-0.6683401
44	0xbdf9d69f	-0.12199139
45	0xbed9356f	-0.4242358
46	0xbf1626c8	-0.58652925
47	0xbe89e4cf	-0.2693238
48	0xbec7f271	-0.39052156
49	0xbf4ce93b	-0.8004338
50	0x3eeafa95	0.45894304
51	0xbead96b7	-0.3390405
52	0xbf35ecc7	-0.7106442
53	0xbf388d82	-0.72090924
54	0xbed4b781	-0.41546252
55	0xbda8b2b1	-0.08237208
56	0xbf414ad4	-0.75504804
57	0xbed75cba	-0.42062932
58	0x3f01d76e	0.50719345
59	0x3f371bfb	0.7152707
60	0x3ddefa95	0.108876385
61	0xbec16bd2	-0.37777573
62	0xbf407bab	-0.751887
63	0xbe2c093b	-0.16800396
64	0xbf77090d	-0.96498185
65	0xbf3c1405	-0.7346805
66	0xbf93055e	-1.1486013
67	0xbf1e6ee6	-0.6188797
68	0x3ec2363e	0.37932009
69	0x3e69f71b	0.2284817
70	0xbe8fe9fc	-0.28108203
71	0xbf4abe9a	-0.79197085
72	0xbf51a4ef	-0.81892294
73	0xbf1fc330	-0.6240721
74	0x3dd06eb9	0.10177369
75	0xbee1e2b5	-0.44118276
76	0x3eb79f7c	0.35863864
77	0xbed3b535	-0.41349187
78	0xbe089a97	-0.13340221
79	0xbe0bad4d	-0.13640328
80	0x3f03089a	0.51185
81	0x3eaee621	0.3415995
82	0x3efedd20	0.4977808
83	0x3ecabbfa	0.3959654
84	0x3ec163f5	0.37771574
85	0xbe46e088	-0.1942159
86	0xbf349a5f	-0.7054805
87	0xbe0fa7e4	-0.14028889
88	0xbf166a5f	-0.5875606
89	0xbf0a311f	-0.539812
90	0xbe146ff2	-0.14495829
91	0x3d5f5c9a	0.05453167
92	0xbebcfe09	-0.36912563
93	0xbebd7708	-0.37004876
94	0x3f6db122	0.9284841
95	0xbed52e34	-0.41636813
96	0xbdd9f9df	-0.10643362
97	0xbef01076	-0.4688756
98	0xbe97b7fc	-0.29632556
99	0xbf064c53	-0.5246021
100	0xbdc262e2	-0.09491517
101	0x3f179212	0.5920726
102	0xbf08b3f0	-0.5339956
103	0x3d9a5bae	0.07537018
104	0xbf00b188	-0.5027089
105	0xbbdf96fd	-0.006823419
106	0xbee4d5ab	-0.44694266
107	0xbe78ba59	-0.24289836
108	0x3f1d5178	0.61452436
109	0xbcdf4504	-0.027254589
110	0xbf2f5504	-0.684891
111	0xbf7bcfe7	-0.9836411
112	0xbeae8cdd	-0.34091845
113	0xbf44a98a	-0.76821196
114	0xbf315341	-0.6926766
115	0xbf515802	-0.81774914
116	0x3ce38fd5	0.027778545
117	0x3e1af03f	0.15130709
118	0xbf1bf058	-0.6091361
119	0xbe81428d	-0.25246087
120	0x3e7045e6	0.23464164
121	0xbf676312	-0.90385544
122	0xbf3e90ae	-0.74439514
123	0xbc9cfc9d	-0.019163424
124	0xbf0865f0	-0.53280544
125	0xbf185b1d	-0.5951403
126	0xbf28b577	-0.65901893
127	0xbe9db53b	-0.3080233
128	0xbef19e5b	-0.47191128
129	0xbecfd2e4	-0.40590584
130	0x3eaca79e	0.33721632
131	0x3d965f88	0.0734244
132	0xbf6a7be2	-0.9159528
133	0xbee73660	-0.45158672
134	0xbd72e91e	-0.05930435
135	0x3f2de3df	0.6792583
136	0xbea1d3df	-0.31606957
137	0xbf42e9e9	-0.7613817
138	0xbf406129	-0.75148255
139	0xbf383f92	-0.71972
140	0x3e15e46b	0.14637916
141	0x3ee63163	0.44959554
142	0xbf7dea60	-0.9918575
143	0xbf3bc7ce	-0.7335175
144	0xbf42403e	-0.75879276
145	0xbd7af651	-0.061270062
146	0x3f132e89	0.5749288
147	0xbf1b93ef	-0.60772604
148	0xbf3ea2b9	-0.74467045
149	0xbec6aae2	-0.38802248
150	0xbf0f1b50	-0.5590105
151	0xbf2076db	-0.6268136
152	0xbf5f8240	-0.8730812
153	0x3d3c3887	0.045952346
154	0xbe824927	-0.25446436
155	0x3e99817f	0.2998161
156	0xbf1f446b	-0.6221377
157	0xbf5427f2	-0.8287345
158	0xbf113fcf	-0.5673799
159	0x3f00e1fb	0.5034482
160	0x3e66692d	0.22501059
161	0xbf7c695a	-0.98598254
162	0xbeef6dc9	-0.46763447
163	0xbf07ffef	-0.531249
164	0xbf31918f	-0.6936273
165	0x3ce97342	0.028497342
166	0xbed32bf8	-0.41244483
167	0xbdfec1fa	-0.12439342
168	0xbd23f994	-0.040032938
169	0xbedd02f0	-0.43166304
170	0xbcca0f8e	-0.02466562
171	0xbeed8fa9	-0.46398667
172	0x3efeeb0b	0.497887
173	0xbe15d2dd	-0.14631219
174	0xbf04982e	-0.5179471
175	0xbe706e03	-0.23479466
176	0xbf3578cd	-0.7088745
177	0x3e8e110a	0.27747375
178	0xbe7c07dc	-0.24612373
179	0xbf4cc37d	-0.7998579
180	0x3e1ba3fb	0.15199272
181	0xbd18f058	-0.037338585
182	0x3e874253	0.2641779
183	0xbf2ad19d	-0.66726094
184	0xbc59134a	-0.013249228
185	0xbc8632df	-0.01638168
186	0x3ea7c9a7	0.32771036
187	0x3f2ec78e	0.68273246
188	0xbed154ea	-0.40885097
189	0x3dae5cd1	0.08513797
190	0xbee82157	-0.45337936
191	0x3d736968	0.059426695
192	0xbecfaf5c	-0.40563476
193	0xbc471607	-0.012151248
194	0xbdbdda35	-0.09270135
195	0xbf4789e2	-0.7794477
196	0xbe914959	-0.28376272
197	0xbeaa76b1	-0.3329368
198	0xbf372247	-0.7153668
199	0xbf078524	-0.5293753
200	0xbf0bde5b	-0.5463616
201	0xbf65c3c1	-0.8975182
202	0x3c4e51d4	0.0125927515
203	0x3eea5aab	0.457723
204	0xbec02b4a	-0.37533027
205	0xbf349383	-0.70537585
206	0x3f315cfc	0.6928251
207	0xbf0b4494	-0.54401517
208	0xbf2cf068	-0.6755433
209	0xbf48eef9	-0.78489643
210	0xbf66571c	-0.8997667
211	0xbde521d9	-0.111880966
212	0xbf88848a	-1.0665448
213	0x3f19a2d6	0.6001409
214	0xbf1243ac	-0.5713451
215	0xbf794d39	-0.9738346
216	0xbf610d0f	-0.8791055
217	0xbece216f	-0.40259883
218	0xbee1a901	-0.44074252
219	0xbf26d1f3	-0.6516411
220	0xbee36606	-0.44413775
221	0x3da2a68a	0.07941921
222	0x3f36f388	0.7146535
223	0x3e87ff81	0.26562122
224	0x3ec12288	0.37721658
225	0xbe4c59ec	-0.19956177
226	0xbe7162f4	-0.23572904
227	0xbeaf7b99	-0.34273985
228	0xbeefd6f9	-0.468437
229	0xbe0dea7d	-0.13858981
230	0xbeb7ccd6	-0.35898465
231	0xbf2cde42	-0.6752664
232	0x3f026f3c	0.5095098
233	0xbeab02b2	-0.33400494
234	0xbea458af	-0.3209891
235	0x3e8d2e8f	0.27574584
236	0xbe39be62	-0.18139032
237	0xbcf11e2f	-0.029433338
238	0xbf0d8eba	-0.5529591
239	0xbeda7726	-0.42669028
240	0x3e10c236	0.14136586
241	0xbf147089	-0.57984215
242	0xbf0dc5a4	-0.553797
243	0xbf2792a3	-0.65458125
244	0xbecb87e0	-0.39752102
245	0xbebe4c6c	-0.3716768
246	0xbf2e18cd	-0.68006593
247	0xbf631050	-0.88696766
248	0xbf371af8	-0.71525526
249	0xbcb29348	-0.021798745
250	0xbee798cc	-0.45233762
251	0xbda6214d	-0.0811182
252	0xbf27ffa8	-0.65624475
253	0xbf03c5b7	-0.51473564
254	0xbf217afa	-0.6307827
255	0xbf648b32	-0.89274895

linear2.weight f4 [128, 256]
0	0xbec80e02	-0.39073187
1	0xbca08dc6	-0.019598853
2	0xbc9d08e1	-0.019169273
3	0xbea33fa2	-0.31884485
4	0xbd8900bb	-0.066895925
5	0xbda14151	-0.07873786
6	0x3e0bbe54	0.13646823
7	0xbeed2006	-0.46313494
8	0x3d953817	0.07286089
9	0xbe2df10f	-0.16986488
10	0xbea98054	-0.3310572
11	0xbeaebdba	-0.34129125
12	0xbf75a9cd	-0.9596222
13	0xbdf033d8	-0.117286384
14	0x3eef0755	0.4668528
15	0x3e9db657	0.30803177
16	0xbd253bf2	-0.04034037
17	0xbdafc316	-0.085821316
18	0xbc8bdd60	-0.017073333
19	0xbed62865	-0.41827694
20	0x3bd5401b	0.006507886
21	0xbc85df0d	-0.01634171
22	0xbe3f1159	-0.18658961
23	0xbe9c8c4d	-0.3057579
24	0x3bfed347	0.007776651
25	0xbf977839	-1.1833564
26	0x3df8c6aa	0.12147267
27	0x3c5dc4d8	0.013535701
28	0xbdd55219	-0.104160495
29	0xbe69a1ff	-0.22815703
30	0xbfae22d8	-1.3604383
31	0xbf2fc5ac	-0.68661
32	0x3e30c6b0	0.17263293
33	0x3ecfe5fe	0.40605158
34	0xbe6f6582	-0.23378566
35	0xbf69086b	-0.9102847
36	0xbf131475	-0.5745309
37	0xbf11b0e1	-0.5691052
38	0x3e855e20	0.26048374
39	0xbe97d257	-0.29652664
40	0xbf1da477	-0.6157908
41	0x3d3826ad	0.04495876
42	0x3d0c7681	0.0342927
43	0xbe84d627	-0.25944635
44	0xbf6c8694	-0.9239285
45	0xbe751f1a	-0.23937646
46	0xbe7fd5ef	-0.24983953
47	0xbeda75d9	-0.42668036
48	0xbf9ff455	-1.2496439
49	0x3ef44cd4	0.47714865
50	0x3d470c3d	0.048595656
51	0xbfba4351	-1.4551793
52	0x3d833a7b	0.06407639
53	0xbf28a190	-0.65871525
54	0xbe0845c0	-0.13307858
55	0x3e11e5c4	0.14247805
56	0xbe2d50ec	-0.169254
57	0x3d7e2bfc	0.062053666
58	0x3ea68334	0.32521975
59	0x3e005368	0.12531817
60	0xbdc17686	-0.09446435
61	0x3c0af906	0.008482223
62	0xbe73f5ab	-0.23824184
63	0xbe246c3c	-0.16056913
64	0xbe5310c1	-0.2061186
65	0xbe3ec95c	-0.186315
66	0xbdfa2590	-0.12214196
67	0xbea03ded	-0.31297246
68	0x3d9d3af1	0.07677258
69	0xbe56df3d	-0.20983596
70	0xbe290ee1	-0.16509582
71	0x3e09d64f	0.13460658
72	0xbf06c222	-0.52639973
73	0xbe13911e	-0.14410827
74	0xbeea7ed2	-0.4579988
75	0xbe9018ea	-0.28144008
76	0xbe31c502	-0.17360309
77	0xbedf0014	-0.43554747
78	0xbe00cb12	-0.12577465
79	0xbea5e376	-0.324001
80	0x3d4018cf	0.04689866
81	0x3d322f00	0.043501854
82	0x3dceb089	0.10092265
83	0xbc9c6881	-0.0190928
84	0xbd84c182	-0.06482221
85	0x3cbec187	0.02328564
86	0xbf28e1bc	-0.65969443
87	0xbf09b988	-0.53798723
88	0xc0406700	-3.0062866
89	0x3f0d5ba8	0.5521798
90	0xbe52e6f1	-0.2059591
91	0xbd956dc5	-0.072963275
92	0xbf2a291e	-0.6646899
93	0xbfe03c7c	-1.7518458
94	0xbe84c2a6	-0.25929755
95	0x3e6da699	0.23208083
96	0xbe835534	-0.25650942
97	0xbc9000e7	-0.017578555
98	0xbd6a069a	-0.057135202
99	0xbded49f9	-0.11586375
100	0xbf5c76cb	-0.86118764
101	0x3c9ff5fb	0.019526472
102	0xbed30f9d	-0.4122285
103	0xbda10063	-0.07861402
104	0x3cc98976	0.02460168
105	0xbed89b1f	-0.42305848
106	0xbcb75072	-0.022377227
107	0x3b2a79ab	0.0026012461
108	0xbf231188	-0.63698626
109	0x3e479e71	0.19494034
110	0xbeebf49c	-0.4608506
111	0xbf255c43	-0.64593905
112	0x3dff5d7b	0.12469002
113	0x3da9f765	0.0829914
114	0xbe0647b4	-0.1311329
115	0xbf011304	-0.5041964
116	0x3c945414	0.018106498
117	0x3e1d2a9b	0.15348284
118	0xbc684a81	-0.014177919
119	0x3e53f478	0.20698726
120	0xbd1318e9	-0.035912428
121	0x3dd3641f	0.10321831
122	0xbf81905c	-1.012218
123	0xbebe5d07	-0.3718035
124	0x3e0ca0ac	0.13733166
125	0xbdcc00ce	-0.09961091
126	0xbea59406	-0.32339495
127	0xbf0b3d54	-0.54390454
128	0xbf632223	-0.88723963
129	0xbee02ed6	-0.43785733
130	0x3dec1cca	0.115289286
131	0xbdffb85d	-0.124863364
132	0xbe576de1	-0.21038009
133	0xbea80f25	-0.32824054
134	0xbf9ccd74	-1.2250199
135	0xbd4e1e46	-0.05032184
136	0xbf4d8d19	-0.8029342
137	0x3e468d54	0.1938985
138	0xbef6c1d5	-0.48194757
139	0x3c22bd80	0.009932876
140	0xc00413c2	-2.063706
141	0xbd42ff4d	-0.047606755
142	0x3d4852da	0.04890714
143	0xbda402d7	-0.08008354
144	0xbee02e74	-0.4378544
145	0x3c3d7238	0.011562876
146	0xbe9478c5	-0.2899839
147	0xbe7abb17	-0.24485432
148	0xbefb4fcd	-0.4908432
149	0x3d8c0c67	0.06838303
150	0xbee16191	-0.4401975
151	0xbf4306d0	-0.7618227
152	0xbebb7ce2	-0.36618716
153	0x3e173b7f	0.1476879
154	0x3d157dab	0.0364968
155	0xbec5680d	-0.38555947
156	0xbf1c58bc	-0.610729
157	0x3d75e106	0.060029052
158	0xbf8f1f44	-1.1181417
159	0xbcb6df51	-0.022323282
160	0xbe1742b3	-0.14771537
161	0xbce6d1d7	-0.028176231
162	0xbe914595	-0.283734
163	0xbe38635c	-0.18006653
164	0xbf4f40d0	-0.8095827
165	0xbe5c607c	-0.21521181
166	0xbf9772d3	-1.1831917
167	0xbef45b59	-0.47725943
168	0x3e8412bf	0.25795552
169	0xc01c243e	-2.439712
170	0xbe1ac5a9	-0.15114464
171	0xbf15bc6a	-0.5849062
172	0xbe30cd9d	-0.17265935
173	0xbdd28f4f	-0.1028124
174	0xbe978e77	-0.2960088
175	0xbf8fabca	-1.1224301
176	0xbe1a4b25	-0.15067728
177	0xbf56dc19	-0.8392959
178	0xbf5c6edc	-0.8610666
179	0xbddd6036	-0.108093664
180	0xbccb0a97	-0.024785323
181	0xbe4cdc98	-0.20006025
182	0x3d1a3327	0.03764644
183	0xbe7fe5b1	-0.24989964
184	0x3ead879c	0.33892524
185	0x3d05f3a5	0.03270306
186	0xbe555b58	-0.20835626
187	0xbe711b9d	-0.2354569
188	0x3ebbf23f	0.36708257
189	0xbf31958a	-0.69368804
190	0xbf9b6ef1	-1.2143232
191	0x3c51962c	0.012792151
192	0xbe53acb2	-0.20671347
193	0xbde760c4	-0.112977535
194	0xbe430570	-0.19045043
195	0xbf2a76f9	-0.6658779
196	0xbe85f066	-0.26159972
197	0xbea76ff2	-0.32702595
198	0xbe2524df	-0.16127346
199	0xbddaf4c3	-0.10691216
200	0xbe8fe1ad	-0.28101864
201	0xbf82f31f	-1.0230445
202	0xbd2ebdc8	-0.04266146
203	0xbe993024	-0.2991954
204	0x3e3d6b6f	0.18498014
205	0xbd77ce53	-0.0604995
206	0xc016515f	-2.3487165
207	0xbc9a7aa4	-0.018857308
208	0xbfa8f618	-1.3200102
209	0x3e38ca14	0.18045837
210	0xbd29c884	-0.041450992
211	0xbf138e6b	-0.5763919
212	0xbe9607ac	-0.29302728
213	0x3e1560d3	0.14587717
214	0xbf46c35a	-0.7764183
215	0xbe18550b	-0.14876191
216	0xbd6dfd43	-0.058102857
217	0x3e1b2921	0.15152408
218	0xbcc907f4	-0.024539925
219	0xbeee1f43	-0.46508226
220	0x3d8d5730	0.06901395
221	0x3b5e2b18	0.0033900198
222	0xbcfaaebc	-0.030600898
223	0xbf0a65b1	-0.5406142
224	0xbd1f7177	-0.038926568
225	0xbde66b1d	-0.11250899
226	0x3eb0c627	0.34526178
227	0xbe2bd1f9	-0.16779317
228	0xbdad8980	-0.08473492
229	0xbe3f2f55	-0.186704
230	0xbed38a62	-0.41316515
231	0xbd53a3c3	-0.051669847
232	0xbdd28137	-0.10278552
233	0xbede3dd3	-0.43406543
234	0x3c975872	0.018474791
235	0xbc3ddc74	-0.011588205
236	0x3ce810c0	0.0283283
237	0x3c8486c3	0.01617754
238	0xbf24d7c1	-0.64391714
239	0xbe1e24ab	-0.15443675
240	0xbf11b8e6	-0.5692276
241	0xbec933f4	-0.3929745
242	0xbecdb53a	-0.40177327
243	0xbecedb8f	-0.40401885
244	0xbdcec302	-0.100957885
245	0xbf2b3df4	-0.6689141
246	0xbf081869	-0.53162247
247	0xbe2bd3ce	-0.16780016
248	0xbd19a55e	-0.037511222
249	0xbd25506a	-0.040359892
250	0xbeb70ad7	-0.35750458
251	0xbd81e988	-0.06343371
252	0xbdb1e6d0	-0.08686602
253	0xbd9dc0f4	-0.077028185
254	0xbe985611	-0.29753163
255	0xbe0b7cc7	-0.13621818

linear2.bias f4 [128]
0	0x3daf8f53	0.08572259
1	0xbd3637bd	-0.04448675
2	0xbe8237c2	-0.25433165
3	0xbc1d33d0	-0.009594873
4	0xbbcec8b8	-0.0063105486
5	0xbd33635b	-0.043795925
6	0xbd5a6e8e	-0.05332809
7	0xbe8f8c69	-0.28036812
8	0xbc03ef76	-0.008052697
9	0x3d715329	0.0589172
10	0xbd0e7178	-0.03477618
11	0xbe33a5af	-0.17543672
12	0xbe6ddb84	-0.2322827
13	0x3f063a30	0.5243254
14	0x3edfcae8	0.43709493
15	0xbecfc2d0	-0.40578318
16	0x3dd710a5	0.105012216
17	0x3e61f3b4	0.22065622
18	0x3d988f74	0.074492365
19	0xbde355f1	-0.111003764
20	0x3d9ce4cc	0.07660827
21	0xbf1a43bf	-0.6025962
22	0x3dd4f949	0.1039911
23	0x3f294b18	0.6613021
24	0xbd91c14f	-0.07116949
25	0xbd6eb9c6	-0.058282636
26	0x3f1a5dae	0.60299194
27	0xbd99031f	-0.074712984
28	0x3e4a366d	0.19747324
29	0xbe4db402	-0.20088199
30	0x3cbd86e0	0.023135602
31	0x3ece43c8	0.40286088
32	0xbee0a898	-0.43878627
33	0xbeb0cd1c	-0.34531486
34	0x3d8ef344	0.06979993
35	0x3ea24ae4	0.31697762
36	0xbd0fea06	-0.03513529
37	0xbcfff687	-0.031245483
38	0xbf5cfc4a	-0.8632246
39	0xbda39a1e	-0.0798838
40	0xbd1ed0e6	-0.03877344
41	0x3e17ea11	0.14835383
42	0xbd89077c	-0.06690881
43	0x3f5ca969	0.86196
44	0xbc887628	-0.016657904
45	0x3d678733	0.05652542
46	0xbed4cbc1	-0.41561702
47	0x3e603fd0	0.21899343
48	0xbd5c1a14	-0.053735808
49	0xbc9b4f9d	-0.018958861
50	0xbefad1cd	-0.4898819
51	0xbed29561	-0.41129592
52	0x3dbfc298	0.09363288
53	0xbd5786fe	-0.052618973
54	0xbd66683e	-0.056251757
55	0xbd217d01	-0.039425854
56	0xbd2fc984	-0.04291679
57	0xbca4dbf7	-0.020124419
58	0xbdf4eb27	-0.11958914
59	0xbeb3811e	-0.35059446
60	0xbcc204a1	-0.023683848
61	0xbdf1b6fe	-0.11802481
62	0x3e8297e3	0.25506505
63	0xbcf575f3	-0.02996347
64	0xbd703a40	-0.0586493
65	0xbdb52812	-0.088455334
66	0xbeddd30b	-0.43325076
67	0xbebca750	-0.368464
68	0xbdb344b6	-0.0875334
69	0xbd9025f1	-0.07038487
70	0x3f0cc987	0.54995006
71	0x3d957587	0.07297807
72	0xbeb9a475	-0.36258283
73	0x3df89b41	0.12138987
74	0x3f73fbea	0.95306265
75	0x3f517f9c	0.8183534
76	0x3ed50bf7	0.4161069
77	0xbeaf1046	-0.34192103
78	0xbc9c9b0d	-0.019116903
79	0xbee316ce	-0.44353336
80	0xbd5ab33f	-0.0533936
81	0xbeaac0ba	-0.33350164
82	0xbd12223b	-0.035677176
83	0x3dc7c2c5	0.09753946
84	0xbeb3ae8b	-0.35094103
85	0x3db95bc5	0.09050707
86	0xbcba4970	-0.022740096
87	0x3e17c62c	0.1482169
88	0x3dbc00e4	0.091798574
89	0xbef00a5c	-0.46882904
90	0xbe6aef81	-0.22942926
91	0xbefa35b8	-0.4886911
92	0x3e9da194	0.30787337
93	0x3e809bcc	0.25118864
94	0x3d9b4550	0.0758158
95	0xbe231bf7	-0.15928636
96	0x3ee15679	0.44011286
97	0x3d0dbd4d	0.03460436
98	0xbd452039	-0.048126433
99	0xbd95dfd6	-0.07318084
100	0xbeaa811c	-0.33301628
101	0xbdde1ddc	-0.10845539
102	0xbc8363d1	-0.016038807
103	0x3d4567cf	0.048194703
104	0x3e94ba76	0.29048508
105	0xbd8da6a5	-0.069165505
106	0xbd0581ee	-0.032594614
107	0xbc675c60	-0.014121145
108	0xbe067e4a	-0.13134113
109	0xbe089b63	-0.13340525
110	0xbc820a7d	-0.015874142
111	0xbe976ac8	-0.29573655
112	0x3e564498	0.20924604
113	0xbd22b0c9	-0.039719377
114	0xbeeafbd0	-0.45895243
115	0xbd0c4955	-0.034249622
116	0x3f39b740	0.7254524
117	0x3e66e68b	0.22548883
118	0xbd528a45	-0.051401395
119	0xbc6e0501	-0.01452756
120	0xbec22be3	-0.37924108
121	0xbcf84277	-0.03030513
122	0xbd20261f	-0.039098855
123	0x3efdb23e	0.4955005
124	0xbd71c7a2	-0.059028275
125	0xbd794d2f	-0.060864624
126	0x3edc2f54	0.43004858
127	0xbc81a9d3	-0.015828049

linear3.weight f4 [64, 128]
0	0xbe4b8cff	-0.19878004
1	0xbe06eb04	-0.13175589
2	0xbd342902	-0.04398442
3	0xbceabc32	-0.028654192
4	0x3c106fb2	0.008815693
5	0xbd9c4d13	-0.07631888
6	0x3d240ac5	0.040049333
7	0xbd4d3208	-0.05009654
8	0x3e6e86bd	0.23293586
9	0x3e5654d1	0.20930792
10	0xbc8ebf0c	-0.017425083
11	0x3dc7cc18	0.09755725
12	0xbece4628	-0.402879
13	0x3ed479b6	0.41499108
14	0xbd7a1712	-0.061057158
15	0x3f0ca292	0.5493556
16	0xbd363c1f	-0.04449093
17	0x3eca34aa	0.39493304
18	0xbc0aae2f	-0.00846438
19	0x3e010622	0.12599996
20	0x3e81a1fa	0.2531889
21	0x3e6ff382	0.23432735
22	0xbdd14798	-0.102187335
23	0xbe04d4de	-0.12971827
24	0xbdc40a32	-0.09572257
25	0x3ca84535	0.020540813
26	0xbe4abdaf	-0.19798921
27	0x3d21aaa0	0.03946936
28	0xbe510a90	-0.20414186
29	0x3da071a9	0.07834179
30	0x3d58b5bc	0.05290769
31	0xbdeed850	-0.11662352
32	0x3e7e349f	0.24824761
33	0x3cf2b820	0.029628813
34	0x3bc21d31	0.00592389
35	0xbef0a315	-0.46999422
36	0x3df81c39	0.12114758
37	0x3ebf2bf4	0.3733822
38	0xbe5cbc98	-0.21556318
39	0xbde480f6	-0.1115741
40	0xbdcd565f	-0.100262396
41	0x3e754e32	0.2395561
42	0xbd1eab6b	-0.038737696
43	0xbe8c2881	-0.27374652
44	0x3e3553d8	0.17707765
45	0xbe329168	-0.1743828
46	0x3dfbc3cc	0.12293205
47	0xbe126ead	-0.14300032
48	0x3e7edc01	0.24888612
49	0x3e8d4734	0.27593386
50	0x3e954d78	0.29160666
51	0x3da665af	0.08124863
52	0xbe6bfa1e	-0.23044631
53	0x3cf2ce13	0.02963928
54	0xbe2bfa08	-0.16794598
55	0xbbf5c121	-0.0074998294
56	0xbd637c34	-0.05553837
57	0xbbf4586c	-0.00745683
58	0xbe51bf84	-0.20483214
59	0x3d82bc72	0.06383599
60	0xbe85c176	-0.2612416
61	0xbd131567	-0.035909083
62	0xbec9ce3a	-0.3941515
63	0x3e1379df	0.14401959
64	0x3df0efde	0.11764501
65	0x3e59694e	0.21231577
66	0xbdfb2174	-0.1226224
67	0xbc9cad71	-0.019125672
68	0x3e0f5658	0.13997781
69	0x3e0997a7	0.13436757
70	0xbeb9b454	-0.36270392
71	0xbea2ab5c	-0.31771362
72	0x3d93b2e9	0.07211859
73	0xbf1aa1a9	-0.60402924
74	0xbf1b4dd7	-0.6066565
75	0x3dcffba4	0.101554185
76	0xbd6c9269	-0.057756815
77	0x3ebb997d	0.3664054
78	0x3da43d9b	0.08019563
79	0x3eadd52f	0.3395171
80	0x3e4711aa	0.19440332
81	0xbe18041b	-0.14845316
82	0xbdb3d18b	-0.087802015
83	0x3dd1b559	0.102396674
84	0x3e473da1	0.19457103
85	0xbe898af4	-0.26863825
86	0xbe6aa411	-0.22914149
87	0x3dedcdf9	0.11611552
88	0xbed67004	-0.41882336
89	0xbdedcfb4	-0.11611882
90	0x3db7620d	0.089542486
91	0xbde1d363	-0.11026647
92	0xbece5e31	-0.40306237
93	0xbf05aae9	-0.52213913
94	0xbdf232dd	-0.11826108
95	0xbeb51179	-0.35364893
96	0xbe8c3feb	-0.27392516
97	0x3e2b4234	0.16724473
98	0x3e385098	0.17999494
99	0x3d170f7c	0.03688
100	0x3e7b97c3	0.24569611
101	0x3e1698fb	0.14706795
102	0xbe0585b7	-0.1303929
103	0x3d921821	0.071335085
104	0xbf082e22	-0.53195393
105	0xbe61fe78	-0.22069728
106	0x3c0a7858	0.008451544
107	0x3d43f84a	0.04784421
108	0xbd00b107	-0.031418826
109	0xbdbd1d8d	-0.09234152
110	0xbe19f10e	-0.15033361
111	0xbde1ccf5	-0.110254206
112	0xbdd38056	-0.103272125
113	0xbd20aba5	-0.039226193
114	0x3d775ff3	0.06039424
115	0x3c25b553	0.010114032
116	0xbd62e54e	-0.055394463
117	0xbeb8c778	-0.36089683
118	0x3c5ae15a	0.013359392
119	0x3d36dc68	0.04464379
120	0x3e59fc87	0.21287738
121	0x3cf2722f	0.029595463
122	0x3e7c311d	0.2462811
123	0x3ec3d4d6	0.38248318
124	0x3d70ea8b	0.058817428
125	0x3d962b52	0.073324814
126	0xbe9f5dc2	-0.3112622
127	0x3cf5705a	0.0299608
128	0xbe811fc1	-0.2521954
129	0x3edd967e	0.4327888
130	0xbeb78065	-0.35840145
131	0x3ce4ace6	0.027914476
132	0xbd2a467b	-0.04157112
133	0xbe862ae4	-0.26204598
134	0x3da1284f	0.078690164
135	0xbf366620	-0.7124958
136	0xbb5321c6	-0.0032216175
137	0x3ddd56d7	0.10807579
138	0xbd1f30ac	-0.038864776
139	0xbea12a78	-0.31477714
140	0xbf80d73b	-1.0065683
141	0x3dc310d2	0.095246926
142	0x3d64262b	0.055700462
143	0xbf531854	-0.82458997
144	0xbb69c5ff	-0.0035670993
145	0x3ce31e50	0.027724415
146	0x3cf96393	0.030442988
147	0x3db3f0c3	0.08786156
148	0x3d557d01	0.052121166
149	0xbfa5e8fd	-1.2961727
150	0xbf8a9c2b	-1.0828909
151	0x3b98fd55	0.0046688714
152	0x3dc4d1be	0.09610318
153	0x3e3b6e01	0.18303682
154	0x3e525c0d	0.20542927
155	0xbdc6f442	-0.09714557
156	0xbd064a0b	-0.032785457
157	0x3e841ed4	0.2580477
158	0x3df5e9cc	0.12007484
159	0x3e93761e	0.28801054
160	0xbebc7fd9	-0.3681629
161	0xbd4b62c6	-0.049654745
162	0xbe7c37e5	-0.24630697
163	0x3cac4e55	0.021033445
164	0xbd19aac3	-0.037516367
165	0xbf0c7b9a	-0.548761
166	0xbfc4d44b	-1.5377287
167	0xbd7fd226	-0.062456273
168	0x3dbe2c79	0.09285826
169	0xbe2195ca	-0.15779796
170	0xbdd8ed2e	-0.105921134
171	0x3dda5602	0.10660936
172	0xbcefec8d	-0.0292876
173	0x3e10923d	0.14118285
174	0xbe80d87d	-0.25165167
175	0x3aa44f25	0.0012535794
176	0x3f04238b	0.51616734
177	0xbe41989d	-0.18905874
178	0xbfed8441	-1.8555986
179	0xbea9a64a	-0.3313468
180	0x3d4bb2cb	0.049731057
181	0xbd3f4668	-0.046698004
182	0x3dce0660	0.1005981
183	0xbe479777	-0.19491373
184	0xbbdcd02c	-0.006738683
185	0x3e7fd246	0.24982557
186	0x3d70a52e	0.058751278
187	0xbf5369b4	-0.82583165
188	0xbdb4a84b	-0.08821162
189	0x3e5663f1	0.20936562
190	0x3d86e53c	0.06586692
191	0x3e6a0aca	0.22855678
192	0xbd4880fe	-0.04895114
193	0x3e4a2f4f	0.1974461
194	0xbdc6825b	-0.09692832
195	0xbd66ac53	-0.056316685
196	0xbe168ba1	-0.14701702
197	0x3c03048f	0.007996692
198	0xbe58c8c8	-0.21170342
199	0x399e30bd	0.0003017242
200	0xbe0639ed	-0.13108034
201	0x3c4de9ff	0.012567996
202	0xbd2d2826	-0.042274617
203	0x3ea0d3db	0.31411633
204	0xbd0b796f	-0.034051355
205	0xbe6a2651	-0.22866179
206	0x3e24c312	0.16090038
207	0xc023339f	-2.5500257
208	0x3dc87391	0.097876675
209	0x3d86fc26	0.06591062
210	0x3de3e19f	0.11127018
211	0xbe83198d	-0.2560543
212	0xbeeb2e6c	-0.45933855
213	0x3d9ea101	0.07745553
214	0xbdf295e5	-0.11844996
215	0xbe2d88fc	-0.16946787
216	0xbd859773	-0.06523027
217	0x3ef126b1	0.47099832
218	0xbe905c4b	-0.28195414
219	0xbcd100cf	-0.02551308
220	0xbcfa3e7c	-0.030547373
221	0xbe6288cf	-0.22122501
222	0xbe9a7cce	-0.30173343
223	0x3da13164	0.07870749
224	0xbe4c669d	-0.19961019
225	0x3e78a54f	0.2428181
226	0x3d98c68e	0.07459746
227	0xbdf95d62	-0.121760145
228	0x3d4b19f5	0.0495853
229	0xbd1d9b5b	-0.038478237
230	0x3eb2cb3d	0.34920684
231	0xbd9e35a0	-0.07725072
232	0xbe53cf66	-0.20684585
233	0xbeb035ae	-0.34415954
234	0x3d1df07e	0.03855943
235	0xbccc2d35	-0.0249239
236	0x3dee9a92	0.11650576
237	0xbdfd1ae8	-0.123586476
238	0xbcc495f0	-0.023997277
239	0xbf90b818	-1.1306181
240	0xbeb58c20	-0.3545847
241	0xbe72ad21	-0.23698856
242	0xbeaf620c	-0.3425449
243	0xbdd8d806	-0.10588078
244	0x3e7035f5	0.23458083
245	0x3cb81e36	0.022475343
246	0xbe0ce3fb	-0.13758843
247	0x3cf2c47e	0.02963471
248	0xbe7af42d	-0.24507208
249	0xbe63c966	-0.22244796
250	0xbd530589	-0.05151895
251	0x3dfadb9b	0.12248918
252	0x3e0452c2	0.12922195
253	0x3d3c3f0f	0.045958575
254	0x3db88e54	0.09011522
255	0x3c5f8622	0.01364282

linear3.bias f4 [64]
0	0xbdb5742d	-0.088600494
1	0x3f8722bf	1.0557479
2	0xbe8231f6	-0.25428742
3	0xbc6c6ea6	-0.0144306775
4	0x3f9e05a6	1.2345474
5	0xbf0623a2	-0.5239812
6	0x3ed6b58f	0.41935393
7	0x3f76b6ef	0.96372885
8	0x3b6e8f6a	0.00364014
9	0x3eaed311	0.34145406
10	0x3f8a6c46	1.0814292
11	0xbd150000	-0.036376953
12	0xbe662407	-0.22474681
13	0x3de4fd25	0.11181096
14	0x3f1a0c29	0.60174805
15	0x3f48f29c	0.7849519
16	0xbe4b9456	-0.19880804
17	0x3f9230b8	1.1421118
18	0x3eb24ca1	0.34824088
19	0x3f896151	1.0732824
20	0xbea496ce	-0.32146305
21	0xbc9da102	-0.019241814
22	0xbe0d5cb8	-0.138049
23	0x3d9d7101	0.076875694
24	0x3f9459b3	1.1589874
25	0x3d99179e	0.07475208
26	0x3f8eb0c9	1.11477
27	0x3f73e798	0.9527526
28	0xbe027a70	-0.12742019
29	0x3f8b8d74	1.0902543
30	0x3e32840a	0.17433181
31	0x3e828742	0.2549382
32	0xbba9f5c7	-0.0051867696
33	0xbe285c6a	-0.16441503
34	0x3d9d34ae	0.076760635
35	0x3f2a672b	0.6656367
36	0xbe6d3be2	-0.23167375
37	0xbe13cac4	-0.14432818
38	0x3f88a6bd	1.0675884
39	0x3f839949	1.0281154
40	0x3f9ffa41	1.2498246
41	0xbe161ff6	-0.1466063
42	0x3f97e20c	1.1865859
43	0x3f46de01	0.776825
44	0x3f942c0f	1.1575946
45	0xbb15ea6b	-0.002287532
46	0x3f74fc19	0.9569717
47	0xbd14d64f	-0.036337193
48	0xbe88a39e	-0.2668733
49	0x3f8d207f	1.1025542
50	0x3f7d04a7	0.98835224
51	0xbdbbe4b6	-0.091744825
52	0x3ee7d314	0.45278227
53	0xbe410228	-0.18848479
54	0x3f88c937	1.0686406
55	0x3f0a8b86	0.54119146
56	0x3ddba613	0.107250355
57	0x3f8f9248	1.1216516
58	0xbe4c3239	-0.19941033
59	0xbef90b35	-0.48641363
60	0xbe8a3890	-0.2699628
61	0xbda02f42	-0.07821514
62	0xbe6d6939	-0.2318467
63	0xbdf46016	-0.119323894

linear4.weight f4 [2, 64]
0	0xbed37a33	-0.41304168
1	0x3e8a6bf3	0.27035484
2	0xbe705950	-0.2347157
3	0x3ef24366	0.47317046
4	0x3e987a57	0.29780838
5	0xbf3be177	-0.7339091
6	0xbee2e027	-0.4431164
7	0x3fa43e5a	1.2831528
8	0x3e5187fd	0.20462032
9	0x3e8e9bb6	0.27853173
10	0x3ed299cf	0.41132972
11	0x3e279c63	0.1636825
12	0x3fa352d9	1.2759658
13	0xbf8b1456	-1.0865581
14	0x3ee27cca	0.44235831
15	0xbd41b856	-0.047294937
16	0xbeb248b1	-0.34821084
17	0x3eb686c0	0.3564968
18	0xbeb6445c	-0.3559903
19	0x3e8be85d	0.27325717
20	0xbf3d66de	-0.7398509
21	0x3fbf3f5f	1.4941214
22	0xbbcebe61	-0.006309316
23	0xbd0bd541	-0.03413892
24	0x3ee59ef8	0.44847846
25	0x3f084b50	0.5323992
26	0x3eab97dc	0.33514297
27	0x3cd4c543	0.025972968
28	0xc0825fb4	-4.0741825
29	0x3ef3d03d	0.4761981
30	0xbed5dd31	-0.41770318
31	0x3ea4b3e8	0.32168508
32	0x3f035fac	0.5131786
33	0xbf80a23c	-1.004951
34	0xbf285c17	-0.6576552
35	0x3f2ee34a	0.68315566
36	0x4012a80d	2.291507
37	0x3e2372ef	0.15961812
38	0x3ef8e13c	0.4860934
39	0x3f21173a	0.62926066
40	0x3f055d5c	0.5209558
41	0xbfd6c2f1	-1.6778241
42	0x3f27121b	0.65262
43	0x3e7986ed	0.24367876
44	0x3ebe71db	0.3719624
45	0xbdacc3aa	-0.084357575
46	0x3ead5c2c	0.33859384
47	0xc00a6fda	-2.1630769
48	0xbf80a407	-1.0050057
49	0x3f0a6de3	0.54073924
50	0xbde389de	-0.111102805
51	0xbdc80ca9	-0.0976804
52	0xbeb2afb3	-0.34899673
53	0xbe8064b1	-0.2507682
54	0x3f0995d1	0.53744227
55	0x3f0fa57a	0.5611187
56	0xbea365ac	-0.31913507
57	0x3f0091f7	0.50222725
58	0x3e17ea48	0.14835465
59	0xbf0231b6	-0.508571
60	0xbfdd1992	-1.7273428
61	0xbf94837d	-1.1602627
62	0xbed3d57e	-0.4137382
63	0xbe4f11f9	-0.202217
64	0x3e6fb8ac	0.2341029
65	0x3ed4884d	0.4151024
66	0xbf86d327	-1.0533189
67	0xbd919b31	-0.071096785
68	0x3edbc3cd	0.42922822
69	0xbfb2e019	-1.3974639
70	0x3efe631c	0.4968499
71	0x3ebd3dfb	0.3696135
72	0xbdc24e4a	-0.09487589
73	0x3eccfb0f	0.40035293
74	0x3e25e206	0.16199502
75	0xbe2407c4	-0.16018587
76	0xbfe405dd	-1.7814289
77	0xbf01a010	-0.5063486
78	0xbe84a39e	-0.2590608
79	0x3e9e3c92	0.30905586
80	0x3e965506	0.29361743
81	0x3ed472b5	0.41493765
82	0x3f0094c5	0.50227004
83	0x3f333abd	0.700115
84	0xbf1b9ee6	-0.60789335
85	0x3ec3b1d7	0.3822162
86	0x3cdf76fd	0.027278418
87	0xbf231e88	-0.6371846
88	0x3ee2976a	0.44256145
89	0xbf1a8e34	-0.60373235
90	0x3ea2b700	0.31780243
91	0x3e6e31b5	0.23261149
92	0x3ecf0446	0.40432948
93	0x3f33fd5e	0.7030848
94	0x3f1aa3f6	0.60406435
95	0xbea9fe7b	-0.33201966
96	0xbfe21f4d	-1.7665802
97	0xbe929c18	-0.28634715
98	0x3edb4b2f	0.42830798
99	0x3f366b57	0.7125754
100	0xbeec74c3	-0.46182832
101	0xbe2d10dd	-0.16900964
102	0x3eeff19b	0.46864018
103	0x3ddcb532	0.10776748
104	0x3ef9ed0c	0.48813665
105	0x3f74a7d1	0.9556857
106	0x3e4ddd13	0.20103864
107	0x3ce19a0b	0.027539274
108	0x3eec2dc9	0.4612868
109	0x3d97989c	0.07402155
110	0x3e59bc2e	0.21263191
111	0x3f67a0eb	0.90479916
112	0xbecc115c	-0.39856994
113	0x3f049681	0.5179215
114	0x3f7d0c0d	0.98846513
115	0xbc80ad1f	-0.01570755
116	0x3ee1fd59	0.441386
117	0xbf922267	-1.1416749
118	0x3e900653	0.28129825
119	0xbe89521d	-0.2682046
120	0xbffe4c3c	-1.9867015
121	0x3ea9d647	0.33171293
122	0xbe70eb47	-0.23527251
123	0xbe84ce42	-0.25938612
124	0xc00e9484	-2.2278147
125	0x3eba354f	0.36368796
126	0x3e9d4404	0.30715954
127	0x3ddb29bd	0.1070132

linear4.bias f4 [2]
0	0x3f8e8059	1.1132919
1	0x3f93e4b1	1.1554166
