Result/DQN/CartPole-v1/Model.pth (torch, 173032 bytes, 8 tensors)

linear1.weight f4 [256, 4]
0.44995508 0.3599192 -1.4171337 0.019358812 0.00782872 -0.0332539 1.9059955 0.008204716
0.436663 -0.01266401 -0.6452004 -0.6400558 0.427482 0.54286826 1.1584511 0.29587492
-0.13518882 -0.22916022 -1.4262995 -1.02808 -0.1876495 -0.43317392 -0.07712168 -0.84718686
-0.547407 -0.7256346 -1.6230611 -0.3484453 0.06805813 -0.67593414 -0.32567227 -1.1750164
-0.08792843 0.21556453 3.9039981 0.43964303 0.12491944 0.9840372 1.8214221 0.72990054
-0.23736435 -0.097312234 0.103436425 0.38636014 -0.7817836 -0.035525247 1.0340604 -0.93116146
0.6469309 0.255785 2.0033722 0.3719943 0.46070024 0.12934828 -0.15230331 0.08944966
-0.21504726 0.2565424 -3.9120011 -0.27475694 0.068959445 -0.5943563 -2.4217272 0.6738952
-0.13615948 0.091673054 -0.5475659 0.03388515 -1.125353 -0.5630569 0.19835268 -0.37377495
-1.0445073 0.23478696 -1.0119476 -0.40073022 0.013913889 -0.17737995 0.81102437 -0.20123558
-0.1953763 0.02677284 -3.0491426 -0.37972173 -0.6589037 -0.31879455 0.74227685 -0.19029872
-0.42119825 0.10959327 3.3123424 0.26600212 -0.06779544 0.2395834 1.599526 -0.2379939
-0.8542452 0.22217691 2.15344 0.51535213 0.084788844 0.2944901 2.843706 0.30882803
0.33409655 0.0060313176 -0.5799545 -0.26440513 -0.20967984 0.34087074 0.74042207 0.032863095
0.3254734 1.6434039 2.462181 1.3241683 -0.42747334 -0.010680901 0.65807575 0.21868607
-0.9359502 0.36679164 1.4775281 0.4990059 0.35089743 -0.18155602 1.4996707 -0.34651497
-0.88344675 1.5251762 -1.4143723 0.674237 -0.5824184 -0.45500126 2.3474567 0.321569
0.832618 -0.4229971 -1.1993704 -0.53194535 -0.48788682 -0.34197563 -2.429692 -0.3776417
0.22670713 0.28830692 0.47651625 0.25996035 0.475564 -0.4837248 0.48820862 -0.22996406
-0.2363555 -1.0180385 1.1719173 -0.24436232 -0.3346495 -0.32596976 0.105649576 -0.2486572
-0.55794466 0.8370284 1.3644749 0.6594195 0.5883079 0.09330454 1.0822651 0.6787331
-0.96841955 0.2823659 -0.8736797 -0.738669 0.31666893 0.13223031 2.9028475 0.525151
-1.2298312 -0.3768797 -1.1830667 -0.26848534 -0.7437572 0.0961329 1.1074567 -0.18371318
-0.9916006 1.291982 -1.5608414 0.052619543 -0.71110433 -0.42643058 3.5078678 -0.1207647
-0.45880938 0.264056 0.43771002 0.5139107 0.016505167 0.76426315 -0.70475495 0.80764556
0.5256846 0.01979233 -1.6056103 0.15230532 -0.18972617 0.16155735 2.5723655 0.18375124
-1.3500845 0.39338836 0.7262556 -0.18156338 -0.46797663 0.12906875 0.45571163 0.32082525
0.65289813 -0.5249791 2.1949778 0.26775125 -0.61173534 0.1263392 2.3662512 -0.38679877
0.16798866 0.33396602 -1.6245403 -0.07570416 -0.61311334 -0.5278832 -0.23674873 -0.40584487
-1.4954687 0.48274034 0.011923483 0.3603534 -0.70478123 0.4435876 0.94601023 0.49135274
-0.046460398 0.40220398 -1.2424389 0.28576228 0.25537235 -0.123255834 2.1015403 -0.41484028
0.28772438 -0.19195352 -2.166484 -0.33380213 -0.41256365 0.2922893 0.7296654 -0.12744538
00000000: 8360 e63e 5447 b83e a364 b5bf 5f96 9e3c
00000010: 0844 003c 3e35 08bd a9f7 f33f 136d 063c
00000020: 4b92 df3e b57c 4fbc da2b 25bf b2da 23bf
00000030: ecde da3e 6af9 0a3f 2048 943f eb7c 973e
00000040: f06e 0abe faa8 6abe fb90 b6bf 2098 83bf
00000050: 3127 40be f9c8 ddbe f9f1 9dbd 3de1 58bf
00000060: dd22 0cbf 30c3 39bf 77c0 cfbf 6c67 b2be
00000070: 1062 8b3d 050a 2dbf 84be a6be f066 96bf
00000080: d213 b4bd f3bc 5c3e 1bdb 7940 e418 e13e
00000090: c3d5 ff3d dde9 7b3f 5c24 e93f c3da 3a3f
000000a0: a40f 73be a34b c7bd 7ad6 d33d ffd0 c53e
000000b0: f822 48bf ec82 11bd 175c 843f 9960 6ebf
000000c0: 439d 253f 40f6 823e 4037 0040 0976 be3e
000000d0: e7e0 eb3e e073 043e 66f5 1bbe 6231 b73d
000000e0: 5935 5cbe 8759 833e 3a5e 7ac0 f1ac 8cbe
000000f0: 9c3a 8d3d bc27 18bf 94fd 1ac0 6584 2c3f
00000100: 646d 0bbe 15bf bb3d 472d 0cbf 28cb 0a3d
00000110: 910b 90bf 7f24 10bf f71c 4b3e 6e5f bfbe
00000120: 6ab2 85bf fe6b 703e 8087 81bf 832c cdbe
00000130: 15f7 633c 17a3 35be 4b9f 4f3f b310 4ebe
00000140: ba10 48be b752 db3c 2725 43c0 e36a c2be
00000150: eaad 28bf 0a39 a3be db05 3e3f abdd 42be
00000160: 4ca7 d7be 7072 e03d 6bfd 5340 6e31 883e
00000170: 56d8 8abd 5a55 753e 45bd cc3f acb4 73be
00000180: d0af 5abf 5882 633e f6d1 0940 1eee 033f
00000190: c6a5 ad3d 68c7 963e 47ff 3540 b51e 9e3e
000001a0: b40e ab3e 5ca2 c53b e677 14bf 1c60 87be
000001b0: 50b6 56be 9c86 ae3e 4d8c 3d3f 749b 063d
000001c0: 73a4 a63e 0f5b d23f 6094 1d40 597e a93f
000001d0: c9dd dabe f2fe 2ebc a777 283f 3eef 5f3e
000001e0: 6f9a 6fbf 1dcc bb3e a41f bd3f b47d ff3e
000001f0: d4a8 b33e d2e9 39be 36f5 bf3f 696a b1be
00000200: 9129 62bf f938 c33f 270a b5bf cc9a 2c3f
00000210: 5f19 15bf edf5 e8be bb3c 1640 b1a4 a43e
00000220: 7426 553f 1393 d8be f884 99bf 922d 08bf
00000230: 4dcc f9be 6e17 afbe 1380 1bc0 415a c1be
00000240: ea25 683e f79c 933e f0f9 f33e 8619 853e
00000250: 207d f33e c7aa f7be 7bf6 f93e b37b 6bbe
00000260: 2d07 72be 164f 82bf 6301 963f 1e3a 7abe
00000270: 2e57 abbe 82e5 a6be ce5e d83d fe9f 7ebe
00000280: 76d5 0ebf 7e47 563f 1da7 ae3f b7cf 283f
00000290: 599b 163f 7316 bf3d aa87 8a3f 74c1 2d3f
000002a0: 58ea 77bf 4392 903e 79a9 5fbf 6919 3dbf
000002b0: 6e22 a23e 6267 073e 41c8 3940 4c70 063f
000002c0: 1c6b 9dbf 60f6 c0be bb6e 97bf e976 89be
000002d0: df66 3ebf 53e1 c43d 24c1 8d3f 4f1f 3cbe
000002e0: 89d9 7dbf ab5f a53f a7c9 c7bf 9787 573d
000002f0: ef0a 36bf 1c55 dabe e880 6040 7c53 f7bd
00000300: 10e9 eabe 5932 873e 871b e03e a78f 033f
00000310: d835 873c c0a6 433f d26a 34bf dcc1 4e3f
00000320: 4493 063f 8623 a23c a384 cdbf edf5 1b3e
00000330: 9447 42be 4a6f 253e a3a1 2440 4929 3c3e
00000340: 92cf acbf 336a c93e e3eb 393f c0eb 39be
00000350: a29a efbe 992a 043e 0953 e93e 3543 a43e
00000360: 5524 273f 0865 06bf 847a 0c40 b116 893e
00000370: b09a 1cbf 105f 013e a970 1740 7d0a c6be
00000380: 3805 2c3e 98fd aa3e f0f0 cfbf c80a 9bbd
00000390: fff4 1cbf 5a23 07bf 426e 72be e6ca cfbe
000003a0: 856b bfbf be29 f73e b65a 433c 3e80 b83e
000003b0: 8b6c 34bf ea1d e33e ba2d 723f 9692 fb3e
000003c0: 424d 3ebd aeed cd3e 3d08 9fbf 6f4f 923e
000003d0: 2ac0 823e 8e6d fcbd a37f 0640 f265 d4be
000003e0: 9c50 933e 778f 44be ada7 0ac0 1de8 aabe
000003f0: 8b3b d3be f1a6 953e 5acb 3a3f 0b81 02be

linear1.bias f4 [256]
-0.6514751 0.6239541 -1.0194846 0.16574685 -0.4596775 -0.7937364 -0.16266055 -0.24616124
-0.74259603 -0.2558151 -0.9971286 -0.95978296 -0.36634246 -0.9448208 -0.48928034 -0.78375465
0.017356288 -0.57890725 -0.93328327 0.304383 -0.7300585 -0.9889576 -0.23682432 0.07257139
-0.08461065 -0.10693074 -0.65058607 0.64906245 -0.5079738 -0.40111884 -1.0606507 -0.64727575
0.04222399 -0.3968227 0.37929383 -0.3820865 -0.5419562 -0.55189425 -0.24801444 0.07886093
-0.69091123 -0.32404196 -0.54303205 -0.45607498 -0.41910666 -0.7810808 0.009944341 -0.51996714
-0.73463917 0.11538789 0.29306862 -0.48444375 -0.89793247 -0.71472985 -0.7171371 -0.394404
-0.45082662 -0.37589648 0.48213297 0.4461581 -0.41372165 -0.13007239 -0.943126 0.21529594
-0.7715239 -0.48771238 -0.92230076 -0.42659435 -0.3115832 -0.3897713 0.19887498 -0.8128732
-0.59798884 -0.71161383 0.110623665 -0.30402967 -0.3260157 -0.82900846 0.4207716 -0.2251464
0.557831 0.4885703 -0.23487476 0.4909852 -0.011838718 -0.20860308 -0.6686917 -0.100759074
-0.70120466 -0.7873304 0.3995345 0.24278429 -0.47884265 -0.793052 0.7031908 -0.71389693
-0.013180739 -0.73091453 -0.4918461 -0.62134695 -0.609119 0.6388028 -0.07421243 0.12571646
0.21248615 0.048956066 -0.7777913 0.14545907 -0.132526 0.40249896 0.0006249748 -0.68807113
0.3900084 -0.8252173 -0.497962 -0.9415034 0.06709028 -0.5222788 -0.77397335 0.14471294
-0.7674052 -0.86422616 -0.80678 -0.45758042 -0.34715697 -0.8577268 -0.6868855 -0.2589048
-0.98550844 -1.0334951 -0.7118754 -0.29308888 -0.9722635 -0.81991696 -0.6029858 0.11684694
-0.655976 -0.796577 -0.76707965 -0.7632646 -0.22330955 0.48425293 -0.6042171 -0.6427288
-0.18962634 -0.8483064 -0.65309614 -0.6669126 -0.69233495 0.21344714 -0.3566291 -0.695056
-0.5900903 -0.82775944 -0.7415601 -0.7205689 -0.08484152 -1.1198722 -0.5621335 0.5191853
0.22513925 -0.4182509 -0.71088934 -0.8164415 -0.3171008 -0.122285366 -0.95852757 -0.11699209
0.13553 0.027437009 -0.7117771 -0.954238 -0.035594553 0.03698257 -0.9657024 -0.49443665
-0.92866015 0.011409346 -0.5475097 -0.8999924 -0.72819465 -0.41303524 0.3714742 -0.8669487
-0.44017985 0.25840282 -0.56270784 0.5426123 -0.8210891 -0.8209334 -0.73903435 0.05848472
-0.6160536 0.12986201 0.06367277 -0.4619007 -0.39508176 -0.6257575 -0.8278466 -0.48845953
0.38280424 -0.9124685 0.29546982 -0.3630185 -0.58629584 -0.53923154 0.2296326 -0.617521
-0.80024546 -0.6086584 -0.37714005 -0.48058328 -0.58352894 0.38738015 -0.78158516 -0.9636465
0.092379965 -0.37136868 0.21352196 -0.6146439 -0.5409874 0.34830198 0.74291265 -0.8058269
0.4192611 -0.27502537 -0.10975732 -0.8656413 0.5244357 -0.5281131 0.18769473 -1.0874302
0.2701917 -0.56663114 -0.21523082 0.44278264 0.086229496 -0.13854802 -0.4609057 -0.54072493
-0.15103647 -0.7296273 -0.17231044 -0.7092942 -0.7132262 -0.3318788 -0.9837257 -0.86070025
-0.58915347 0.15418386 -0.834784 -0.30676293 -0.72746694 -0.8648141 -1.098599 -0.82492346
00000000: 12c7 26bf 75bb 1f3f 797e 82bf 8bb9 293e
00000010: d95a ebbe 4f32 4bbf 7d90 26be b111 7cbe
00000020: c61a 3ebf 32fa 82be d243 7fbf 56b4 75bf
00000030: 3d91 bbbe c7df 71bf f482 fabe 25a4 48bf
00000040: c62e 8e3c 4433 14bf a7eb 6ebf 17d8 9b3e
00000050: 1de5 3abf 532c 7dbf 1382 72be 4fa0 943d
00000060: 5948 adbd 81fe dabd cf8c 26bf f528 263f
00000070: 920a 02bf 735f cdbe 67c3 87bf ddb3 25bf
00000080: 10f3 2c3d 582c cbbe cd32 c23e d7a0 c3be
00000090: a4bd 0abf f148 0dbf 7ff7 7dbe d781 a13d
000000a0: 8fdf 30bf d4e8 a5be 2604 0bbf a982 e9be
000000b0: 2695 d6be e9f4 47bf 97ed 223c 911c 05bf
000000c0: 5011 3cbf 7c50 ec3d 170d 963e 0309 f8be
000000d0: e7de 65bf 89f8 36bf 4c96 37bf 52ef c9be
000000e0: bfd2 e6be 8175 c0be 22da f63e d66e e43e
000000f0: 53d3 d3be b231 05be b570 71bf 8a76 5c3e
00000100: 9782 45bf 70b5 f9be e71b 6cbf 936a dabe
00000110: d587 9fbe 1b90 c7be e2a5 4b3e 7518 50bf
00000120: cc15 19bf 532c 36bf a98e e23d c7a9 9bbe
00000130: 88eb a6be e639 54bf 606f d73e c78c 66be
00000140: 03ce 0e3f e325 fa3e 0283 70be 6a62 fb3e
00000150: 2ff7 41bc 0c9c 55be 612f 2bbf c65a cebd
00000160: 2682 33bf 7c8e 49bf c98f cc3e 729c 783e
00000170: dd2a f5be 7505 4bbf 5004 343f f3c1 36bf
00000180: 07f4 57bc 371d 3bbf 41d3 fbbe 9810 1fbf
00000190: 39ef 1bbf 9588 233f b0fc 97bd d1bb 003e
000001a0: f895 593e 2886 483d 551d 47bf 39f3 143e
000001b0: e5b4 07be 5814 ce3e 59d5 233a 6e25 30bf
000001c0: 2eaf c73e 7141 53bf e0f4 febe 5e06 71bf
000001d0: a166 893d 10b4 05bf 1e23 46bf a12f 143e
000001e0: ab74 44bf ed3d 5dbf 2289 4ebf fb47 eabe
000001f0: 8fbe b1be fc93 5bbf bad7 2fbf 2c8f 84be
00000200: 484a 7cbf 9149 84bf 773d 36bf bf0f 96be
00000210: 43e6 78bf 14e6 51bf 475d 1abf 734d ef3d
00000220: 0bee 27bf 78ec 4bbf 555f 44bf 4f65 43bf
00000230: 42ab 64be 00f0 f73e f9ad 1abf e089 24bf
00000240: 682d 42be 9c2a 59bf 4f31 27bf c9ba 2abf
00000250: dd3c 31bf e391 5a3e 1798 b6be 31ef 31bf
00000260: 2810 17bf 0be8 53bf e2d6 3dbf 3477 38bf
00000270: 64c1 adbd f957 8fbf fbe7 0fbf 54e9 043f
00000280: e78a 663e fb24 d6be d8fc 35bf 4f02 51bf
00000290: 095b a2be c070 fabd 1062 75bf 8d99 efbd
000002a0: 60c8 0a3e 94c3 e03c 0637 36bf f148 74bf
000002b0: 98cb 11bd 097b 173d 4638 77bf cd26 fdbe
000002c0: acbc 6dbf 44ee 3a3c 9829 0cbf e765 66bf
000002d0: f76a 3abf 5b79 d3be de31 be3e 5af0 5dbf
000002e0: 415f e1be 604d 843e 9f0d 10bf a4e8 0a3f
000002f0: e532 52bf b128 52bf 5b31 3dbf ac8d 6f3d
00000300: b0b5 1dbf 8cfa 043e df66 823d 407e ecbe
00000310: 2848 cabe a531 20bf c1ed 53bf 5e17 fabe
00000320: ebfe c33e 8997 69bf d247 973e 90dd b9be
00000330: 7c17 16bf 140b 0abf cf24 6b3e db15 1ebf
00000340: e3dc 4cbf 09d1 1bbf 8018 c1be 030f f6be
00000350: 2762 15bf b156 c63e f715 48bf 89b1 76bf
00000360: b531 bd3d 0924 bebe 80a5 5a3e 4d59 1dbf
00000370: 267e 0abf a354 b23e 862f 3e3f ac4a 4ebf
00000380: 64a9 d63e 20d0 8cbe 72c8 e0bd ab9a 5dbf
00000390: 6b41 063f 6c32 07bf 0c33 403e ea30 8bbf
000003a0: 9156 8a3e bd0e 11bf 7865 5cbe 68b4 e23e
000003b0: 1799 b03d 88df 0dbe d5fb ebbe f36c 0abf
000003c0: 4ea9 1abe dbc8 3abf 2672 30be 4e94 35bf
000003d0: fe95 36bf 05ec a9be 73d5 7bbf da56 5cbf
000003e0: c3d2 16bf 60e2 1d3e 67b4 55bf 0810 9dbe
000003f0: 463b 3abf 7564 5dbf e49e 8cbf 2f2e 53bf

linear2.weight f4 [128, 256]
-0.9833462 0.073273785 0.25055435 -0.36753634 -0.47779423 0.34860644 0.02831046 0.16077946
0.30619326 -0.859685 -0.7110866 -0.033452176 0.30914736 0.054511562 -0.274883 0.6831011
-0.19398725 0.09449056 -0.11535415 -0.06135232 -0.027792888 0.09450999 -0.11276819 0.012679483
-0.3142635 0.0017668301 -0.5572987 0.074733526 -1.3216615 0.54499865 -0.65542126 0.08736916
-0.39522088 0.43644503 -0.07019816 0.27645636 -0.17823783 -2.0232244 0.053747803 0.28502402
-1.1021587 -0.7733869 -0.69920635 -1.1778321 -0.31830725 0.05665205 1.0380931 2.4872427
-0.5861139 -0.22601168 0.13918746 0.64098525 0.21748045 -0.39737412 0.3052571 0.6819914
-0.05162791 -0.6232624 1.1009153 0.21754518 0.54067385 0.25884166 -0.1380334 -0.018003594
0.2608405 -0.5623128 -0.1406114 -0.013773321 -0.7803113 -0.41587397 -0.4736003 0.18229575
-1.3516726 0.13973376 -1.1274567 -0.6451636 -1.1886314 -0.41295496 0.15890762 -0.80253524
0.31242526 0.39267406 -0.52919453 0.22310911 -0.14488441 -0.1421927 -0.12937404 2.0720916
-0.80135316 0.6915115 -0.14866246 0.623475 0.4094659 -0.8392337 0.0045982553 -0.09872762
-2.2093108 0.47717148 -0.1908326 -0.06366707 -0.6061091 0.07000406 -0.51795614 -0.11668967
0.050865736 -0.13360357 0.034693692 -0.1857333 -2.631463 -0.14076822 -0.27515253 -0.66515565
0.11728043 -0.118379965 -1.6878467 -0.5217898 0.48933783 -0.8610965 -0.12260208 -0.041668802
0.5981051 -0.30038792 0.04049756 0.2085044 0.20884094 0.22817895 0.12792158 -0.6058434
-0.24829854 -0.6162494 -0.8042995 0.12510206 -0.47535962 0.2936765 0.003883481 0.069894
-0.1521053 -0.20443846 -0.35152647 0.46135667 -0.73654205 0.278327 -0.3563074 -0.72848064
0.814751 0.5158387 -0.15297647 -0.19861904 -0.31460258 -0.024882622 -1.8073108 -0.1809215
-1.328252 -0.18436252 0.5933061 -1.689366 0.3134861 -0.23212363 0.07895493 -0.004342084
0.12403581 -0.3773153 0.11908662 -0.09943976 -2.309956 -0.04969925 -0.069596656 1.0523871
-0.039078813 -1.9983238 0.32256356 -0.20433009 -0.21753523 -0.06981198 -0.5127331 0.5164751
-0.12561475 0.15260789 -0.55361325 -0.26578933 -0.33055913 -0.7000054 0.030179309 -0.5648653
-0.5091365 -0.020134222 -0.32486066 -0.0035411995 0.09848906 -0.25479004 -0.2102325 -0.0053132167
0.58347243 0.11816519 0.00045864648 -0.45458344 0.37974292 -0.88087934 0.35965854 0.15087523
0.28817254 -0.12948753 -0.83625865 0.9030371 0.16710445 -0.28508696 0.93229806 -0.39960206
-0.53557086 -0.16226897 0.6580669 -1.2710028 -0.62890106 0.19667472 0.2336871 -0.30984637
-0.24086899 0.9238471 -0.28888902 -0.64517796 -0.36925423 0.31355366 0.16292244 0.1288512
-0.03157224 0.6204404 -1.1130006 -0.014130278 0.818909 -1.4322526 -0.26017147 -0.5395622
0.5601833 -0.3844356 -0.10500517 -0.06411952 -0.4254743 -0.36600074 -0.7284874 -0.13651794
-0.17200008 0.18512072 -1.3177458 -0.1408305 -0.11119666 -1.8192563 -1.1359248 0.1128385
0.06790684 -0.099608146 -0.58458 1.2115557 0.09859966 0.059207402 -0.51619726 0.114757076
00000000: 94bc 7bbf 9110 963d a948 803e b92d bcbe
00000010: 72a1 f4be 8b7c b23e 56eb e73c 5fa3 243e
00000020: 5dc5 9c3e 5114 5cbf c509 36bf 2605 09bd
00000030: 9048 9e3e 8447 5f3d 77bd 8cbe b7df 2e3f
00000040: 98a4 46be 4484 c13d cc3e ecbd 924c 7bbd
00000050: e9ad e3bc 748e c13d 02f3 e6bd 9bbd 4f3c
00000060: 25e7 a0be fb94 e73a 21ab 0ebf e40d 993d
00000070: 342c a9bf 0885 0b3f b0c9 27bf 9aee b23d
00000080: 645a cabe b975 df3e 0ec4 8fbd b08b 8d3e
00000090: fa83 36be 827c 01c0 a826 5c3d abee 913e
000000a0: 8913 8dbf affc 45bf 30ff 32bf 34c3 96bf
000000b0: 2bf9 a2be fb0b 683d 3ce0 843f fc2e 1f40
000000c0: 900b 16bf 9b6f 67be 2887 0e3e 9c17 243f
000000d0: 32b3 5e3e 9f74 cbbe a94a 9c3e fd96 2e3f
000000e0: ca77 53bd 208e 1fbf cbea 8c3f 2ac4 5e3e
000000f0: 9a69 0a3f e586 843e a158 0dbe 467c 93bc
00000100: e38c 853e bbf3 0fbf 6ffc 0fbe 7fa9 61bc
00000110: 7bc2 47bf 6fed d4be bd7b f2be bdab 3a3e
00000120: 9c03 adbf 5e16 0f3e 8050 90bf 7129 25bf
00000130: 1325 98bf d56e d3be aeb8 223e f372 4dbf
00000140: 34f6 9f3e 930c c93e 4b79 07bf b776 643e
00000150: 945c 14be f79a 11be a17a 04be 269d 0440
00000160: 7b25 4dbf e606 313f f93a 18be 0f9c 1f3f
00000170: 84a5 d13e 05d8 56bf f6ac 963b b531 cabd
00000180: 5965 0dc0 d24f f43e 9f69 43be e163 82bd
00000190: f729 1bbf 4a5e 8f3d c698 04bf fefa eebd
000001a0: 9758 503d 60cf 08be f91a 0e3d df30 3ebe
000001b0: e469 28c0 8b25 10be cbe0 8cbe a447 2abf
000001c0: b930 f03d 3271 f2bd 5c0b d8bf 0494 05bf
000001d0: 7d8a fa3e d270 5cbf cd16 fbbd e8ac 2abd
000001e0: 6a1d 193f 72cc 99be c5e0 253d 2d82 553e
000001f0: 66da 553e bea7 693e e0fd 023e 8e18 1bbf
00000200: f941 7ebe 85c2 1dbf 92e6 4dbf c11a 003e
00000210: 5662 f3be c45c 963e 0082 7e3b 9624 8f3d
00000220: 7ec1 1bbe 5158 51be 47fb b3be f136 ec3e
00000230: 058e 3cbf e080 8e3e ec6d b6be b57d 3abf
00000240: 8693 503f 010e 043f dda5 1cbe ca62 4bbe
00000250: 9713 a1be a4d6 cbbc f655 e7bf 7c43 39be
00000260: 2904 aabf 87c9 3cbe e9e2 173f 253d d8bf
00000270: 4081 a03e d1b1 6dbe 1fb3 a13d 0a48 8ebb
00000280: 7d06 fe3d 792f c1be b0e3 f33d 13a7 cbbd
00000290: 52d6 13c0 7191 4bbd b188 8ebd 9fb4 863f
000002a0: 1b11 20bd 13c9 ffbf 0d27 a53e e83b 51be
000002b0: 8ec1 5ebe 95f9 8ebd 7a42 03bf b637 043f
000002c0: 27a1 00be 3e45 1c3e 99b9 0dbf 8a15 88be
000002d0: 0c3f a9be 8e33 33bf 993a f73c 039b 10bf
000002e0: c556 02bf 86f0 a4bc 2354 a6be 7813 68bb
000002f0: a2b4 c93d d773 82be 3047 57be 7e1a aebb
00000300: 735e 153f 9700 f23d 7d76 f039 29bf e8be
00000310: aa6d c23e 4f81 61bf 2a25 b83e 097f 1a3e
00000320: 5a8b 933e 6198 04be 0c15 56bf 702d 673f
00000330: 6e1d 2b3e ebf6 91be 16ab 6e3f a498 ccbe
00000340: 2c1b 09bf d629 26be 1377 283f 38b0 a2bf
00000350: a9ff 20bf 1965 493e ac4b 6f3e 2fa4 9ebe
00000360: 5ca6 76be 3e81 6c3f 43e9 93be 622a 25bf
00000370: e40e bdbe 1b8a a03e 24d5 263e 92f1 033e
00000380: e551 01bd 2fd5 1e3f ce76 8ebf ae82 67bc
00000390: 05a4 513f 0e54 b7bf 3235 85be c020 0abf
000003a0: 2c68 0f3f bed4 c4be f30c d7bd 1851 83bd
000003b0: c4d7 d9be 7364 bbbe 267e 3abf 5ccb 0bbe
000003c0: ca20 30be 4990 3d3e e5ab a8bf df35 10be
000003d0: 13bb e3bd 64dd e8bf fc65 91bf df17 e73d
000003e0: be12 8b3d 5bff cbbd 09a7 15bf 4214 9b3f
000003f0: 9eee c93d 7683 723d 8125 04bf c205 eb3d

linear2.bias f4 [128]
0.18068181 0.15221259 -0.24421021 -0.012142716 -0.1304037 -0.05331243 -0.04387818 -0.6143469
-0.111020766 -0.17807518 -0.007602981 -0.17221619 -0.15214868 0.21102367 -0.18650746 -0.23466475
0.08880221 0.5351279 0.39486554 0.37424836 -0.038884394 -0.060868364 0.60195994 0.7739767
-0.0344829 -0.028859703 0.1685834 -0.06644642 0.19557668 -0.045253433 0.31898314 0.67045546
-0.39559904 -1.1119604 0.064752385 0.26561707 0.21268843 -0.08786963 -0.4438817 -0.015480869
-0.21546613 -0.04303432 -0.053637456 0.6296506 0.43926457 0.59800684 -0.029856192 0.10859165
0.04456466 -0.040787794 -0.5797797 -0.25267375 0.11811703 -0.2586606 -0.06863989 -0.04093099
0.31897578 0.12673685 -0.044616975 -0.32374945 -0.044502508 0.15016568 0.3376667 -0.01426025
-0.050588787 -0.04324688 -0.6373764 0.19841005 -0.041298952 -0.025835373 -0.11204012 0.28568694
-0.6983369 0.92464954 0.9692258 0.23012844 0.09972667 0.14023744 -0.03175602 -0.31311047
-0.021981101 -0.0021816317 -0.020723222 0.058110043 -0.45644313 0.45883918 -0.042995147 0.17319587
-0.061935302 -0.4915532 -0.32080895 -0.35092768 0.012184628 0.64170486 0.08813037 0.3795996
0.20894133 -0.022388585 -0.028414689 0.37099048 0.74138576 -0.63460964 -0.12838505 -0.00096732174
0.12719417 -0.022162003 -0.051327806 -0.044691972 -0.01755407 0.19745854 -0.048054054 -0.54200053
0.106790595 -0.065080315 -0.5439477 -0.06404429 0.41528183 0.010722021 -0.051850673 -0.046470728
-0.3373047 -0.03520236 -0.07276837 0.4877951 -0.009193502 -0.695846 0.6214906 -0.026100859
00000000: a704 393e 9edd 1b3e 3e12 7abe 3ef2 46bc
00000010: 8c88 05be 225e 5abd 9bb9 33bd d745 1dbf
00000020: db5e e3bd 5759 36be 6d22 f9bb 7159 30be
00000030: ddcc 1bbe 9716 583e d0fb 3ebe f54b 70be
00000040: efdd b53d 24fe 083f d12b ca3e 7b9d bf3e
00000050: 3e45 1fbd 1b51 79bd 0c1a 1a3f 5623 463f
00000060: f13d 0dbd 2f6b ecbc 20a1 2c3e 1015 88bd
00000070: 4145 483e aa5b 39bd c251 a33e f8a2 2b3f
00000080: f58b cabe b854 8ebf e69c 843d f6fe 873e
00000090: ffca 593e fef4 b3bd 7644 e3be 79a3 7dbc
000000a0: 27a3 5cbe c144 30bd f3b2 5bbd c830 213f
000000b0: 49e7 e03e fa16 193f f994 f4bc 4d65 de3d
000000c0: 6f89 363d 1a11 27bd 716c 14bf 745e 81be
000000d0: 57e7 f13d 2a6f 84be 1293 8cbd 41a7 27bd
000000e0: cb50 a33e 4ec7 013e 4ac0 36bd 7dc2 a5be
000000f0: 4348 36bd 08c5 193e a6e2 ac3e d3a3 69bc
00000100: 3036 4fbd a423 31bd 1a2b 23bf 012c 4b3e
00000110: 1729 29bd b4a4 d3bc 4a75 e5bd 8f45 923e
00000120: 35c6 32bf d5b5 6c3f 2f1f 783f caa6 6b3e
00000130: 7f3d cc3d 679a 0f3e 9a12 02bd 0450 a0be
00000140: b611 b4bc b5f9 0ebb bfc3 a9bc cc04 6e3d
00000150: eab2 e9be f8ec ea3e ae1b 30bd 425a 313e
00000160: dfaf 7dbd dcac fbbe 1241 a4be cbac b3be
00000170: 09a2 473c c546 243f b27d b43d e15a c23e
00000180: b7f4 553e 4468 b7bc ecc5 e8bc 77f2 bd3e
00000190: 75cb 3d3f c775 22bf 5f77 03be dd93 7dba
000001a0: 303f 023e 178d b5bc 1b3d 52bd ee0e 37bd
000001b0: 8ecd 8fbc 9232 4a3e 54d4 44bd 8cc0 0abf
000001c0: 07b5 da3d d448 85bd 2840 0bbf a729 83bd
000001d0: d29f d43e 6aab 2f3c 5f61 54bd 1758 3ebd
000001e0: 34b3 acbe 5a30 10bd 9507 95bd 48c0 f93e
000001f0: 58a0 16bc f722 32bf 021a 1f3f 78d1 d5bc

linear3.weight f4 [64, 128]
0.2078937 -0.3053738 0.38517585 -0.028654192 0.7331808 -0.077846885 0.040038593 0.41116264
0.23092128 0.037930645 -0.011536903 0.2324259 -0.18146367 -1.713952 -0.14912711 -0.22761212
0.18704407 0.23675142 -0.7974688 0.18504442 -0.15085034 0.01037654 0.1566059 0.14705805
-0.06339683 -0.013676705 -0.6345902 -0.11983747 -0.25798506 0.19531518 0.41012275 -2.1529355
0.69333684 0.08002732 -0.21577081 -0.38388315 -0.052245162 0.10475404 -0.3437639 -0.231189
-0.135435 0.3166121 -0.14194837 0.19139422 0.5568174 -0.28469434 0.012231385 -0.08777768
0.07931168 0.22407691 -0.092477426 0.36263904 -0.9219876 0.3139672 -0.14192472 -0.04728286
0.34796906 0.22247303 -0.23095964 0.6002233 0.059114914 0.13720532 -1.540032 0.18242577
0.09697246 0.85704464 0.40603277 0.054799885 0.09738589 0.10278971 0.30402258 -0.32710287
-0.4094799 -1.6160637 0.29547837 -1.386528 -0.006273269 0.15235175 0.08019563 -0.03706506
0.18349335 0.061983727 -0.088287435 0.069066614 0.20797947 0.19234739 -0.22914149 -0.080888465
0.023428556 -0.18591496 -0.10615524 -0.23924407 -0.38757697 0.21875519 -0.5443955 0.37329853
0.47831833 -0.50404507 0.12251103 0.08714175 -0.3551224 0.3808408 0.153805 0.022510784
-0.8992298 -0.74853885 -0.10103738 0.05474677 -0.11602974 -0.55616194 -0.18201408 0.2017174
0.0859777 -0.093358286 0.34700537 -0.020313766 0.1220182 -0.35380727 0.023331318 0.045269594
0.1515871 0.029735569 0.25739157 -1.4249504 0.05963162 0.36090752 -0.43722925 0.022088189
-0.25450867 0.30947962 0.14862859 0.02760822 -0.16684206 -0.24393895 0.118063495 -0.045882106
0.07807995 -0.32817078 -0.06606398 -0.4412878 -0.084094875 -0.0778655 0.0077532143 -0.4915318
-0.040241968 -0.19302994 -0.23002152 0.09850703 0.15519819 0.001499568 -0.26464903 -0.14807399
0.07874413 0.23167032 0.08912539 -0.19289175 -0.03128383 0.26359066 -0.21407905 0.028357815
0.12577672 -0.061647505 -0.1493676 0.024955994 0.1600705 -0.18892685 0.00653503 -0.016415058
-0.24781801 -0.30048525 -0.123815306 -0.16388203 0.08063676 0.091093294 -0.06871281 -0.62546
0.0061793854 -0.16546297 -0.431165 -0.32080385 -0.021569083 -0.08134242 0.11026948 -0.18293147
0.3145018 0.21240269 -0.016811648 -0.72882444 0.040079866 -0.3687392 -0.28579128 0.26536784
-0.010071953 0.5888305 -0.50299287 0.07603587 -0.09780103 0.026300868 -0.05954084 -0.19680907
-0.27086833 -0.35665315 -0.26767895 -0.022794385 -0.29294223 -0.4027836 0.15230675 -0.7092022
0.13017073 -0.28414914 0.12686202 -0.05725923 -0.33132192 0.019936461 -0.10194974 -0.3697106
-0.11561626 -0.2320912 -0.1945984 -0.38555527 0.09272173 -0.27850503 -0.16529886 -0.24629773
-0.26436558 0.34693253 0.08385791 -0.16506162 -0.0583013 -0.5443036 0.23169939 -0.1319237
-0.20577873 -0.20235215 -0.012256271 -0.0026490027 0.12689917 -0.48858914 -0.058082905 -0.19414714
-0.06907197 -0.3398444 -0.22549163 -0.07777767 -0.16223787 0.040109288 -0.16759764 0.052840006
0.028305292 -0.21746844 -0.08619229 -0.07258996 0.1726884 -0.33791924 -0.09946365 0.029288368
00000000: 16e2 543e f459 9cbe c535 c53e 32bc eabc
00000010: bdb1 3b3f 306e 9fbd 82ff 233d e983 d23e
00000020: a176 6c3e 2a5d 1b3d 4705 3dbc 0e01 6e3e
00000030: 9dd1 39be c762 dbbf c7b4 18be 2713 69be
00000040: 7b88 3f3e f76e 723e ea26 4cbf 497c 3d3e
00000050: 8378 1abe 5d02 2a3c 4c5d 203e 6396 163e
00000060: 32d6 81bd 4214 60bc 8174 22bf 596d f5bd
00000070: 9e16 84be b400 483e 9cfb d13e b2c9 09c0
00000080: 867e 313f 5de5 a33d 06f3 5cbe 558c c4be
00000090: 06ff 55bd 4989 d63d d201 b0be cfbc 6cbe
000000a0: 79af 0abe fb1a a23e ea5a 11be d9fc 433e
000000b0: 968b 0e3f 75c3 91be 2666 483c c9c4 b3bd
000000c0: 296e a23d 6b74 653e ce64 bdbd d3ab b93e
000000d0: 6107 6cbf 4fc0 a03e b754 11be acab 41bd
000000e0: 0029 b23e f8cf 633e af80 6cbe 3ca8 193f
000000f0: 7b22 723d 8d7f 0c3e c51f c5bf d2cd 3a3e
00000100: 7f99 c63d 4767 5b3f 87e3 cf3e d875 603d
00000110: 4172 c73d 6983 d23d d9a8 9b3e 077a a7be
00000120: 59a7 d1be 2ddb cebf f148 973e c079 b1bf
00000130: ff8f cdbb 1902 1c3e 9b3d a43d 88d1 17bd
00000140: aee5 3b3e a6e2 7d3d 0bd0 b4bd cc72 8d3d
00000150: 92f8 543e b7f6 443e 11a4 6abe daa8 a5bd
00000160: 3eed bf3c 7e60 3ebe eb67 d9bd 66fc 74be
00000170: 7d70 c6be 5c01 603e 815d 0bbf fc20 bf3e
00000180: 24e6 f43e 1909 01bf 10e7 fa3d 6077 b23d
00000190: 9ad2 b5be 91fd c23e 0f7f 1d3e 8968 b83c
000001a0: ed33 66bf 3ea0 3fbf b0ec cebd 263e 603d
000001b0: 00a1 edbd a160 0ebf e661 3abe 028f 4e3e
000001c0: 1415 b03d a132 bfbd b0aa b13e 0e69 a6bc
000001d0: aee4 f93d 3a26 b5be 5221 bf3c 9c6c 393d
000001e0: a639 1b3e 0298 f33c d4c8 833e c664 b6bf
000001f0: 4940 743d dfc8 b83e 83dc dfbe 4af2 b43c
00000200: f64e 82be 1d74 9e3e 1832 183e a22a e23c
00000210: a5d8 2abe 22cb 79be 46cb f13d e0ee 3bbd
00000220: 61e8 9f3d 0006 a8be 8d4c 87bd 79f0 e1be
00000230: ef39 acbd f277 9fbd ad0e fe3b 0eaa fbbe
00000240: c3d4 24bd a4a9 45be c38a 6bbe 0ebe c93d
00000250: 46ec 1e3e 278d c43a 1480 87be b5a0 17be
00000260: 9a44 a13d fc3a 6d3e 5f87 b63d 6a85 45be
00000270: 7923 00bd 5bf5 863e 8a37 5bbe a64e e83c
00000280: 9dcb 003e 1882 7cbd d2f3 18be 8370 cc3c
00000290: 85e9 233e 0a76 41be ce23 d63b df78 86bc
000002a0: 01c4 7dbe 34d9 99be e192 fdbd b1d0 27be
000002b0: e324 a53d 1f8f ba3d 4db9 8cbd 261e 20bf
000002c0: 717c ca3b 206f 29be a9c1 dcbe 6740 a4be
000002d0: a5b1 b0bc db96 a6bd f7d4 e13d 6352 3bbe
000002e0: 6106 a13e 1780 593e 95b8 89bc 3d94 3abf
000002f0: c92a 243d 62cb bcbe 3c53 92be 4bde 873e
00000300: d504 25bc 98bd 163f 24c4 00bf b2b8 9b3d
00000310: e84b c8bd eb74 d73c 19e1 73bd 5188 49be
00000320: 41af 8abe 3e9b b6be 370d 89be 4abb babc
00000330: 86fc 95be a739 cebe 4df6 1b3e 468e 35bf
00000340: 7a4b 053e ff7b 91be 1ee8 013e a888 6abd
00000350: 07a3 a9be ca51 a33c 06cb d0bd b54a bdbe
00000360: 38c8 ecbd 51a9 6dbe ce44 47be 8067 c5be
00000370: e4e4 bd3d 3698 8ebe 1b44 29be 7935 7cbe
00000380: ed5a 87be 24a1 b13e b2bd ab3d ea05 29be
00000390: 58cd 6ebd 7b57 0bbf 9b42 6d3e 0217 07be
000003a0: a9b7 52be 6735 4fbe 87ce 48bc e49a 2dbb
000003b0: dbf1 013e 5b28 fabe 57e8 6dbd 82ce 46be
000003c0: 9b75 8dbd 1600 aebe 47e7 66be e649 9fbd
000003d0: af21 26be a349 243d b79e 2bbe c36e 583d
000003e0: 80e0 e73c 0cb0 5ebe 9585 b0bd 0caa 94bd
000003f0: 3ad5 303e c003 adbe 99b3 cbbd 29ee ef3c

linear3.bias f4 [64]
0.46603528 0.45114395 -0.22358842 0.37497866 1.1951185 -0.47877747 0.17482825 0.5767622
-0.107263945 0.7313844 1.1607728 0.22441652 0.6704569 -0.19756804 0.8292592 1.0481373
-0.08279634 0.26134303 -0.061367262 0.8827481 0.23406185 0.5731826 0.001274586 -0.08920914
1.2854335 0.26368988 1.2585065 0.8587067 0.21424782 1.3070352 -0.09259127 0.9331714
-0.18319258 -0.40683532 0.08714114 0.59290045 -0.29580393 -0.238424 1.0902838 0.6362175
1.0582467 0.35423765 1.180034 0.4344224 1.083864 -0.07029125 1.1201073 -0.21003416
-0.3970678 1.1011395 0.9340477 -0.18367371 -0.12774539 -0.48102438 1.1735002 0.81334496
-0.003398619 1.1397586 0.01878387 -0.13236094 1.1156554 -0.6917446 -0.14168921 -0.22777012
00000000: 2d9c ee3e 57fc e63e 5df4 64be 34fd bf3e
00000010: a5f9 983f 5222 f5be 2d06 333e b0a6 133f
00000020: 33ad dbbd 023c 3b3f 3494 943f 72cd 653e
00000030: 10a3 2b3f 474f 4abe 554a 543f 5d29 863f
00000040: 2191 a9bd c1ce 853e 3d5c 7bbd c8fb 613f
00000050: e9ad 6f3e 18bc 123f 0210 a73a 48b3 b6bd
00000060: 1689 a43f 5c02 873e be16 a13f 34d4 5b3f
00000070: c863 5b3e ee4c a73f 7ea0 bdbd 52e4 6e3f
00000080: d696 3bbe b84c d0be 0e77 b23d 53c8 173f
00000090: 9d73 97be 6c25 74be 6b8e 8b3f 26df 223f
000000a0: a174 873f a35e b53e 5b0b 973f 9d6c de3e
000000b0: 0ebc 8a3f dcf4 8fbd ad5f 8f3f 3213 57be
000000c0: 784c cbbe 24f2 8c3f c01d 6f3f f614 3cbe
000000d0: b0cf 02be d448 f6be 4135 963f 6037 503f
000000e0: 5dbb 5ebb 9ce3 913f a1e0 993c a089 07be
000000f0: cccd 8e3f 2d16 31bf fa16 11be 923c 69be

linear4.weight f4 [2, 64]
0.052329496 -0.048700936 0.7194277 0.92359823 0.3299032 0.28488722 -1.1982857 0.9009439
0.45492312 -0.10128587 0.34211418 0.3639765 -0.09080815 -0.015696844 0.22669204 -0.0040029804
-0.6623667 0.16315746 0.06446158 -0.017603733 1.0601703 1.0129038 0.63396585 0.28797886
0.43731517 -0.4910587 0.42784092 -0.024895761 -0.3412063 0.41818058 -0.42501804 0.36227408
0.3208108 -1.7257252 -0.29492486 0.25774327 0.047909826 0.10858604 0.51555026 0.3624595
0.32103044 -0.14476909 0.55522597 0.31083247 0.34404585 -0.6235269 0.42937863 -0.5450948
-0.2919763 0.4698298 -0.13044517 -0.8339133 -1.5148206 -0.71205837 0.57299787 0.6123892
-0.6336209 0.25980857 -0.20563902 0.031207327 1.1011063 -0.9919914 -0.60163724 -0.15842839
1.438538 -0.45583177 -0.2521595 -0.8917123 0.5972658 -0.86540765 0.35351175 0.30632192
-0.088224545 0.16710953 0.27012596 -0.058402326 0.03336093 -0.85216284 0.007611707 0.71146286
0.43801826 -0.21051672 0.8111963 0.54425555 0.48339856 0.510675 -0.18557645 -0.7583309
0.3405695 0.099622115 0.5343542 0.38875186 0.26288736 0.613153 0.35490105 0.7571176
-0.8114426 0.3504344 0.41199043 -1.1465478 -0.7120883 0.006772456 0.38463283 -0.29745114
0.019076504 0.23192331 0.17319383 -0.7196793 0.3821846 0.40702865 0.2553527 0.98499435
0.06298375 0.4510536 0.3394055 0.1804728 0.060430475 -1.2298794 0.31126267 -0.2218083
-0.64252764 0.26771447 -1.1997706 -0.03175384 1.4389086 -0.76597315 0.33476117 0.117079
00000000: 7457 563d a27a 47bd 6a2c 383f ef70 6c3f
00000010: 12e9 a83e bddc 913e 6d61 99bf 42a4 663f
00000020: afeb e83e f76e cfbd 9729 af3e 215b ba3e
00000030: a0f9 b9bd ab96 80bc f521 683e 6f2b 83bb
00000040: dd90 29bf c012 273e 6f04 843d b435 90bc
00000050: a9b3 873f d5a6 813f 964b 223f f771 933e
00000060: c6e7 df3e 0c6c fbbe f70d db3e 32f2 cbbc
00000070: 98b2 aebe c41b d63e f79b d9be fd7b b93e
00000080: 5041 a43e 90e4 dcbf 6400 97be edf6 833e
00000090: 183d 443d 5c62 de3d 1afb 033f 4b94 b93e
000000a0: 1a5e a43e 593e 14be 4a23 0e3f 6f25 9f3e
000000b0: c726 b03e 759f 1fbf 84d7 db3e 558b 0bbf
000000c0: eb7d 95be 888d f03e 6b93 05be 587b 55bf
000000d0: a4e5 c1bf 7549 36bf fdaf 123f 8ac5 1c3f
000000e0: fb34 22bf a105 853e 0993 52be 82a6 ff3c
000000f0: 0df1 8c3f 26f3 7dbf e604 1abf 0d3b 22be
00000100: 0322 b83f c862 e9be 0d1b 81be 4247 64bf
00000110: 69e6 183f 5b8b 5dbf 7eff b43e 3ad6 9c3e
00000120: 12af b4bd c31e 2b3e f34d 8a3e 4737 6fbd
00000130: 78a5 083d 5827 5abf a06b f93b 6e22 363f
00000140: ee43 e03e b291 57be 90aa 4f3f 5554 0b3f
00000150: 0480 f73e 99bb 023f c107 3ebe f921 42bf
00000160: 205f ae3e ae06 cc3d 70cb 083f 7c0a c73e
00000170: 2c99 863e 98f7 1c3f 97b5 b53e 76d2 413f
00000180: b4ba 4fbf 236c b33e 69f0 d23e 14c2 92bf
00000190: 6b4b 36bf 7beb dd3b 98ee c43e 844b 98be
000001a0: 5446 9c3c 4e7d 6d3e b959 313e e73c 38bf
000001b0: b3ad c33e 0f66 d03e 97bd 823e 9728 7c3f
000001c0: a0fd 803d 7ff0 e63e 8fc6 ad3e ddcd 383e
000001d0: f285 773d b06c 9dbf d25d 9f3e b721 63be
000001e0: b17c 24bf df11 893e 1592 99bf 5110 02bd
000001f0: 282e b83f d116 44bf d165 ab3e 1dc7 ef3d

linear4.bias f4 [2]
1.2352823 1.2201377
00000000: bb1d 9e3f 792d 9c3f
