Result/NoisyDuellingDQN/CartPole-v1/Model.pth (torch, 346538 bytes, 18 tensors)

linear1.weight_mu f4 [256, 4]
-0.5001101 -0.12612031 1.1740389 -0.13772121 -1.090594 0.31160983 0.3883961 0.39555755
-0.1165319 -0.2722664 -1.100727 -0.22277862 0.045835182 -0.22294375 0.74340856 -0.19432043
-0.22590312 -0.115461506 1.0112513 -0.2042982 0.09295248 -0.27717113 -0.3988294 -0.22309804
-0.51639307 -0.064257264 0.4329282 -0.03507988 0.009624413 -0.13055633 -3.1369267 -0.14810398
-0.34198365 0.113698535 1.4329259 0.12130303 -0.43111682 -0.48480856 0.017665789 -0.32170197
0.0073847407 -0.22772625 1.3735669 -0.036647722 -0.14596452 -0.022161962 0.3169633 0.028191729
-0.37698916 -0.106977604 1.6229079 0.14778389 -0.71670926 0.52174824 -0.017245214 0.38629055
-0.24451563 0.13870226 -0.44014475 0.085853875 -0.9032038 -0.028585289 -0.916571 -0.09871901
-1.2656728 -0.763583 -1.0131544 -0.6201676 -0.35502452 -0.3509534 -0.98986405 -0.28142262
-0.30858588 0.045229122 -0.34598637 0.06253257 -0.19350375 -0.21242067 -1.6129578 0.0037538398
-0.5217963 -0.044315126 0.6616577 0.047218505 -0.4495031 0.1940598 1.5739876 0.074051276
-0.28125516 -0.032308098 1.0109333 -0.06353176 -0.56387556 0.007566234 1.2839044 0.0867991
-0.106957644 0.0090672225 -0.9023969 -0.082202226 0.095315255 -0.21119606 -0.9389272 -0.31636792
-0.14262979 0.21172146 0.26070592 0.25962982 -0.09934854 -0.16884738 0.15311074 -0.11283363
-0.8952656 0.16227742 -0.20260218 0.20919657 -0.6616694 -0.4474626 1.7812344 0.035995338
-0.13182363 0.011927973 0.68291754 -0.011901115 0.06764808 -0.17987691 0.23408951 -0.17192186
-0.47299156 -0.016759433 2.5966742 0.2318785 -0.568354 0.1317869 1.1945286 0.1582644
-0.22959644 -0.057463545 0.9877443 -0.14370254 -0.053402506 0.033218656 -2.0818107 -0.026281165
0.15767226 0.03617139 -0.30636746 0.029924305 -0.24171035 0.04698447 -1.8775721 -0.17828503
0.23571032 0.061562166 0.2354064 -0.031077906 -0.21762797 0.09242033 -2.038794 0.066780545
-0.30852574 0.32792848 -1.5866438 0.30445904 -0.7668814 0.4260076 2.188598 0.47218493
-0.50116533 0.26676008 0.6889825 0.25968572 0.16765946 0.12099828 -0.4466568 0.07325792
-0.28742492 -0.09442995 -0.37889296 -0.074371666 -0.5229726 0.32349384 0.60716474 0.26146734
-0.1566226 0.043652378 0.20169698 0.03438607 -0.40570354 0.17300794 0.07508325 0.1286099
-0.0021187656 -0.19978803 1.2828891 -0.31982744 -0.30860502 0.31684715 2.4120529 0.31315768
-0.54519826 -0.22947703 -0.75471616 -0.14942548 -0.62990254 0.50048673 1.7979834 0.51460516
-0.8261436 -0.5096353 -1.4140731 -0.40681845 -0.08975841 -0.0842602 -2.9661317 -0.1501711
-0.58172846 -0.29171333 -0.9199081 -0.23038721 -0.021036087 -0.058541737 -1.4471024 -0.1350521
0.0271913 -0.111990325 -0.19958586 -0.07806786 -0.1403596 0.09527639 0.20027307 0.14785436
-0.17259416 0.07850763 -0.54300547 0.23879717 -0.59795666 -0.17292443 -0.15268864 -0.10868959
-0.06107089 0.049674142 -0.22740765 0.03181912 0.087161526 -0.24785277 0.1795202 -0.24154326
-0.47298786 -0.19430934 -0.9989359 -0.16328044 -0.687498 0.32773006 0.579824 0.33723792
00000000: 3707 00bf af25 01be e846 963f ca06 0dbe
00000010: 9698 8bbf 538b 9f3e dbdb c63e 8586 ca3e
00000020: 47a8 eebd 8066 8bbe 9fe4 8cbf 1420 64be
00000030: acbd 3b3d 5e4b 64be 0650 3e3f effb 46be
00000040: 2653 67be 1577 ecbd af70 813f 8c33 51be
00000050: df5d be3d 60e9 8dbe 5e33 ccbe d073 64be
00000060: 5632 04bf 5099 83bd c4a8 dd3e ecaf 0fbd
00000070: b7af 1d3c 8fb0 05be 68c3 48c0 92a8 17be
00000080: 7b18 afbe c7da e83d 1e6a b73f b96d f83d
00000090: 58bb dcbe d438 f8be d8b7 903c 1fb6 a4be
000000a0: b2fb f13b 1231 69be 0ad1 af3f ec1b 16bd
000000b0: b977 15be 018d b5bc 0349 a23e 57f2 e63c
000000c0: b904 c1be 1317 dbbd 72bb cf3f a954 173e
000000d0: 427a 37bf 4b91 053f d645 8dbc e0c7 c53e
000000e0: 4e62 7abe f707 0e3e a75a e1be 28d4 af3d
000000f0: 5d38 67bf b22b eabc 66a4 6abf 312d cabd
00000100: 9101 a2bf 2d7a 43bf 0baf 81bf 4ec3 1ebf
00000110: c6c5 b5be 2ab0 b3be bb67 7dbf a016 90be
00000120: f8fe 9dbe 2c42 393d 2025 b1be 1311 803d
00000130: d925 46be ce84 59be 6775 cebf fb02 763b
00000140: 7194 05bf c783 35bd 6662 293f 3168 413d
00000150: 4525 e6be 9db7 463e 6d78 c93f 32a8 973d
00000160: ad00 90be 7f55 04bd 4366 813f f01c 82bd
00000170: 265a 10bf 2cee f73b fb56 a43f bac3 b13d
00000180: 9c0c dbbd b08e 143c 7c03 67bf a459 a8bd
00000190: a534 c33d c843 58be 885d 70bf fafa a1be
000001a0: 8b0d 12be 83cd 583e 3f7b 853e 33ee 843e
000001b0: 3f77 cbbd 54e6 2cbe 10c9 1c3e 5115 e7bd
000001c0: 2030 65bf 0d2c 263e f276 4fbe a037 563e
000001d0: 2a63 29bf d119 e5be 7dff e33f d96f 133d
000001e0: c6fc 06be 8b6d 433c afd3 2e3f e5fc 42bc
000001f0: 148b 8a3d a731 38be 29b5 6f3e 490c 30be
00000200: f32b f2be 144b 89bc e92f 2640 8f71 6d3e
00000210: a67f 11bf 25f3 063e 50e6 983f 1010 223e
00000220: 541b 6bbe e55e 6bbd cfdc 7c3f c226 13be
00000230: 96bc 5abd 4910 083d 633c 05c0 994b d7bc
00000240: d674 213e 7428 143d 32dc 9cbe d123 f53c
00000250: eb82 77be ca72 403d 4854 f0bf 5a90 36be
00000260: 0c5e 713e 9c28 7c3d 600e 713e 1897 febc
00000270: ded9 5ebe df46 bd3d 9a7b 02c0 3dc4 883d
00000280: 16f7 9dbe 3ee6 a73e 2517 cbbf 0ee2 9b3e
00000290: 5752 44bf ab1d da3e fd11 0c40 39c2 f13e
000002a0: 5f4c 00bf c794 883e 2861 303f 87f5 843e
000002b0: ecae 2b3e f2cd f73d 33b0 e4be 4008 963d
000002c0: 5c29 93be 7d64 c1bd 42fe c1be 2c50 98bd
000002d0: 88e1 05bf fca0 a53e 266f 1b3f 0cdf 853e
000002e0: ad61 20be d6cc 323d a789 4e3e 68d8 0c3d
000002f0: 60b8 cfbe fe28 313e 3fc5 993d 50b2 033e
00000300: fdda 0abb 3c95 4cbe b635 a43f 6cc0 a3be
00000310: 7a01 9ebe ca39 a23e 135f 1a40 3456 a03e
00000320: 1d92 0bbf 07fc 6abe 1435 41bf fe02 19be
00000330: 4b41 21bf e61f 003f 5224 e63f 2abd 033f
00000340: 267e 53bf 7677 02bf 5900 b5bf 824a d0be
00000350: 42d3 b7bd 9d90 acbd 1ad5 3dc0 74c6 19be
00000360: 28ec 14bf 735b 95be 197f 6bbf a0ea 6bbe
00000370: df53 acbc 76c9 6fbd a73a b9bf 194b 0abe
00000380: 4ac0 de3c 2f5b e5bd 3c60 4cbe 0be2 9fbd
00000390: 6dba 0fbe 4520 c33d 6214 4d3e 2267 173e
000003a0: 86bc 30be 9cc8 a03d 6802 0bbf 3f87 743e
000003b0: b013 19bf 1a13 31be 695a 1cbe a698 debd
000003c0: 7825 7abd 1d77 4b3d 8ddd 68be c454 023d
000003d0: be81 b23d 1ecd 7dbe 25d4 373e 1e57 77be
000003e0: 772b f2be 07f9 46be 43ba 7fbf fd32 27be
000003f0: deff 2fbf 3ccc a73e 586f 143f 73aa ac3e

linear1.weight_sigma f4 [256, 4]
-0.0200775 0.010091419 0.042767223 -0.024484823 0.013248633 0.010632787 0.0005283278 -0.02840902
-0.011917106 -0.02861795 0.03204418 -0.028429491 -0.0120814275 0.0033461172 0.04067541 0.00032373215
-0.018800361 -0.025082257 0.043332305 0.012551194 0.012680866 0.049026802 -0.2637591 -0.044606056
-0.013623157 0.027729394 0.112489656 -0.012055131 0.020534428 0.006091059 0.0076837577 -0.008379889
-0.010610052 0.015436324 -0.014436662 0.02184244 -0.0072570005 0.004401332 0.0015941699 0.0031300278
0.026834229 -0.15517093 -0.119835645 -0.002534553 -0.008251782 -0.004657936 0.123865634 0.028155996
0.010267031 0.028986871 -0.1289348 -0.06393065 0.002798011 -0.07881881 0.19031395 0.03563578
-0.017143777 0.043316796 0.19186983 0.0055837044 -0.0075953444 0.0024583028 -0.010320149 0.0015121019
-0.0032616495 -0.004110321 0.001872531 0.009039358 0.008309643 0.009434428 0.025848148 0.0021490692
0.04357029 0.027827084 0.13042474 0.0035032413 0.017150493 0.011645881 -0.076131664 -6.1624836e-05
-0.018347073 -0.022261996 -0.15649919 -0.0015307955 -0.029287595 -0.027776718 0.07977869 -0.0722784
0.0049641477 0.09453503 -0.27032343 -0.083251 -0.011144075 -0.023283636 0.03609827 0.0054122983
-0.06497039 0.004893018 -0.06451581 0.007872377 -0.06817073 0.05177138 0.060484014 -0.089180484
0.03377743 -0.06549335 0.067577556 -0.045437682 -0.0023129059 -0.007054028 0.15387042 0.0009638576
0.00307588 0.0070908354 -0.026386742 -0.017549606 0.028070027 0.0074703265 -0.03714231 0.011031094
-0.01842688 0.0004835643 -0.35757723 -0.0024750414 0.014269465 -0.009653386 -0.051679567 0.0015249329
0.013104063 -0.013417364 0.039537143 -0.003935104 -0.03170996 0.015620624 0.07500172 0.0074304733
0.011176595 -0.005077116 -0.19844468 0.03194936 -0.02696047 -0.016884971 -0.060002834 0.02675805
-0.030571137 0.0011166811 -0.06743677 -0.016293256 0.04553511 0.0061053648 -0.29986432 -0.047289193
-0.06912307 -0.055236474 -0.10913519 0.007262866 0.059834458 -0.00990819 -0.1763122 0.009416178
0.0068222787 -0.014835051 -0.029936215 -0.0024550462 -0.07474909 0.07340108 -0.023070594 -0.019583551
-0.01898405 -0.012096389 -0.12011617 -0.024681788 -0.00455836 -0.0042271004 0.0060385144 -0.0046421112
0.0011963348 0.03784329 -0.13112387 -0.11395291 0.0017814083 0.0062816557 0.14219256 0.015059613
-0.007986293 -0.020252068 -0.19706173 -0.005130852 0.031373054 -0.013486793 -0.04127287 0.099772595
-0.0727181 0.047574926 -0.1036598 0.08365826 -0.0036877322 -0.015303369 0.031203873 -0.016914142
-0.019422425 0.00042706932 0.014417371 0.0020067354 0.012037311 0.0049779504 -0.055915568 -0.021882
-0.007793811 0.0020899782 -0.035126645 0.010496179 0.0021288288 -0.008899447 0.01982836 0.009278415
0.0070535378 0.014593965 -0.014326877 -0.0006854308 -0.014216419 -0.07843867 -0.04336024 -0.092448495
0.00406726 0.020604866 0.07765268 -0.014147061 -0.019349135 0.013351264 0.12113427 -0.010936694
-0.009501968 0.0064379014 0.044494763 -0.037473097 0.0072243977 -0.0038803539 0.032848366 0.011675779
0.001922431 -0.0009729988 0.06370775 0.003557905 0.007035056 0.011984956 -0.1120012 -0.010008285
0.001654684 0.0031402323 0.017165532 -0.016437327 0.018418644 -0.010498702 0.10526473 0.0055755223
00000000: 9279 a4bc 7b56 253c af2c 2f3d 6594 c8bc
00000010: cb10 593c 2435 2e3c 7a7f 0a3a 08ba e8bc
00000020: f73f 43bc 3170 eabc c240 033d f7e4 e8bc
00000030: 2ef1 45bc 884a 5b3b 429b 263d 98ba a939
00000040: 3703 9abc 4e79 cdbc 377d 313d 86a3 4d3c
00000050: 68c3 4f3c 54d0 483d 6f0b 87be d7b4 36bd
00000060: a933 5fbc c128 e33c fa60 e63d e282 45bc
00000070: d137 a83c 8297 c73b 08c8 fb3b cd4b 09bc
00000080: c9d5 2dbc a3e8 7c3c c087 6cbc ebee b23c
00000090: 22cc edbb 0c39 903b 77f3 d03a 2721 4d3b
000000a0: 75d3 db3c 21e5 1ebe 646c f5bd be1a 26bb
000000b0: 7b32 07bc 99a1 98bb 44ad fd3d 67a7 e63c
000000c0: 0d37 283c e075 ed3c 7c07 04be 13ee 82bd
000000d0: d65e 373b c26b a1bd a9e1 423e d3f6 113d
000000e0: 1b71 8cbc f46c 313d 8679 443e 82f7 b63b
000000f0: 5ee2 f8bb 7a1b 213b d815 29bc b831 c63a
00000100: 66c1 55bb dfaf 86bb b76f f53a d119 143c
00000110: 2b25 083c dc92 1a3c 7fbf d33c 66d7 0c3b
00000120: c376 323d a0f5 e33c 108e 053e a396 653b
00000130: 317f 8c3c 5ece 3e3c ebea 9bbd 953c 81b8
00000140: 9a4c 96bc ca5e b6bc 5341 20be f9a4 c8ba
00000150: 8aec efbc 008c e3bc 0363 a33d b306 94bd
00000160: 4aaa a23b 959b c13d d567 8abe 807f aabd
00000170: a395 36bc 53bd bebc c8db 133d a659 b13b
00000180: 320f 85bd 9c55 a03b dd20 84bd 24fb 003c
00000190: 189d 8bbd 3a0e 543d 16be 773d 42a4 b6bd
000001a0: 345a 0a3d 6121 86bd 1a66 8a3d dd1c 3abd
000001b0: 1f94 17bb 7a25 e7bb 3590 1d3e 63ab 7c3a
000001c0: b494 493b 3d5a e83b 0229 d8bc 31c4 8fbc
000001d0: 1df3 e53c a4c9 f43b 8922 18bd c3bb 343c
000001e0: f8f3 96bc e786 fd39 5d14 b7be 4e34 22bb
000001f0: 79ca 693c 3c29 1ebc f4ad 53bd 42e0 c73a
00000200: 6db2 563c 81d4 5bbc b3f1 213d 0bf2 80bb
00000210: 4ee2 01bd a5ed 7f3c 809a 993d 547b f33b
00000220: 0a1e 373c f05d a6bb 1535 4bbe 55dd 023d
00000230: 34dc dcbc 5a52 8abc 88c5 75bd b333 db3c
00000240: 5270 fabc 9a5d 923a 4a1c 8abd 6f79 85bc
00000250: 0683 3a3d 830f c83b d187 99be 50b2 41bd
00000260: 6590 8dbd a43f 62bd 4582 dfbd 56fd ed3b
00000270: fa14 753d f655 22bc 2f8b 34be 5046 1a3c
00000280: 6c8d df3b b70e 73bc cb3c f5bc d7e4 20bb
00000290: 0d16 99bd 4e53 963d 8bfe bcbc af6d a0bc
000002a0: 7084 9bbc ef2f 46bc 77ff f5bd 7631 cabc
000002b0: 4c5e 95bb 7d83 8abb bbde c53b da1c 98bb
000002c0: 56ce 9c3a 9101 1b3d 5645 06be 2560 e9bd
000002d0: 257e e93a 59d6 cd3b ed9a 113e 98bc 763c
000002e0: f1d8 02bc aae7 a5bc 8dca 49be b520 a8bb
000002f0: 0881 003d b6f7 5cbc be0d 29bd 9355 cc3d
00000300: 3aed 94bd eddd 423d 974b d4bd 0655 ab3d
00000310: e1ad 71bb fbba 7abc 449f ff3c 878f 8abc
00000320: c71b 9fbc 46e8 df39 d636 6c3c 6f83 033b
00000330: 2438 453c 131e a33b b907 65bd e141 b3bc
00000340: 3a63 ffbb 04f8 083b f5e0 0fbd 2af8 2b3c
00000350: d283 0b3b fcce 11bc 166f a23c 7e04 183c
00000360: 5d21 e73b 871b 6f3c 47bb 6abc 7bae 33ba
00000370: fceb 68bc 74a4 a0bd 829a 31bd a355 bdbd
00000380: a646 853b 89cb a83c 5e08 9f3d 13c9 67bc
00000390: 1482 9ebc 43bf 5a3c 3f15 f83d d22f 33bc
000003a0: 24ae 1bbc 08f5 d23b 2440 363d 647d 19bd
000003b0: a4ba ec3b 894d 7ebb 028c 063d c44b 3f3c
000003c0: 15fa fb3a d810 7fba 3579 823d be2b 693b
000003d0: 5486 e63b 8d5c 443c e360 e5bd caf9 23bc
000003e0: fbe1 d83a 5bcc 4d3b bb9e 8c3c 93a7 86bc
000003f0: b2e2 963c bf02 2cbc 0995 d73d dfb2 b63b

linear1.bias_mu f4 [256]
-0.87734836 -0.921624 -0.33627948 -0.49498764 -0.47895315 -0.7201772 -0.8612653 -0.5611461
-0.58399457 -0.88312817 -0.59847504 -0.6271835 -0.40031824 -0.6350147 -0.8653504 0.43502492
-0.024130687 -0.7787258 -0.76003146 0.5468609 -1.0139146 -0.6425423 -0.5687961 -1.065586
-0.54959697 -0.67027056 -0.65499365 -0.62924296 -1.229029 -0.2656379 -0.59423697 -0.4672518
-0.39604044 -0.89366895 -0.47051433 -0.55335885 -0.8283095 -0.940293 -0.9247021 -0.3331953
0.38699737 -0.66865116 -0.60757923 0.5645577 -0.6575468 -0.86757994 -0.67285854 -0.5045239
-0.6995725 -0.5422919 -0.8716888 -0.50146276 -0.5394984 -0.35231227 -0.972105 -0.6571337
-0.3841494 -0.5565798 -0.7463936 -0.8366976 -0.3217311 -0.70747125 -0.7829251 -0.8505205
-0.6603214 -0.7849154 -0.9301558 -0.3251494 -0.52837235 -1.0313827 -0.67246825 -0.50502926
-0.9837843 -0.29188478 -0.7804656 -0.9836049 -0.7952655 -0.64224917 -0.8605972 -0.77623427
0.6791942 -0.46532026 -0.89533806 -0.86383563 -0.58014804 -0.7430687 0.22035931 -0.77102727
-0.8761049 -1.025389 -0.8104906 -0.6166899 -0.95343196 -0.96669996 -0.7608527 -0.9477982
-0.6818662 -0.8202965 -0.7434224 -0.8013465 -0.85966486 -0.8770235 -0.8975167 -0.94009566
0.26839975 -0.49287122 -0.5479016 -0.8587277 -0.51661754 -0.86455303 -0.63848233 0.0051774955
-0.43208498 -0.9031966 -0.5263274 -0.47943366 -1.1050886 -1.0351063 -0.676432 -0.7000273
-0.57775974 -0.9405179 -0.9125128 -0.32722715 -0.7115008 -0.85389 -0.660744 -0.6579381
-0.93319434 -0.7424352 -0.82826984 -1.0010215 -0.5386254 -0.6794942 0.1399644 -1.1142961
-0.74526596 -0.4766241 -0.5080942 -0.45993298 -0.75777936 -0.76663595 -0.2924114 -0.73327553
-0.38291582 -0.70584184 -0.91804904 -0.70661414 -0.7129364 -0.84874535 -0.9251455 -0.4224192
-0.6307899 0.2350944 -0.7689784 -0.78721136 -0.5341027 -0.6219151 -1.0918257 -0.5913213
-0.8419245 -0.6445401 -0.44293112 -1.01883 -0.4349125 0.53108233 -0.5579526 -0.993383
-0.55246365 -0.79919416 -0.88414 -0.770059 -0.8689491 -0.72734946 -0.68895036 -0.9280242
-1.0437607 0.4957363 -1.05559 -0.52715725 -0.6583188 -0.6857793 -0.8095134 -0.8998691
-0.7780764 -0.37213686 -0.55642205 -0.7870447 -0.90917265 -1.0018301 -0.90454805 -0.7673488
-0.4278952 -0.8973354 -0.7274149 -0.85207295 -0.47861844 -0.8233438 -0.15029524 -0.6188705
-0.29939738 -0.5844868 -0.94453555 -0.76821434 -0.2676391 -0.3122671 -0.46420303 -0.5578879
-0.45720044 -1.0970373 -0.5752027 -0.9570459 -0.69753003 -0.6279932 -0.7858179 -0.6617275
-0.6798039 -0.5704878 -0.7647012 -0.70052874 -0.5969525 -0.9139465 -0.28008527 -0.6165852
-0.6121861 -0.8282931 -0.3706187 0.14224324 -0.71640664 -0.8104829 -0.6550315 -0.962692
-0.6632932 -0.73639435 -0.28657326 0.17406648 -0.56116694 -0.5483838 -0.75982535 0.5582954
-0.6529988 -0.35139886 -0.70538634 -0.5243094 -0.8489958 -0.93494266 -0.76944965 -0.7338869
-0.3104386 -0.5424539 -0.6945767 0.12994672 -0.39730486 -0.6997408 -0.4748202 -0.6745333
00000000: e799 60bf 8def 6bbf d32c acbe 056f fdbe
00000010: 5939 f5be 885d 38bf e27b 5cbf 45a7 0fbf
00000020: ab80 15bf b014 62bf a935 19bf 198f 20bf
00000030: 83f6 ccbe 5390 22bf 9b87 5dbf 96bb de3e
00000040: b8ad c5bc 935a 47bf 6c91 42bf 13ff 0b3f
00000050: f4c7 81bf a77d 24bf 9f9c 11bf 1f65 88bf
00000060: 63b2 0cbf da96 2bbf aaad 27bf 1116 21bf
00000070: d350 9dbf b101 88be ea1f 18bf a13b efbe
00000080: d0c5 cabe 7dc7 64bf 41e7 f0be eda8 0dbf
00000090: 170c 54bf 0bb7 70bf 47b9 6cbf 9398 aabe
000000a0: 8524 c63e b92c 2bbf 508a 1bbf da86 103f
000000b0: fd54 28bf b819 5ebf 7540 2cbf 7a28 01bf
000000c0: 2f17 33bf a4d3 0abf ff26 5fbf dd5f 00bf
000000d0: 911c 0abf 4662 b4be e0db 78bf ea39 28bf
000000e0: 3baf c4be 047c 0ebf a713 3fbf d031 56bf
000000f0: f0b9 a4be d61c 35bf c86d 48bf b6bb 59bf
00000100: d30a 29bf 37f0 48bf b11e 6ebf fb79 a6be
00000110: 6943 07bf 5904 84bf e126 2cbf 9949 01bf
00000120: 4ad9 7bbf ec71 95be 98cc 47bf 88cd 7bbf
00000130: 8596 4bbf 716a 24bf 1950 5cbf 4ab7 46bf
00000140: acdf 2d3f 753e eebe e034 65bf 5524 5dbf
00000150: 9584 14bf c039 3ebf dfa5 613e 0b62 45bf
00000160: 6948 60bf f23f 83bf 507c 4fbf 64df 1dbf
00000170: 1e14 74bf a679 77bf 3ec7 42bf e7a2 72bf
00000180: c98e 2ebf f4fe 51bf ee50 3ebf 0b25 4dbf
00000190: ff12 5cbf 9d84 60bf a8c3 65bf 1caa 70bf
000001a0: b16b 893e 9e59 fcbe 4743 0cbf 94d5 5bbf
000001b0: 0c41 04bf 5953 5dbf 9473 23bf fba7 a93b
000001c0: 3e3a ddbe e437 67bf 64bd 06bf 5478 f5be
000001d0: 8b73 8dbf 5d7e 84bf a62a 2dbf fd34 33bf
000001e0: 10e8 13bf c8c5 70bf 709a 69bf 518a a7be
000001f0: eb24 36bf 8998 5abf 8526 29bf a26e 28bf
00000200: d3e5 6ebf 3c10 3ebf 7e09 54bf 7921 80bf
00000210: 5be3 09bf 55f3 2dbf d452 0f3e 41a1 8ebf
00000220: c0c9 3ebf 1308 f4be 7612 02bf 567c ebbe
00000230: d4fd 41bf 4142 44bf f2b6 95be f2b7 3bbf
00000240: 8b0d c4be 0db2 34bf 4305 6bbf aae4 34bf
00000250: 0083 36bf 6047 59bf 56d6 6cbf 5447 d8be
00000260: 727b 21bf 96bc 703e c5db 44bf af86 49bf
00000270: f4ba 08bf d435 1fbf f2c0 8bbf d560 17bf
00000280: 5d88 57bf 9400 25bf dec7 e2be 0569 82bf
00000290: daac debe 03f5 073f fbd5 0ebf 594e 7ebf
000002a0: 426e 0dbf fd97 4cbf 0057 62bf 9622 45bf
000002b0: 7373 5ebf 9333 3abf 0d5f 30bf fe92 6dbf
000002c0: f399 85bf 26d1 fd3e 931d 87bf c7f3 06bf
000002d0: 9587 28bf 3b8f 2fbf 453c 4fbf d25d 66bf
000002e0: 0430 47bf b988 bebe ad71 0ebf c37b 49bf
000002f0: 8abf 68bf f83b 80bf 7690 67bf f970 44bf
00000300: 1415 dbbe c6b7 65bf dd37 3abf 7421 5abf
00000310: 7a0d f5be a9c6 52bf ffe6 19be 4c6e 1ebf
00000320: 9d4a 99be eda0 15bf 15cd 71bf b2a9 44bf
00000330: fe07 89be 79e1 9fbe 05ac edbe bed1 0ebf
00000340: 2d16 eabe b86b 8cbf 7c40 13bf f600 75bf
00000350: 5491 32bf 2ac4 20bf 5d2b 49bf f966 29bf
00000360: a107 2ebf 7d0b 12bf 75c3 43bf da55 33bf
00000370: e1d1 18bf 66f8 69bf 5667 8fbe 87d8 1dbf
00000380: 3ab8 1cbf 040b 54bf bcc1 bdbe 36a8 113e
00000390: 6d66 37bf cf7b 4fbf 25b0 27bf fc72 76bf
000003a0: 95cd 29bf 5784 3cbf bbb9 92be 7c3e 323e
000003b0: a3a8 0fbf e162 0cbf ea83 42bf 73ec 0e3f
000003c0: ee2a 27bf 8dea b3be 3394 34bf 2439 06bf
000003d0: ca57 59bf 6758 6fbf a7fa 44bf 03e0 3bbf
000003e0: cff1 9ebe 42de 0abf c7cf 31bf c110 053e
000003f0: 8b6b cbbe 3722 33bf a21b f3be 37ae 2cbf

linear1.bias_sigma f4 [256]
-0.02881387 0.026204018 0.019022249 0.02600775 0.03233503 -0.015434076 0.03335603 -0.0047879694
-0.0020400356 -0.003736696 -0.030716581 0.025596594 0.017791877 0.082180135 0.057185177 -0.0043877275
-0.0042943098 -0.0039274236 0.044719826 -0.0057497793 0.0013508861 0.002110564 -0.037128825 0.027763613
-0.007860628 -0.02293608 -0.033911753 -0.012893946 0.017146517 0.029168636 0.033721298 -0.060337648
-0.031135239 -0.0025775507 0.10045905 0.023446962 0.023895305 -0.048798498 0.010136534 0.008719405
-0.01418918 -0.031210143 0.026833804 -0.0044053146 -0.01990855 0.0052493257 0.041344848 -0.026852962
0.06301698 0.00012006241 -0.0040195314 -0.0013617979 -0.003948589 -0.007230014 0.013488845 -0.015867846
0.0111111775 0.010702632 0.073027 -0.0025200194 0.056222685 0.029683108 0.013143948 -0.007948833
0.03553865 0.002720967 0.005637052 0.028412923 0.015435906 -0.0032782329 -0.10355491 -0.060136117
0.019539647 0.007968193 -0.013324107 -0.007898785 -0.0013638076 0.032747734 0.019367749 0.026772214
-0.006225743 -0.015831582 -0.04172308 -0.0013610726 -0.026891278 0.039479323 -0.01284276 -0.10353724
0.0047201267 -0.053631067 -0.009167765 -0.020726476 -0.0148448 -0.0060471054 0.05791848 0.00062448235
-0.037741523 -0.06779851 0.0058776787 -0.023235515 0.0013361354 0.042990275 -0.012003437 0.040475562
-0.012268694 -0.027533848 -0.025293887 -0.0015426426 0.022308404 -0.005975782 -0.0016029597 -0.0095694745
0.02931808 0.022288602 0.048054866 0.0014590118 0.015092079 0.0016836866 0.05529539 -0.0006771825
0.024137095 -0.00085792306 -0.0028655464 0.0031412859 0.0028567929 0.00402425 0.034824107 0.023105917
0.0005973141 -0.0042493353 -0.02256717 0.05852244 0.0067802374 0.019221302 0.026555564 -0.023858963
0.03176909 -0.014301227 -0.02837404 -0.020228941 0.03415368 0.06329219 -0.0023945428 -0.038428746
0.040055864 0.023999467 0.033824157 0.004801572 -0.003418814 0.021367611 0.019812582 0.015094875
-0.010092642 0.0007161522 0.050745957 0.047528457 -0.008603846 -0.03580328 -0.030377697 -0.05640485
0.008329837 0.0012538916 -0.09870049 0.025676016 0.0014193077 -0.002768293 0.023152193 0.05228748
-0.008321721 0.017743405 -0.056711547 0.028995927 0.002509989 -0.0025789617 0.060423244 -0.021301107
0.0033540782 0.004965018 0.0001176588 -0.019701414 0.018191643 -0.024375608 0.021057228 -0.0019594796
0.003241983 -0.012190703 -0.10697819 0.024568686 -0.041636553 0.005059271 0.043099716 0.0033964647
-0.0067967265 -0.015181892 0.08067006 -0.017068883 0.0057643894 -0.022430453 0.0036423395 0.005157845
0.012627568 -0.009397079 0.008693637 0.0045308806 0.088641316 -0.005567166 -0.042920705 -0.0037767724
-0.005406151 0.029027995 -0.00017209437 0.015749399 -0.003629888 -0.0026324852 0.027392674 0.033402044
0.014517254 -0.019837718 -0.04695444 0.050764848 -0.002959457 -0.063426465 0.0015111748 -0.019864919
0.018286005 -0.021008138 0.00115659 0.020199398 0.009917016 -0.007662813 0.008529878 -0.01912205
0.02120978 0.05088852 -0.0152133135 0.0012429815 -0.0030337917 0.039269313 0.015967473 -0.0006905021
-0.041675966 -0.030378327 -0.004149288 0.0064558727 -0.004796741 0.00039800775 0.019357113 0.0010177164
0.02503729 0.039516434 0.014430039 -0.014060302 0.008147189 0.050573543 -0.017289449 -0.035860267
00000000: 110b ecbc cfa9 d63c 8cd4 9b3c 340e d53c
00000010: bd71 043d 35df 7cbc 55a0 083d 66e4 9cbb
00000020: 1eb2 05bb 5be3 74bb 57a1 fbbc f3af d13c
00000030: 45c0 913c 0f4e a83d 013b 6a3d edc6 8fbb
00000040: 48b7 8cbb 9eb1 80bb 232c 373d a568 bcbb
00000050: 3710 b13a 6351 0a3b 6514 18bd 8470 e33c
00000060: ddc9 00bc 72e4 bbbc 0de7 0abd 2141 53bc
00000070: da76 8c3c 10f3 ee3c 581f 0a3d 9c24 77bd
00000080: 540f ffbc 20ec 28bb 79bd cd3d d813 c03c
00000090: 16c0 c33c efe0 47bd b513 263c d6db 0e3c
000000a0: bc79 68bc 6aac ffbc 91d2 db3c 755a 90bb
000000b0: 4117 a3bc 8902 ac3b 3759 293d befa dbbc
000000c0: 0c0f 813d 04ca fb38 46b6 83bb 5b7e b2ba
000000d0: 2a63 81bb c1e9 ecbb 5100 5d3c 49fd 81bc
000000e0: a80b 363c 185a 2f3c 2e8f 953d e926 25bb
000000f0: c249 663d fd29 f33c b759 573c d23b 02bc
00000100: fa90 113d 4052 323b 05b7 b83b 38c2 e83c
00000110: e2e6 7c3c 9fd7 56bb 9914 d4bd 4a51 76bd
00000120: 9c11 a03c 068d 023c 5b4d 5abc e869 01bc
00000130: cac1 b2ba 7d22 063d 1da9 9e3c 6751 db3c
00000140: 5101 ccbb 3cb1 81bc d2e5 2abd 0566 b2ba
00000150: 194b dcbc 12b5 213d 716a 52bc 550b d4bd
00000160: 4bab 9a3b 40ac 5bbd 6534 16bc 92ca a9bc
00000170: 9b37 73bc cc26 c6bb ee3b 6d3d 4db4 233a
00000180: db96 1abd f2d9 8abd 8b99 c03b 6858 bebc
00000190: 4421 af3a 9216 303d 10aa 44bc b4c9 253d
000001a0: a202 49bc aa8e e1bc 2035 cfbc 7f32 caba
000001b0: 1dc0 b63c 7ed0 c3bb 671a d2ba 49c9 1cbc
000001c0: 782c f03c 9696 b63c 2ed5 443d 503c bf3a
000001d0: c444 773c 26af dc3a 6b7d 623d f384 31ba
000001e0: 28bb c53c 3ee6 60ba e4cb 3bbb 08de 4d3b
000001f0: 0839 3b3b dbdd 833b b9a3 0e3d 9f48 bd3c
00000200: 1295 1c3a 023e 8bbb c9de b8bc 3ab5 6f3d
00000210: c12c de3b fe75 9d3c 0e8b d93c df73 c3bc
00000220: 4e20 023d b24f 6abc ad70 e8bc 2ab7 a5bc
00000230: bbe4 0b3d 569f 813d c3ed 1cbb 7667 1dbd
00000240: 9e11 243d 889a c43c 338b 0a3d 8156 9d3b
00000250: 2e0e 60bb 210b af3c ff4d a23c 7f50 773c
00000260: 9c5b 25bc 29bc 3b3a feda 4f3d 33ad 423d
00000270: 25f7 0cbc 76a6 12bd a6da f8bc c608 67bd
00000280: de79 083c 9f59 a43a 7c23 cabd 8256 d23c
00000290: 1008 ba3a 406c 35bb aba9 bd3c 662b 563d
000002a0: d457 08bc 9e5a 913c 5e4a 68bd de88 ed3c
000002b0: a17e 243b cc03 29bb 5d7e 773d a97f aebc
000002c0: 18d0 5b3b 97b1 a23b 96bf f638 dc64 a1bc
000002d0: a406 953c 5baf c7bc 3580 ac3c 9d6a 00bb
000002e0: 7377 543b 84bb 47bc 6217 dbbd 4544 c93c
000002f0: 178b 2abd 3ec8 a53b 5489 303d 3997 5e3b
00000300: 13b7 debb 78bd 78bc 5836 a53d 0bd4 8bbc
00000310: 34e3 bc3b 12c0 b7bc 51b4 6e3b 2403 a93b
00000320: dce3 4e3c 35f6 19bc c26f 0e3c c877 943b
00000330: 9489 b53d c66c b6bb 9fcd 2fbd ba83 77bb
00000340: 1526 b1bb 1ecc ed3c 3b74 34b9 e204 813c
00000350: 6ae3 6dbb c685 2cbb 9a66 e03c 95d0 083d
00000360: c7d9 6d3c b682 a2bc 4d53 40bd cdee 4f3d
00000370: 73f3 41bb bce5 81bd 9d12 c63a c1bb a2bc
00000380: 88cc 953c 4219 acbc b898 973a 3579 a53c
00000390: fb7a 223c 5618 fbbb e7c0 0b3c d8a5 9cbc
000003a0: 22c0 ad3c 7b70 503d 4341 79bc 8aeb a23a
000003b0: 94d2 46bb dcd8 203d 38ce 823c d002 35ba
000003c0: 6bb4 2abd f8db f8bc c0f6 87bb c98b d33b
000003d0: fb2d 9dbb b2ab d039 cf92 9e3c e564 853a
000003e0: 011b cd3c fcdb 213d f86b 6c3c 2e5d 66bc
000003f0: ca7b 053c 3426 4f3d 9aa2 8dbc 37e2 12bd

linear2.weight_mu f4 [128, 256]
0.013365583 -0.6402245 -0.1470131 -0.035047878 0.15942144 0.00093461643 -0.2645382 0.05473036
0.087746345 -0.095102295 -0.120976724 0.23914093 -0.15681769 0.012485644 -0.007620467 0.17599952
-0.18862256 0.01614808 -0.010157967 0.091165155 0.09019387 0.017574081 -0.017986223 -0.087700926
0.0070850966 0.23927926 -0.04634684 0.10820915 0.0058375853 -0.17521657 0.080879286 0.026001401
-0.20004623 -0.013977408 -0.24710563 -0.047457285 0.014888684 -0.01955111 0.13950898 -0.11607015
0.016479863 0.043377373 0.04645052 0.27011633 0.029955013 -0.38342404 0.035772704 0.1918376
0.03659371 0.026889885 -0.26150396 -0.09833367 -0.6364769 -0.3248351 -0.3001145 -0.020750886
-0.0979886 0.055261027 -0.104726076 -0.061322283 0.06743861 0.1405773 -0.10334231 -0.5379908
0.27730855 -0.030814024 -0.112552 0.12674113 0.06138669 -0.0218031 0.39791366 0.009591516
-0.09338244 -0.40559682 0.096253596 -0.14353475 0.2060052 -0.047859345 -0.10299776 0.27690038
0.26260144 0.03592502 -0.06366714 -0.39932805 0.058991954 -0.012750073 0.09119378 -0.048239525
0.043817148 -0.02816699 -0.3284142 -0.05092951 0.25311342 -0.5010474 -0.0046966495 -0.04801324
0.30562505 -0.015094288 -0.107427664 -0.14609906 -0.114794046 -0.07100016 0.06556515 -0.6961235
-0.05392925 0.101470314 -0.0048326887 -0.14979428 -0.06151743 -0.06876921 0.1725518 -0.10355191
0.117766336 0.022653138 -0.0075082676 -0.024078337 -0.18340337 -0.2596614 0.30655527 -1.2613101
-0.26072308 -0.34325162 -0.10812558 0.09720414 -0.48002374 0.12628113 0.029431164 0.12836847
-0.095791645 -0.4870511 -0.09591045 -0.2638667 -0.7008767 -0.08538931 -0.016097872 -0.13776848
0.15402816 -0.036789425 -0.056103677 0.0651481 0.038033072 -0.039416805 0.31502646 -0.05232623
0.039261144 0.29274118 0.008680811 0.27117226 -0.04815046 -0.06275128 0.01997747 0.022395039
-0.08316025 0.0048431507 0.054541394 -0.054490224 0.105097525 0.059058215 -0.003703618 0.16619706
0.0026343695 0.20344293 -0.10255512 -0.007578448 -0.050108742 0.26670626 0.09971894 -0.2885564
-1.0108166 0.012325022 0.09636802 -0.17649677 0.046087094 -0.5192366 -0.4632924 -0.3847274
-0.30329114 0.29637003 -0.25670058 -0.014994821 0.14143166 -0.08340344 -0.16449687 -0.42337814
0.10409818 0.030917937 -0.067248166 0.29373977 0.07190427 -0.20097332 -0.13535035 -0.029536383
-0.019614637 0.16056797 -0.033060126 -0.12025911 -0.43815088 -0.028942391 -0.066613026 0.15370978
-0.17637657 -1.838021 -0.14359798 -0.09844034 -0.1884705 -0.055901386 0.003959998 -0.576703
-0.22875015 -0.03348991 -0.37185392 -0.015546839 -0.34547815 0.0016149621 -0.04726966 0.11287709
-0.009884468 0.013991141 -0.04379247 -0.22108445 -0.06305848 -1.2514083 -0.0688245 -0.09514385
0.17589244 0.06292133 0.19022654 0.041102726 0.021838421 -0.047900315 0.0006069604 -0.17744923
0.1294634 0.07598037 -0.20210615 0.30668998 -1.8793234 -0.043187365 -0.06310063 0.32919505
0.08162421 0.2304441 -0.056473583 -0.40689227 -0.20762418 -0.013793622 0.0027147024 0.026633276
-0.026944475 -0.15242365 -0.45919096 -0.13313684 0.059925105 -0.03137937 -0.008200695 -0.1006346
00000000: 51fb 5a3c c1e5 23bf 9a8a 16be 5d8e 0fbd
00000010: 603f 233e 0c01 753a 8d71 87be f12c 603d
00000020: 5bb4 b33d fec4 c2bd a5c2 f7bd 5ce1 743e
00000030: d194 20be 9690 4c3c 1cb5 f9bb 3839 343e
00000040: 4626 41be fa48 843c 9a6d 26bc ccb4 ba3d
00000050: 90b7 b83d 85f7 8f3c d857 93bc 8b9c b3bd
00000060: 192a e83b 9f05 753e 2fd6 3dbd c29c dd3d
00000070: 3749 bf3b f96b 33be 0aa4 a53d e400 d53c
00000080: ebd8 4cbe 8001 65bc 4209 7dbe 9262 42bd
00000090: abef 733c a629 a0bc 71db 0e3e 30b6 edbd
000000a0: c700 873c 79ac 313d e742 3e3d b04c 8a3e
000000b0: 3764 f53c 2850 c4be 6686 123d 1371 443e
000000c0: 49e3 153d 2d48 dc3c d9e3 85be 2a63 c9bd
000000d0: 26f0 22bf c950 a6be 9ca8 99be c3fd a9bc
000000e0: 3fae c8bd 6359 623d a07a d6bd 132d 7bbd
000000f0: 411d 8a3d 7ff3 0f3e 22a5 d3bd c4b9 09bf
00000100: 63fb 8d3e b16d fcbc aa81 e6bd 6dc8 013e
00000110: 9c70 7b3d 6a9c b2bc 57bb cb3e bc25 1d3c
00000120: 4b3f bfbd 63aa cfbe 9b20 c53d c6fa 12be
00000130: 07f3 523e 2908 44bd 7df0 d2bd e3c5 8d3e
00000140: b273 863e 1d26 133d eb63 82bd ba74 ccbe
00000150: 8ca1 713d afe5 50bc cec3 ba3d cf96 45bd
00000160: 9c79 333d 76be e6bc e825 a8be 769b 50bd
00000170: 1598 813e a444 00bf 5ae6 99bb 88a9 44bd
00000180: e37a 9c3e 084e 77bc 0903 dcbd fe9a 15be
00000190: 2419 ebbd 8868 91bd 0547 863d 2635 32bf
000001a0: ebe4 5cbd abcf cf3d 885b 9ebb ac63 19be
000001b0: b3f9 7bbd dfd6 8cbd 6bb1 303e 0613 d4bd
000001c0: 7a2f f13d 1393 b93c ea07 f6bb ef3f c5bc
000001d0: 18ce 3bbe 57f2 84be d0f4 9c3e 9c72 a1bf
000001e0: 7f7d 85be adbe afbe f270 ddbd f712 c73d
000001f0: acc5 f5be d74f 013e a019 f13c 0673 033e
00000200: 692e c4bd c35e f9be b36c c4bd 8919 87be
00000210: a86c 33bf 97e0 aebd afdf 83bc 2e13 0dbe
00000220: 8fb9 1d3e 82b0 16bd f8cc 65bd 5e6c 853d
00000230: 91c8 1b3d 8473 21bd 264b a13e 0754 56bd
00000240: 4bd0 203d 2ce2 953e f639 0e3c 17d7 8a3e
00000250: 6b39 45bd be83 80bd cba7 a33c cd75 b73c
00000260: ec4f aabd 4bb3 9e3b cc66 5f3d 2431 5fbd
00000270: 5f3d d73d 07e7 713d 66b8 72bb 902f 2a3e
00000280: 63a5 2c3b 5853 503e 6b08 d2bd a154 f8bb
00000290: d33e 4dbd b98d 883e 7239 cc3d aabd 93be
000002a0: 7062 81bf e4ee 493c 995c c53d 92bb 34be
000002b0: d2c5 3c3d b1ec 04bf a934 edbe fdfa c4be
000002c0: fa48 9bbe d0bd 973e 426e 83be d6ac 75bc
000002d0: 76d3 103e 6ccf aabd de71 28be 05c5 d8be
000002e0: 6d31 d53d 9d47 fd3c 68b9 89bd 0f65 963e
000002f0: 8c42 933d f3cb 4dbe 4899 0abe 49f6 f1bc
00000300: e0ae a0bc ee6b 243e 0e6a 07bd 694a f6bd
00000310: 5055 e0be 9818 edbc 696c 88bd 1966 1d3e
00000320: 0f9c 34be 4644 ebbf 590b 13be 179b c9bd
00000330: 69fe 40be daf8 64bd dfc2 813b cfa2 13bf
00000340: 7b3d 6abe b72c 09bd a363 bebe 2bb8 7ebc
00000350: 83e2 b0be 23ad d33a d59d 41bd 1b2c e73d
00000360: 77f2 21bc 193b 653c bc5f 33bd f663 62be
00000370: ce24 81bd 262e a0bf dcf3 8cbd c7da c2bd
00000380: 261d 343e e6dc 803d bfca 423e 555b 283d
00000390: 7de6 b23c 1f33 44bd 6c1c 1f3a 40b5 35be
000003a0: 0e92 043e 999b 9b3d eaf4 4ebe 7806 9d3e
000003b0: ab8d f0bf 3ce5 30bd e73a 81bd 418c a83e
000003c0: 982a a73d 8af9 6b3e d850 67bd 2f54 d0be
000003d0: 6f9b 54be a5fe 61bc 26e9 313b 072e da3c
000003e0: a9ba dcbc f214 1cbe 141b ebbe 0655 08be
000003f0: 0774 753d a787 00bd 355c 06bc 8319 cebd

linear2.weight_sigma f4 [128, 256]
-0.05675402 -0.19264276 -0.06668922 -0.0070745726 -0.04861273 0.14889245 -0.17708814 -0.01417816
-0.13268833 -0.04637281 -0.07627772 0.038296755 -0.0031818773 -0.08530471 0.12293318 -0.0017218598
-0.01742467 -0.086724564 -0.16442308 0.0302477 -0.05320706 -0.08244537 -0.2459396 0.1322043
0.1982608 -0.07558198 0.09243613 0.43148032 0.077616595 -0.03274329 -0.043608397 0.0057719056
-0.038323075 0.050898664 -0.17032854 -0.38318118 -0.18053162 -0.12863685 -0.37123692 -0.11174611
0.02495825 0.004538322 0.17389585 -0.0064153294 -0.21965876 0.12695284 -0.22464623 -0.20375885
-0.0297361 0.21327436 0.09530607 0.06459175 0.027152734 -0.04874978 -0.27629015 0.18431485
0.20604849 0.23910575 -0.088907644 -0.043244738 0.0015076905 -0.02201718 0.338458 0.04936472
-0.093930125 0.0042889332 0.1472992 0.012836696 0.028876748 -0.018268658 0.05689006 0.10223612
0.2354566 -0.0032218653 -0.0143635785 0.098052055 -0.036973197 -0.110354364 0.025664616 -0.17521407
-0.0026683 0.17688124 0.24664238 -0.02145439 -0.03537111 0.028298609 0.015007597 0.27426082
0.057550468 -0.13952218 -0.0058433902 -0.06309405 0.06300214 -0.036878593 -0.040545773 0.08574123
0.25717905 0.123350315 -0.062058166 0.08917605 -0.00016093752 0.004850219 0.03771666 0.10222466
0.015653264 0.0070733097 0.29345152 0.2033408 -0.17503601 0.020026963 -0.025235072 -7.810632e-05
-0.07185794 -0.05845856 0.064478755 0.0053299386 -0.16711722 -0.026157187 0.011954635 0.045915846
0.036437135 -0.24558003 0.123347215 0.022953674 0.034439113 -0.23048143 -0.09218813 0.1418479
0.13005134 -0.07825283 0.11282522 -0.039799135 -0.017604124 -0.0019205905 -0.0038161827 -0.111650944
0.105800904 0.031041292 0.14842354 0.1463219 0.115452915 -0.48124337 -0.14547606 -0.006273621
-0.12082588 0.0202203 0.07475538 -0.182172 -0.12500486 0.016377395 -0.14978339 -0.06350123
-0.026464865 0.011137589 -0.013258236 -0.14036943 -0.09834444 0.019085476 -0.15228233 0.092539586
0.048863646 -0.099760905 0.19388425 -0.12034256 0.07184592 0.0041450704 0.042872697 0.053027466
0.045771502 -0.070172995 -0.09741324 -0.17305748 -0.10492251 0.19379757 -0.039122645 -0.1561597
0.101675525 -0.009631668 0.058742195 -0.2781738 0.1600887 0.031524744 -0.012472116 0.06561884
0.13649075 0.120545596 -0.08334233 -0.16345355 0.20852527 0.078887336 0.056881577 -0.07811189
0.03408185 -0.07554952 0.07287083 -0.15087765 0.124661155 0.08301058 -0.057525598 -0.13459606
-0.010013262 -0.16297379 0.12528138 -0.04378868 0.030785032 0.054300383 -0.017741323 0.063379675
0.035885632 0.08959257 0.00023400103 -0.0609476 -0.15586638 0.15060759 0.038069893 -0.086544916
-0.11397624 0.09261448 0.021821456 0.0031198703 0.04471168 -0.15905258 0.052255988 0.025440251
-0.16317798 0.059725765 -0.019749979 -0.021267375 -0.037098307 0.16469717 0.039897174 -0.044192698
0.05228552 0.021899559 -0.012747429 0.03176266 -0.19774367 -0.010254868 0.12098585 -0.005757658
-0.09170187 -0.024457054 -0.023999838 -0.004935697 -0.06926293 -0.061085675 -0.26086506 0.11281952
-0.02491624 -0.046068087 0.1124655 0.017288437 -0.08194219 -0.1591602 -0.12310223 0.12297174
00000000: e776 68bd 2544 45be 5c94 88bd d1d1 e7bb
00000010: 241e 47bd 4377 183e 9856 35be 834b 68bc
00000020: 73df 07be 6af1 3dbd 7e37 9cbd 0fdd 1c3d
00000030: 0b87 50bb 3cb4 aebd 64c4 fb3d 07b0 e1ba
00000040: 2ebe 8ebc a69c b1bd 865e 28be 06ca f73c
00000050: a5ef 59bd 1ed9 a8bd 97d7 7bbe 9060 073e
00000060: e104 4b3e baca 9abd 274f bd3d fdea dc3e
00000070: 73f5 9e3d d41d 06bd b89e 32bd 4122 bd3b
00000080: a8f8 1cbd 1e7b 503d 9b6a 2ebe 5330 c4be
00000090: 48dd 38be 61b9 03be c412 bebe 25db e4bd
000000a0: 3e75 cc3c 34b6 943b c111 323e af37 d2bb
000000b0: 3aee 60be edff 013e a909 66be 29a6 50be
000000c0: 1f99 f3bc 9864 5a3e d42f c33d ae48 843d
000000d0: 696f de3c d9ad 47bd e775 8dbe 08bd 3c3e
000000e0: 60fe 523e 23d8 743e 3615 b6bd 6521 31bd
000000f0: b39d c53a 605d b4bc 5e4a ad3e a932 4a3d
00000100: 705e c0bd 2e8a 8c3b 9ad5 163e 0151 523c
00000110: ee8e ec3c 27a8 95bc 8d05 693d 2c61 d13d
00000120: 891b 713e ee25 53bb 3755 6bbc 84cf c83d
00000130: 3571 17bd 7801 e2bd 9a3e d23c 516b 33be
00000140: a5de 2ebb 5b20 353e d28f 7c3e 1ec1 afbc
00000150: 4ce1 10bd 7cd2 e73c 6de2 753c ea6b 8c3e
00000160: 0aba 6b3d e7de 0ebe e979 bfbb 7437 81bd
00000170: 4407 813d 020e 17bd 5313 26bd 1999 af3d
00000180: f9ac 833e 179f fc3d b430 7ebd efa1 b63d
00000190: 56c1 28b9 96ee 9e3b c97c 1a3d 2a5b d13d
000001a0: 463b 803c 39c7 e73b 473f 963e 9238 503e
000001b0: a43c 33be 960f a43c c8b9 cebc 03cd a3b8
000001c0: 412a 93bd 3e72 6fbd 700d 843d c4a6 ae3b
000001d0: c720 2bbe 9947 d6bc 60dd 433c 4112 3c3d
000001e0: 1b3f 153d 5579 7bbe 779d fc3d 5809 bc3c
000001f0: 0710 0d3d 5303 6cbe 21cd bcbd 9340 113e
00000200: 2e2c 053e 0543 a0bd e910 e73d 6b04 23bd
00000210: 8636 90bc 53bc fbba ec18 7abb 40a9 e4bd
00000220: 25ae d83d 4f4a fe3c 57fc 173e 68d5 153e
00000230: 9472 ec3d 8865 f6be adf7 14be f392 cdbb
00000240: 8f73 f7bd 0ba5 a53c 5919 993d 4c8b 3abe
00000250: 4601 00be e329 863c d160 19be ef0c 82bd
00000260: d8cc d8bc 6f7a 363c 1339 59bc 01bd 0fbe
00000270: cf68 c9bd 2559 9c3c e6ef 1bbe 6585 bd3d
00000280: 3f25 483d 724f ccbd 9889 463e 2976 f6bd
00000290: f423 933d 5fd3 873b 489b 2f3d 5433 593d
000002a0: e67a 3b3d dcb6 8fbd 9880 c7bd fb35 31be
000002b0: 9de1 d6bd df72 463e 113f 20bd 54e8 1fbe
000002c0: 423b d03d 25ce 1dbc a89b 703d cc6c 8ebe
000002d0: 4bee 233e 1720 013d d957 4cbc 2c63 863d
000002e0: 3bc4 0b3e 9ce0 f63d 62af aabd 5e60 27be
000002f0: a687 553e af8f a13d a8fc 683d 20f9 9fbd
00000300: 6999 0b3d b5b9 9abd 4d3d 953d ac7f 1abe
00000310: 594e ff3d 7301 aa3d f69f 6bbd 8dd3 09be
00000320: aa0e 24bc 9ae2 26be c349 003e c25b 33bd
00000330: e430 fc3c 146a 5e3d 4056 91bc 34cd 813d
00000340: d0fc 123d 4f7c b73d 2c5e 7539 31a4 79bd
00000350: 709b 1fbe e038 1a3e 2def 1b3d 763e b1bd
00000360: 606c e9bd a9ac bd3d e9c2 b23c bd76 4c3b
00000370: 9823 373d aede 22be 600a 563d 1368 d03c
00000380: 2118 27be 01a3 743d b5ca a1bc eb38 aebc
00000390: 65f4 17bd 60a6 283e 386b 233d 6703 35bd
000003a0: 5729 563d b466 b33c 98da 50bc 9019 023d
000003b0: 517d 4abe 0904 28bc 6ec7 f73d bcaa bcbb
000003c0: 31ce bbbd 295a c8bc 4f9b c4bc a1bb a1bb
000003d0: b9d9 8dbd f934 7abd 1b90 85be ec0d e73d
000003e0: 241d ccbc e4b1 3cbd 5054 e63d 7ba0 8d3c
000003f0: 4fd1 a7bd e4fa 22be 061d fcbd 9cd8 fb3d

linear2.bias_mu f4 [128]
0.98348445 0.477982 -0.8633657 -0.8928131 0.14675735 0.6157776 -0.04496646 0.11141897
-0.19712257 0.06951897 -0.27044427 -0.054147545 -0.03710339 0.3181288 -0.019865718 0.60842437
-0.1276689 -0.25276503 0.103723876 -0.0665998 0.16545568 -0.19576101 -0.5262905 -0.11829638
-0.19983967 0.5243716 0.8624033 -0.19714689 -0.10596002 -0.25219992 0.95854497 0.683706
-0.014276572 -0.33703315 0.9120911 -0.23196505 0.38595605 -0.046995874 -0.22025146 -0.82947475
1.3123866 -0.0764193 -0.059308257 0.57463676 0.49473166 -0.19895667 1.1959628 -0.19275428
0.96878344 -0.050561227 1.1259815 -0.019139038 0.3837125 0.0058321483 -0.04714243 0.1879665
0.036088713 0.041856874 0.32860458 0.18001123 -0.09229957 -0.9199853 0.6068899 0.74691385
0.7392467 -0.012090695 0.7608574 1.142122 -0.13721818 -0.09363318 -0.10571775 0.16727452
-0.25775996 0.02321609 0.85269284 -0.19686256 0.3842168 -0.14114085 0.4953219 0.43316627
0.62741035 0.61804533 0.086083554 -0.27687183 0.22770664 -0.12947528 1.261152 0.78500867
-0.7644275 -0.1451951 -0.20005052 0.53487206 -0.15839805 -0.33341512 -0.11465482 0.7280541
0.88656694 -0.10813587 0.7515311 -0.09394042 -0.34642154 0.45081833 -0.1532378 0.76356816
-0.14659467 -0.16493805 0.87235117 -0.12715243 0.4607673 -0.07694546 -0.14854074 0.8567811
0.76438516 0.96336544 0.18874542 0.28483757 0.112633705 -0.21380527 -0.21637772 -0.12567699
-0.13214761 -0.32802102 -0.1727497 -0.12992634 -0.23600702 -0.10934823 -0.2514491 -0.1861279
00000000: a3c5 7b3f 0fba f43e 8905 5dbf 668f 64bf
00000010: 8f47 163e 9aa3 1d3f c02e 38bd a12f e43d
00000020: 80da 49be f65f 8e3d ac77 8abe d1c9 5dbd
00000030: b9f9 17bd c7e1 a23e 6ebd a2bc b3c1 1b3f
00000040: a3bb 02be 6b6a 81be 2f6d d43d 7a65 88bd
00000050: 376d 293e 9375 48be f9ba 06bf 5f45 f2bd
00000060: c5a2 4cbe 383d 063f 76c6 5c3f e0e0 49be
00000070: 9101 d9bd 5920 81be 3463 753f 5b07 2f3f
00000080: 48e8 69bc 9c8f acbe cd7e 693f 3f88 6dbe
00000090: 089c c53e bf7e 40bd 9989 61be 7558 54bf
000000a0: 49fc a73f b981 9cbd 37ed 72bd 651b 133f
000000b0: 784d fd3e 4cbb 4bbe 4f15 993f 6161 45be
000000c0: 3102 783f 4a19 4fbd 2920 903f 79c9 9cbc
000000d0: f775 c43e 9b1b bf3b 6c18 41bd 4a7a 403e
000000e0: c2d1 133d 1d72 2b3d dc3e a83e dd54 383e
000000f0: 8f07 bdbd 2884 6bbf 235d 1b3f bf35 3f3f
00000100: 463f 3d3f 0d18 46bc 8dc7 423f 0e31 923f
00000110: ec82 0cbe c1c2 bfbd 8c82 d8bd 034a 2b3e
00000120: 1df9 83be ab2f be3c 144a 5a3f 5796 49be
00000130: 10b8 c43e 3a87 10be d59a fd3e f8c7 dd3e
00000140: f79d 203f 3838 1e3f 934c b03d 25c2 8dbe
00000150: ee2b 693e 2b95 04be 6e6d a13f 54f6 483f
00000160: 85b1 43bf 06ae 14be 0bda 4cbe 60ed 083f
00000170: 1933 22be 63b5 aabe 25d0 eabd c161 3a3f
00000180: 0df6 623f 5776 ddbd 5864 403f d663 c0bd
00000190: 2a5e b1be a9d1 e63e 5fea 1cbe 3479 433f
000001a0: ea1c 16be 85e5 28be 6852 5f3f 3f34 02be
000001b0: b1e9 eb3e 9595 9dbd 101b 18be 0256 5b3f
000001c0: bfae 433f 1e9f 763f 7b46 413e 3bd6 913e
000001d0: 80ac e63d c5ef 5abe 1f92 5dbe 78b1 00be
000001e0: b451 07be 5ff2 a7be 4ce5 30be 690b 05be
000001f0: d3ab 71be f7f1 dfbd f0bd 80be 5098 3ebe

linear2.bias_sigma f4 [128]
0.011369439 -0.03224502 0.02061556 0.10841362 -0.052674223 -0.0075128623 0.039585683 0.14396825
-0.0721836 -0.06808033 0.08603465 -0.011054443 0.0028206473 0.051281095 0.03534445 0.0320955
-0.07322084 0.07339562 0.019435156 -0.055477247 -0.008637319 -0.03535626 0.039000165 0.011745996
0.013866152 0.06915316 -0.010607117 -0.06316819 0.020425245 0.05014697 0.009589268 -0.032534268
0.042471014 -0.20060503 -0.0120503055 0.02442609 0.069688074 -0.06012375 -0.00048402298 -0.006923545
0.009274631 0.019394625 0.02282594 0.053521328 0.04228953 -0.03359485 -0.007756244 0.023780717
-0.01665136 0.0455543 -0.0046567135 0.087378636 -0.092635095 -0.053968027 -0.02886163 -0.009944206
-0.068755515 -0.054119237 0.0013039344 0.015641652 -0.019091075 0.007377292 -0.016583694 0.0045616855
0.006959413 0.047175653 0.009234688 -0.003417458 0.0022618866 -0.029564906 0.004170077 0.006654454
0.056517813 0.0021848287 0.0041554286 0.12204941 0.040411294 -0.012349142 0.0104417475 0.0976477
-0.14981456 -0.0174381 0.03369748 0.057103634 0.12225226 0.05157227 -0.0018493846 0.01824253
0.038442817 0.0013980186 -0.07136132 -0.0714697 0.09184058 0.06995613 0.007590939 -0.070130326
0.013829136 -0.020531312 -0.032242168 -0.051309843 -0.21873365 -0.031812027 -0.11333631 -0.02563826
0.02580303 -0.04457062 0.03241454 -0.066193156 -0.014169993 -0.0038416986 0.011339705 -0.014003091
0.0022153007 -0.0065359888 0.004401894 0.051366795 -0.009808731 -0.049825873 -0.02584881 -0.038899302
-0.0046530263 0.00896121 0.011828844 -0.012714599 -0.07155738 -0.058177497 0.083329566 0.098220736
00000000: e246 3a3c 5b13 04bd f6e1 a83c f607 de3d
00000010: edc0 57bd 752e f6bb 9924 223d 6a6c 133e
00000020: ffd4 93bd b36d 8bbd ef32 b03d b21d 35bc
00000030: 9cda 383b 200c 523d 58c5 103d 9276 033d
00000040: cff4 95bd 7150 963d 7a36 9f3c 1c3c 63bd
00000050: 8b83 0dbc bad1 10bd a3be 1f3d 4772 403c
00000060: db2e 633c 2ca0 8d3d 79c9 2dbc 535e 81bd
00000070: d852 a73c e966 4d3d 4e1c 1d3c a742 05bd
00000080: 16f6 2d3d 686b 4dbe a56e 45bc 3919 c83c
00000090: 9fb8 8e3d 5244 76bd 77c4 fdb9 e8de e2bb
000000a0: 9ff4 173c 7ae1 9e3c 77fd ba3c 2e39 5b3d
000000b0: c937 2d3d c19a 09bd 1728 febb c7cf c23c
000000c0: 6f68 88bc 2597 3a3d 5897 98bb 92f3 b23d
000000d0: 78b7 bdbd 940d 5dbd 3a6f ecbc 06ed 22bc
000000e0: b1cf 8cbd 22ac 5dbd c7e8 aa3a ec22 803c
000000f0: e364 9cbc 36bd f13b 87da 87bc 317a 953b
00000100: ca0b e43b 423b 413d 174d 173c 6ef7 5fbb
00000110: 293c 143b 1a32 f2bc 24a5 883b 9b0d da3b
00000120: 397f 673d 582f 0f3b 432a 883b 0bf5 f93d
00000130: 5086 253d 0e54 4abc dd13 2b3c 84fb c73d
00000140: fd68 19be 59da 8ebc 5e06 0a3d 80e5 693d
00000150: 655f fa3d 723d 533d 0d67 f2ba 5c71 953c
00000160: 3776 1d3d b83d b73a e225 92bd b55e 92bd
00000170: ea16 bc3d 2945 8f3d 69bd f83b 7da0 8fbd
00000180: 9a93 623c 4831 a8bc 5d10 04bd 452a 52bd
00000190: b7fb 5fbe 544d 02bd de1c e8bd 5407 d2bc
000001a0: e060 d33c af8f 36bd 1cc5 043d 4790 87bd
000001b0: 4229 68bc 02c5 7bbb 2cca 393c 386d 65bc
000001c0: 942e 113b d92b d6bb c33d 903b fd65 523d
000001d0: cdb4 20bc 3716 4cbd e2c0 d3bc e054 1fbd
000001e0: 6a78 98bb 0ad2 123c c5cd 413c e550 50bc
000001f0: ad8c 92bd 874b 6ebd b1a8 aa3d f427 c93d

linear3.weight_mu f4 [64, 128]
0.068376236 0.40075463 -2.9745402 -1.083759 -0.68243223 -0.23768295 -0.2635352 -0.39701474
-0.11505822 -0.37268925 0.018821765 -0.27725583 -0.038916197 -0.8830706 -0.0495554 0.18312669
-0.029835705 -0.10960928 -0.40889764 -0.061338373 -0.27587053 -0.06849334 -0.9106333 -0.043324146
0.04824593 -0.052901134 -0.041509874 0.016474305 0.12586488 -0.06357383 0.1007559 0.18268752
-0.1664766 -0.08370513 0.045642585 0.10286559 -0.1770974 -0.06637847 -0.06487776 -2.4812455
0.20281951 0.052865565 -0.07173613 -0.24275547 0.44024467 -1.2219847 0.021923795 0.009638975
0.14420904 -0.0087089 -0.023376884 0.0931187 -0.06426172 -0.6533777 -0.03931576 -0.49741474
0.03284734 -0.3737487 0.7281666 -0.22940816 -0.035528775 -1.0613685 -0.057296775 -0.019019153
-0.07317892 0.27799216 -0.1380832 -0.010482151 -0.06319358 -0.046720903 -0.03840373 -0.2426024
-0.061226636 0.26053846 -0.02222201 -0.029163864 -0.3319906 0.08302243 0.5701676 -0.24135476
-0.18265949 -0.22522464 -0.2564495 -0.051422305 0.2882256 0.089057334 0.0801449 -0.06315568
-1.0817839 0.0398781 0.074153475 -0.36800656 -0.0883745 -0.009409405 -0.017534068 0.32335937
-0.14960635 -0.027268007 -0.12753151 -0.045457646 -0.16076317 0.17433181 -0.59519374 -0.04761797
0.08295414 0.036243513 -0.022600168 0.030587766 -0.26419327 0.08015043 0.049475584 0.020019986
-0.08731588 0.15469265 -1.1872871 -0.15005556 -0.0578248 0.06884492 0.019835165 -0.0126266135
0.029693503 0.4143722 -0.3287431 0.53347516 0.015774274 -0.039165758 -0.023922868 -0.028050842
0.19973949 -0.11206332 -2.411582 -0.7363483 -0.32344076 -0.1883844 -0.1994472 -0.19364873
-0.08795275 -0.027471093 -0.016762441 -0.12383566 -0.33550435 -0.053123582 -0.17113926 0.011656928
-0.035147306 -0.2767794 -0.28864208 -0.07547286 -0.23572154 0.003411717 -2.1683135 -0.01178159
0.16877541 -0.13669164 0.09652372 0.09244017 -0.020463953 0.02473538 0.032420885 -0.09334032
-0.056598127 0.13933073 0.17388734 -0.0019643423 -0.18087588 -0.025487918 -0.01429785 -2.7087326
0.3554621 -0.06474358 0.0012855735 0.03929691 -0.34227052 -1.802715 0.25018087 -0.010733185
0.15586728 0.015706034 0.26862526 -0.7781904 -0.10410228 -0.030833011 0.068215266 -0.028325584
0.06844202 -0.17512503 0.32381392 -0.19833022 -0.023180777 -2.0155158 -0.045833044 -0.044587098
-0.100394845 0.059689652 0.036243025 0.27371952 0.08910843 -0.052432314 0.0059442073 -0.17716034
-0.014338531 0.021094553 0.034948725 -0.016066184 0.022660462 0.08521688 0.01771631 -0.2028853
-0.2414809 -0.18253839 -0.14763331 -0.07836672 0.051681712 0.026248243 0.22490254 -0.05550973
-0.56687844 -0.039300732 0.080187164 -0.12936978 0.018138856 0.059812866 0.028917689 0.118299596
-0.012137584 0.03385817 -0.04916602 -0.01265333 -0.17744917 0.13302894 -0.40407827 -0.13490176
-0.05729698 -0.019179897 0.022691688 0.070068955 0.22685775 0.033801205 0.08059956 0.017229578
0.056913298 0.10794217 -0.37591496 0.10698663 -0.1372271 0.060159687 -0.04989542 -0.024918912
-0.0058313855 -0.43238607 -0.22697432 -0.053143278 0.053853583 -0.12518527 -0.027366696 0.074322306
00000000: d708 8c3d b62f cd3e de5e 3ec0 9db8 8abf
00000010: e1b3 2ebf 2963 73be 16ee 86be 8445 cbbe
00000020: a5a3 ebbd 20d1 bebe 1a30 9a3c 7af4 8dbe
00000030: 9766 1fbd ea10 62bf 9afa 4abd 9085 3b3e
00000040: 026a f4bc d57a e0bd 085b d1be f23d 7bbd
00000050: e73e 8dbe 3c46 8cbd 441f 69bf a974 31bd
00000060: 869d 453d dcae 58bd 4206 2abd 1ff5 863c
00000070: b9e2 003e ff32 82bd 1c59 ce3d 7012 3b3e
00000080: d878 2abe 986d abbd b8f3 3a3d 32ab d23d
00000090: 0559 35be 6ff1 87bd a2de 84bd bacc 1ec0
000000a0: ebaf 4f3e 9089 583d 64ea 92bd e494 78be
000000b0: c067 e13e ff69 9cbf 8899 b33c cbec 1d3c
000000c0: 89ab 133e c6af 0ebc e180 bfbc 04b5 be3d
000000d0: a69b 83bd c343 27bf 9009 21bd 25ad febe
000000e0: ef8a 063d fd5b bfbe 2069 3a3f f9e9 6abe
000000f0: 9f86 11bd ecda 87bf 06b0 6abd 0ece 9bbc
00000100: d4de 95bd fd54 8e3e af65 0dbe 54bd 2bbc
00000110: a36b 81bd 6b5e 3fbd 3b4d 1dbd c36c 78be
00000120: c8c8 7abd 4c65 853e ef0a b6bc 0ee9 eebc
00000130: acfa a9be aa07 aa3d 81f6 113f b425 77be
00000140: 170b 3bbe 4aa1 66be 594d 83be 32a0 52bd
00000150: 4e92 933e b163 b63d 0223 a43d c457 81bd
00000160: e577 8abf 3857 233d c7dd 973d 5b6b bcbe
00000170: b1fd b4bd e829 1abc 9ba3 8fbc 5c8f a53e
00000180: 6832 19be 2861 dfbc 9f97 02be cc31 3abd
00000190: 1a9f 24be 0a84 323e 9e5e 18bf 0f0b 43bd
000001a0: dce3 a93d 1474 143d fd23 b9bc 3293 fa3c
000001b0: 5744 87be e925 a43d e9a6 4a3d f400 a43c
000001c0: abd2 b2bd c067 1e3e 06f9 97bf 2aa8 19be
000001d0: b3d9 6cbd 91fe 8c3d 5b7d a23c dbdf 4ebc
000001e0: ca3f f33c 9828 d43e 0451 a8be d491 083f
000001f0: 0d39 813c 466c 20bd e4f9 c3bc e1ca e5bc
00000200: 8288 4c3e 7481 e5bd 5c57 1ac0 5281 3cbf
00000210: 079a a5be d7e7 40be e33b 4cbe da4b 46be
00000220: 9220 b4bd 0f0b e1bc 6351 89bc 8d9d fdbd
00000230: 3ac7 abbe 1d98 59bd 213f 2fbe b3fc 3e3c
00000240: 9ff6 0fbd 08b6 8dbe e5c8 93be 8491 9abd
00000250: fd60 71be 1d97 5f3b a6c5 0ac0 9207 41bc
00000260: 76d3 2c3e e5f8 0bbe 3aae c53d 4651 bd3d
00000270: 05a4 a7bc daa1 ca3c c3cb 043d 3629 bfbd
00000280: 70d3 67bd b7ac 0e3e 860f 323e 32bc 00bb
00000290: 8737 39be 0acc d0bc 8841 6abc e05b 2dc0
000002a0: 21ff b53e 4898 84bd b080 a83a ccf5 203d
000002b0: 153e afbe 5dbf e6bf b517 803e 3eda 2fbc
000002c0: ac9b 1f3e f1a9 803c 4089 893e 7c37 47bf
000002d0: 9433 d5bd 8395 fcbc 72b4 8b3d 0e0b e8bc
000002e0: 542b 8c3d fa53 33be f0ca a53e 1417 4bbe
000002f0: 9de5 bdbc 36fe 00c0 6ebb 3bbd f6a0 36bd
00000300: d09b cdbd 237d 743d 9173 143d f724 8c3e
00000310: 7b7e b63d 44c3 56bd a0c7 c23b 8569 35be
00000320: 28ec 6abc 7cce ac3c 6526 0f3d 3b9d 83bc
00000330: 6fa2 b93c 3086 ae3d cc21 913c 2ac1 4fbe
00000340: c546 77be 58eb 3abe 302d 17be bb7e a0bd
00000350: 34b0 533d 8e06 d73c da4c 663e 2c5e 63bd
00000360: f21e 11bf cef9 20bd 2b39 a43d 8379 04be
00000370: f097 943c 56fe 743d cae4 ec3c 0f47 f23d
00000380: b8dc 46bc ddae 0a3d 4f62 49bd ea4f 4fbc
00000390: 3cb5 35be bd38 083e 59e3 cebe b023 0abe
000003a0: 3db0 6abd 291f 9dbc ebe3 b93c 5080 8f3d
000003b0: 664d 683e 2273 0a3d 6211 a53d 0b25 8d3c
000003c0: eb1d 693d c910 dd3d ed77 c0be ce1b db3d
000003d0: 4385 0cbe 016a 763d 245f 4cbd bf22 ccbc
000003e0: 3515 bfbb b561 ddbe f56b 68be c4ac 59bd
000003f0: 9395 5c3d 9130 00be 1f30 e0bc 4b36 983d
